Linear_RDF.onnx (onnx, 84243 bytes, 19 tensors)

0.bias f4 [50]
0.14120398 -0.38889176 -0.53763884 0.45116806 -0.09937175 -0.4927635 -0.4982054 0.5460515
0.4636848 -0.19604342 0.21778722 0.5023731 -0.21218748 -0.30656654 -0.57667005 0.24260715
0.35131937 0.07733066 -0.2646807 0.20503455 0.012706518 -0.2020137 0.11750126 -0.06964451
0.5976476 -0.14018188 0.032631893 0.14654179 -0.03837335 -0.44131517 -0.3785642 0.41519988
0.54856944 -0.28758997 -0.21222588 0.047101427 0.16217256 -0.501282 -0.25100985 -0.04619057
0.4112073 -0.05008499 0.4334286 0.26901627 0.579873 -0.15171435 0.49834695 -0.24001914
0.4583761 0.4066903
00000000: c797 103e d21c c7be b3a2 09bf 80ff e63e
00000010: 6b83 cbbd 7f4b fcbe c714 ffbe 08ca 0b3f
00000020: 1868 ed3e 9bbf 48be 9d03 5f3e 869b 003f
00000030: ad47 59be 4af6 9cbe a6a0 13bf 026e 783e
00000040: 22e0 b33e 895f 9e3d 3b84 87be 94f4 513e
00000050: 002f 503c aedc 4ebe 80a4 f03d c8a1 8ebd
00000060: 6fff 183f d78b 0fbe 05a9 053d 0d0f 163e
00000070: 602d 1dbd 10f4 e1be 2bd3 c1be 1495 d43e
00000080: 0c6f 0c3f fe3e 93be be51 59be 6ded 403d
00000090: 9010 263e 0454 00bf 5d84 80be 5332 3dbd
000000a0: c389 d23e eb25 4dbd 5aea dd3e 80bc 893e
000000b0: 8f72 143f 025b 1bbe 5527 ff3e 94c7 75be
000000c0: 46b0 ea3e b639 d03e

0.weight f4 [50, 3]
0.33730072 -0.5977008 0.21424337 -0.10466647 -0.12276667 0.3784157 0.14247483 0.22141647
0.30739546 0.14846191 0.11885787 -0.4208859 0.084173344 0.082572766 -0.4494786 0.34546906
-0.07235962 -0.07751763 -0.02651763 0.29906058 0.561741 -0.44577563 -0.41559812 0.5335611
-0.34139004 0.06914699 0.2794208 0.2776596 -0.11730811 -0.39547718 -0.21809931 0.35713574
-0.32052502 -0.42035657 0.21446806 0.067681074 0.43586937 0.54403824 -0.40973195 -0.19139355
-0.5445274 0.07040733 0.25796926 -0.5621859 0.3043331 -0.03555858 -0.32097712 0.094907194
0.32487997 0.17355542 -0.08961489 -0.12912609 0.028144313 -0.05349833 0.18675487 -0.5555917
0.008372908 -0.025485227 -0.1746131 -0.40962052 -0.3476959 -0.432894 0.4882717 -0.564009
0.41161662 -0.57105666 -0.17382586 0.517835 0.29579824 -0.5504389 -0.31109023 0.3290223
-0.49307036 -0.3889721 -0.30698618 0.14705019 0.07716275 -0.12031764 0.3010185 -0.20621714
-0.58119935 0.18141143 -0.43644583 -0.09008746 0.26788104 -0.4697651 0.38158077 0.23434204
0.3476045 0.54296327 0.111370265 -0.18328035 0.054359138 0.16515395 -0.6041658 -0.21080539
-0.13578151 0.2910386 -0.04647761 -0.544424 0.47019494 -0.39898187 -0.4684087 -0.40476978
0.20756018 0.45750853 0.014834569 -0.4961719 -0.40117174 0.30924344 0.043041527 -0.28962395
0.33848506 0.23256099 0.5767747 -0.28024772 -0.58497584 0.3669965 -0.23151799 -0.12879795
-0.074435145 -0.23563209 -0.567152 -0.33838332 0.083707586 -0.3304969 -0.20677073 -0.43826044
0.23708032 -0.2427687 0.01566422 0.3984965 0.052959923 -0.4783548 -0.24306686 0.36222285
0.019771755 0.28137922 -0.32781705 0.21207483 -0.35483423 -0.3781023 0.020398855 0.19826621
-0.5793083 -0.2914676 -0.3259556 -0.11449909 0.36157447 0.12721503
00000000: aeb2 ac3e eb02 19bf 9d62 5b3e 605b d6bd
00000010: 186d fbbd b4bf c13e ece4 113e 00bb 623e
00000020: f062 9d3e 6606 183e c16b f33d 5b7e d7be
00000030: 1363 ac3d e91b a93d 0f22 e6be 52e1 b03e
00000040: 4831 94bd 90c1 9ebd 803b d9bc 781e 993e
00000050: 42ce 0f3f b43c e4be 47c9 d4be 7697 083f
00000060: adca aebe f09c 8d3d 3e10 8f3e 6629 8e3e
00000070: 3c3f f0bd fc7b cabe 6d55 5fbe 7fda b63e
00000080: db1b a4be fa38 d7be 849d 5b3e 609c 8a3d
00000090: 452a df3e 1746 0b3f 63c8 d1be acfc 43be
000000a0: 2666 0bbf b831 903d 8c14 843e 6aeb 0fbf
000000b0: 8cd1 9b3e e0a5 11bd 1d57 a4be b45e c23d
000000c0: ab56 a63e 83b8 313e 0388 b7bd a139 04be
000000d0: e78e e63c 1121 5bbd ab3c 3f3e 423b 0ebf
000000e0: 862e 093c 65c6 d0bc c7cd 32be c8b9 d1be
000000f0: 3205 b2be 48a4 ddbe c0fe f93e e562 10bf
00000100: 6abf d23e c530 12bf 68ff 31be d690 043f
00000110: de72 973e 90e9 0cbf 3847 9fbe 9c75 a83e
00000120: b873 fcbe 5a27 c7be 4b2d 9dbe 5394 163e
00000130: 8107 9e3d 1869 f6bd 191f 9a3e 962a 53be
00000140: 7bc9 14bf ebc3 393e d475 dfbe c67f b8bd
00000150: b427 893e 0d85 f0be 8e5e c33e 5cf7 6f3e
00000160: 38f9 b13e a4ff 0a3f 1816 e43d d8ad 3bbe
00000170: b0a7 5e3d 1e1e 293e 9caa 1abf 5edd 57be
00000180: 4f0a 0bbe 0303 953e 4e5f 3ebd 5f5f 0bbf
00000190: 64bd f03e 5a47 ccbe 44d3 efbe fc3d cfbe
000001a0: a88a 543e 8f3e ea3e b10c 733c 3e0a febe
000001b0: 6266 cdbe 2855 9e3e 504c 303d 9749 94be
000001c0: ea4d ad3e 7824 6e3e 82a7 133f a17c 8fbe
000001d0: fac0 15bf f7e6 bb3e 0d13 6dbe 9ce3 03be
000001e0: 7471 98bd 8a49 71be e030 11bf 9440 adbe
000001f0: e26e ab3d e436 a9be b5bb 53be ac63 e0be
00000200: 2fc5 723e 5c98 78be 4052 803c bc07 cc3e
00000210: 81ec 583d ecea f4be 85e6 78be 4675 b93e
00000220: 60f8 a13c f010 903e a3d7 a7be 252a 593e
00000230: d5ac b5be a096 c1be 801b a73c 4c06 4b3e
00000240: 8c4d 14bf 3e3b 95be a7e3 a6be 807e eabd
00000250: 4a20 b93e a844 023e

10.bias f4 [50]
0.0067974776 -0.13409859 0.077933125 -0.14414485 -0.0946597 0.0028029392 -0.055392675 -0.05622243
0.12255982 -0.12188195 -0.14188315 -0.06527303 0.090744846 -0.12576796 -0.004621728 -0.12434032
-0.099217884 -0.013926849 0.13276255 0.009005278 0.12276811 0.08538049 0.0874525 0.1003644
-0.121018685 -0.12881522 -0.13536759 0.14331 -0.04328358 0.09156656 -0.11330134 0.045828544
0.014651789 0.106428064 0.056866053 -0.12123265 -0.10665505 -0.044539966 0.0040051336 0.14308527
0.08767837 -0.11394199 -0.0039437125 0.12294164 -0.09347896 0.03307599 0.10101864 -0.08568449
-0.12558928 -0.09607813
00000000: 60bd de3b 2451 09be 679b 9f3d b59a 13be
00000010: f2dc c1bd 84b1 373b 6ee3 62bd 7e49 66bd
00000020: a500 fb3d 3e9d f9bd d149 11be dead 85bd
00000030: 6fd8 b93d 51c9 00be dd71 97bb 23a6 febd
00000040: bf32 cbbd 702d 64bc e8f2 073e e08a 133c
00000050: d96d fb3d f7db ae3d 4c1a b33d da8b cd3d
00000060: a5d8 f7bd 23e8 03be cd9d 0abe dbbf 123e
00000070: 204a 31bd 4087 bb3d 880a e8bd b6b6 3b3d
00000080: 0f0e 703c f5f6 d93d 61ec 683d d348 f8bd
00000090: f66d dabd 8a6f 36bd 7f3d 833b f284 123e
000000a0: b890 b33d 6b5a e9bd 423a 81bb d4c8 fb3d
000000b0: e671 bfbd b07a 073d dce2 ce3d 5a7b afbd
000000c0: 7a9a 00be 9cc4 c4bd

10.weight f4 [50, 50]
-0.0039750785 0.118609294 0.03964509 0.03730747 0.060117513 -0.007946074 -0.12615539 0.04570885
0.06771754 0.011880428 0.0071710497 0.06382522 0.12549628 0.02179715 -0.105150625 -0.10963116
0.055915534 0.06484327 0.026809305 0.1316094 0.06157434 0.021639422 0.015792042 -0.1315448
-0.048997514 0.11367364 0.007747829 0.12657256 -0.02570054 -0.07980734 0.09361802 0.110594735
0.012502402 -0.055454075 0.053526044 -0.015093535 -0.058494166 -0.029238015 0.0015864223 -0.10557852
-0.12876175 -0.060676664 -0.089614704 0.10398857 -0.07427433 0.073169455 0.014656499 0.050504223
-0.11650989 0.014574125 -0.10793178 0.046112284 -0.13670069 0.043306097 0.05688837 0.04482378
0.021459565 0.078489035 -0.12658845 -0.010278374 -0.06241232 -0.057482183 0.10540931 0.13215195
0.006247312 -0.058489002 -0.11170642 0.06759849 0.11764239 -0.09519532 0.10980059 0.0090492815
0.13685854 0.09403306 0.053334728 -0.13686576 -0.09606999 -0.005459249 -0.11923971 -0.12671068
0.05549006 0.06320737 0.06132999 -0.040035985 0.007537797 0.050206333 0.06493837 0.011438161
0.1350864 -0.06950499 -0.11800823 -0.121599816 0.104871914 0.05218962 -0.1272964 -0.13630591
-0.07202899 -0.12554488 -0.017445207 0.096255586 -0.09507158 -0.06484159 -0.00036162138 -0.11059344
-0.12455367 -0.099892944 0.036215756 -0.015287191 -0.13927524 -0.0007730032 0.07919331 -0.08521454
0.01991714 0.038639423 0.12468687 0.11077954 0.13117461 -0.09265292 0.07404384 0.079113916
0.07658093 -0.07946066 0.016109709 -0.0076903496 0.11066027 -0.116236106 -0.014920548 0.04874085
0.028561473 0.051026892 -0.013942122 0.07092589 -0.1392141 0.023184502 0.060253307 -0.076327644
0.019184431 0.03100886 0.0050376803 -0.08867108 0.08749277 -0.14272043 0.03421943 0.01897274
-0.11413993 -0.0914527 0.14110996 0.10091159 0.111571394 -0.033736978 -0.0060047507 0.0438256
-0.011119299 -0.08561652 0.034976646 -0.039752454 0.034811378 -0.033278227 0.002222782 0.08844535
0.015352756 0.018741312 0.0045297607 -0.016726619 0.028423699 0.08299286 -0.082166895 -0.10131735
-0.012995124 0.021074383 -0.1240094 0.050921038 0.12815748 0.0027541292 0.025537103 0.10297425
0.04542786 0.080272056 0.010327667 0.03325826 -0.08017226 -0.08111541 -0.13048314 0.081024334
-0.14557505 -0.09629884 -0.01161785 0.06425992 0.11237602 -0.1300754 0.12611522 0.08654457
0.10745171 0.09265938 -0.015005022 -0.012267098 0.12437521 -0.0016304702 0.12067694 0.08414774
-0.08425464 0.08117589 0.099739105 -0.13364722 0.095051646 -0.09737989 0.07537235 -0.064565584
0.02416329 0.05977863 -0.031148054 -0.044539496 0.010735139 -0.12304932 -0.13592142 0.08853589
0.029232278 -0.0035913438 -0.019061096 -0.07177983 -0.02395998 -0.053862296 0.124858096 -0.07875692
-0.033927895 0.060770005 0.0776249 0.09185603 0.13973348 -0.06547431 -0.05733742 0.03198707
-0.015561774 0.020622939 0.052327216 0.12218721 0.064085245 -0.09827745 -0.034209736 -0.05702877
0.116822645 0.0898702 -0.035887152 -0.09799947 0.037613183 -0.059449114 -0.10103072 -0.025313921
-0.095489085 0.11957981 -0.053852648 0.0175799 0.00067703583 0.11178357 -0.11202021 -0.09880866
00000000: 6041 82bb 6ee9 f23d e462 223d b8cf 183d
00000010: c83d 763d 4030 02bc e12e 01be 3439 3b3d
00000020: 7eaf 8a3d 20a6 423c 20fb ea3b ccb6 823d
00000030: 1982 003e f08f b23c 3659 d7bd 4d86 e0bd
00000040: b007 653d 8ccc 843d 309f db3c 9dc4 063e
00000050: 6035 7c3d 2845 b13c 505e 813c aeb3 06be
00000060: 9eb1 48bd bacd e83d 80e1 fd3b 3d9c 013e
00000070: f089 d2bc 0872 a3bd ceba bf3d 7e7f e23d
00000080: e0d6 4c3c d023 63bd 203e 5b3d e04a 77bc
00000090: 9497 6fbd 9084 efbc 80ef cf3a 8d39 d8bd
000000a0: 1fda 03be 1888 78bd ea87 b7bd f6f7 d43d
000000b0: 241d 98bd ded9 953d d021 703c 84dd 4e3d
000000c0: bd9c eebd 50c8 6e3c 560b ddbd 3ce0 3c3d
000000d0: 44fb 0bbe bc61 313d c803 693d 2499 373d
000000e0: f8cb af3c dcbe a03d 67a0 01be a066 28bc
000000f0: 10a4 7fbd 7072 6bbd d6e0 d73d d752 073e
00000100: 40b6 cc3b 2a92 6fbd 56c6 e4bd 1471 8a3d
00000110: 7eee f03d c4f5 c2bd 22df e03d 7043 143c
00000120: a524 0c3e 6894 c03d 8475 5a3d 8a26 0cbe
00000130: 58c0 c4bd 80e3 b2bb f333 f4bd 72c0 01be
00000140: 8c49 633d de72 813d 2835 7b3d c6fc 23bd
00000150: a0ff f63b 28a5 4d3d 68fe 843d 2067 3b3c
00000160: 1754 0a3e a258 8ebd 4dae f1bd 5309 f9bd
00000170: 16c7 d63d c8c4 553d fd59 02be c793 0bbe
00000180: ef83 93bd d68e 00be 40e9 8ebc a621 c53d
00000190: e3b4 c2bd abcb 84bd 0098 bdb9 d07e e2bd
000001a0: ff15 ffbd ac94 ccbd f956 143d 2077 7abc
000001b0: 2b9e 0ebe 5ea3 4aba 1a30 a23d f684 aebd
000001c0: 4529 a33c 5f44 1e3d d45b ff3d 62e0 e23d
000001d0: a352 063e d0c0 bdbd 4ca4 973d 7a06 a23d
000001e0: 76d6 9c3d 45bc a2bd 82f8 833c 54ff fbbb
000001f0: daa1 e23d 320d eebd 5075 74bc 7ca4 473d
00000200: c0f9 e93c 9301 513d 806d 64bc 9841 913d
00000210: 248e 0ebe 6ded bd3c 2ccc 763d ab51 9cbd
00000220: ab28 9d3c 4b06 fe3c 2013 a53b 2f99 b5bd
00000230: 692f b33d 4e25 12be ac29 0c3d b86c 9b3c
00000240: 32c2 e9bd 8e4b bbbd 217f 103e bcaa ce3d
00000250: 8b7f e43d c92f 0abd 80c3 c4bb 7982 333d
00000260: b82d 36bc b757 afbd ac43 0f3d 78d3 22bd
00000270: 6096 0e3d c04e 08bd 18ac 113b d622 b53d
00000280: 208a 7b3c 6187 993c 636e 943b 4306 89bc
00000290: d1d8 e83c 29f8 a93d 1e47 a8bd 797f cfbd
000002a0: 80e9 54bc 2fa4 ac3c a4f8 fdbd 9492 503d
000002b0: b73b 033e 9f7e 343b 3033 d13c 2ae4 d23d
000002c0: 9012 3a3d ad65 a43d 6035 293c d039 083d
000002d0: 5b31 a4bd d61f a6bd 5f9d 05be 16f0 a53d
000002e0: a011 15be 5438 c5bd cb58 3ebc b49a 833d
000002f0: 6625 e63d 7c32 05be 5924 013e 483e b13d
00000300: a40f dc3d 33c4 bd3d a0d7 75bc f0fb 48bc
00000310: 6eb8 fe3d 80b5 d5ba 7925 f73d a655 ac3d
00000320: b28d acbd 8c3f a63d 0444 cc3d d1da 08be
00000330: 70aa c23d 1c6f c7bd d25c 9a3d f63a 84bd
00000340: 18f2 c53c 70da 743d 342a ffbc 0c6f 36bd
00000350: 70e2 2f3c 4801 fcbd fc2e 0bbe 4e52 b53d
00000360: 8878 ef3c c05c 6bbb 0426 9cbc 4e01 93bd
00000370: b847 c4bc b69e 5cbd 9ab5 ff3d 4f4b a1bd
00000380: faf7 0abd f8e9 783d cef9 9e3d 041f bc3d
00000390: 4b16 0f3e 6517 86bd a4da 6abd e004 033d
000003a0: d0f6 7ebc 70f1 a83c 1055 563d 4a3d fa3d
000003b0: 203f 833d b045 c9bd 821f 0cbd 0097 69bd
000003c0: b640 ef3d de0d b83d 68fe 12bd f2b3 c8bd
000003d0: 4810 1a3d ea80 73bd 32e9 cebd 245f cfbc
000003e0: c88f c3bd 42e6 f43d 9894 5cbd b903 903c
000003f0: 1b7b 313a c9ee e43d da6a e5bd 325c cabd

12.bias f4 [50]
-0.08544602 0.11504074 0.055851214 0.092063144 0.09435609 0.1072541 -0.10778704 0.14555189
0.10208254 -0.10555612 -0.063517205 0.058163423 -0.106933825 0.040327467 0.09697363 0.08703523
0.12169225 -0.043274634 -0.07713868 -0.07231019 -0.12268323 -0.09061946 0.021682581 0.01771751
-0.049399786 -0.025675435 0.082101725 -0.14080356 0.102903515 -0.017505832 0.08626799 0.10292615
-0.10955499 0.08366458 -0.052991845 0.14733362 -0.09371123 -0.06428353 -0.06855973 -0.049006417
-0.11294832 0.067885555 -0.10783179 -0.07110194 0.08696157 -0.11541219 0.13743183 0.063286275
-0.01352054 -0.08966875
00000000: 53fe aebd 7b9a eb3d 3ec4 643d 9a8b bc3d
00000010: c43d c13d 0aa8 db3d 74bf dcbd 8e0b 153e
00000020: a710 d13d cf2d d8bd 4f15 82bd c53c 6e3d
00000030: 1f00 dbbd 6a2e 253d 1c9a c63d 873f b23d
00000040: c939 f93d be40 31bd e2fa 9dbd 5d17 94bd
00000050: 5841 fbbd b296 b9bd ab9f b13c 5024 913c
00000060: 6e57 4abd 4a55 d2bc f324 a83d cf2e 10be
00000070: 14bf d23d 6468 8fbc 46ad b03d f2ca d23d
00000080: 5e5e e0bd 5658 ab3d fa0d 59bd a0de 163e
00000090: aceb bfbd 15a7 83bd 0b69 8cbd f4ba 48bd
000000a0: 7351 e7bd 9507 8b3d ead6 dcbd e59d 91bd
000000b0: e818 b23d 3a5d ecbd eeba 0c3e 3c9c 813d
000000c0: 4185 5dbc 40a4 b7bd

12.weight f4 [50, 50]
-0.05655335 -0.050377406 0.09229846 0.030536193 0.006573662 -0.11097308 -0.11869489 -0.06689762
0.114037104 0.027423754 0.043002315 0.043236896 0.056108057 0.042610854 0.00964123 -0.06932277
0.09376949 0.04376763 -0.0645885 -0.06431301 0.09575326 -0.002503395 -0.028561262 0.05360343
0.021055423 -0.13165435 0.068058826 -0.112688616 -0.015576854 -0.118588835 -0.022596322 0.114049
-0.10231362 0.053618576 0.013657698 -0.07069505 -0.1374892 0.00816907 -0.016191602 -0.059167136
0.07157002 -0.07545913 0.11533129 0.09252608 0.054580703 0.03460723 -0.0075357445 -0.00281775
0.07020269 0.07391857 -0.0548181 0.00048823655 0.06696495 -0.0074546933 -0.021495976 -0.10559458
-0.13489944 -0.12183709 -0.11548877 -0.032995723 -0.11066596 -0.0644794 -0.10866551 -0.0036594868
-0.044644088 0.056389138 -0.086882964 -0.03393627 -0.09458851 -0.010799989 -0.034109198 0.097276255
-0.0020340711 0.06948259 -0.106448986 -0.11900018 0.13498928 -0.11028991 -0.090624884 -0.014016323
0.05213864 0.048021413 -0.07160381 0.120935455 0.009281418 0.063098475 -0.03163548 -0.10513918
-0.13447052 -0.024024624 -0.055055715 0.07898745 -0.117870525 -0.14734635 0.03455098 0.04687968
-0.12683126 -0.05316198 0.025493637 -0.09989906 0.10114172 -0.11350663 -0.10510353 0.11591144
-0.03598308 -0.1379977 -0.1123409 -0.032603875 0.054121003 0.05221033 -0.098014675 -0.05987201
-0.08640618 -0.06543946 -0.10026494 -0.015620425 -0.12107028 -0.117678225 -0.064306006 0.017275363
-0.08148932 -0.017023262 -0.1236872 0.0018362944 0.0105921775 0.033719927 0.04764664 -0.08664324
0.06711857 -0.0121485265 0.06377259 0.063248165 -0.03532147 0.100236624 0.06916671 -0.099431805
0.0058133304 -0.055687234 0.055817895 -0.08614262 0.08765662 0.10255046 0.122497745 0.035877228
0.07186037 0.047263667 -0.13768165 0.0371069 0.12776427 -0.10440235 -0.04815153 0.101830825
-0.08984911 0.13200562 0.13381417 0.13006997 -0.07341595 -0.07647485 0.026470987 0.13573183
-0.022874039 0.028551325 0.16608828 0.117497906 0.07850004 -0.05780259 -0.11463074 -0.03221842
0.09966105 -0.13534077 0.092133254 -0.050096244 0.123263724 -0.03676096 0.0056848302 0.0826247
0.09744671 -0.0018822383 0.019505456 0.0070933113 -0.120158575 0.12310866 0.02109551 0.109975524
0.0071343305 0.11874412 0.030025259 -0.04976198 -0.028549835 0.08845721 -0.041773427 0.08719967
0.08167324 0.01545309 -0.014662474 -0.07315666 0.013945664 0.01637818 -0.028584346 0.03459357
0.08376773 0.06377523 -0.02454329 -0.064324684 0.120053306 0.060011115 -0.08401717 -0.09148517
0.028896077 0.084443405 0.011462379 0.11527039 0.10929175 0.113005444 0.1141543 0.10933904
-0.12871073 -0.028972484 0.074217156 0.08926779 0.13487886 -0.09638279 0.1083006 0.052385155
0.13221985 -0.04419949 -0.02664189 -0.10545878 -0.041102067 -0.013422683 0.07408033 -0.016222939
-0.04294019 0.10317615 0.006113973 0.03221713 -0.115216 0.068871796 -0.12419271 0.13679644
-0.074449115 -0.029932037 -0.009902858 0.038765423 -0.08146796 0.11444698 0.12235722 0.13244261
0.0061707944 -0.1112596 -0.122606315 -0.13073021 0.12027728 0.024544466 0.08364284 0.028744789
00000000: 7ca4 67bd 8a58 4ebd fa06 bd3d 0a27 fa3c
00000010: e067 d73b db45 e3bd 4e16 f3bd 9f01 89bd
00000020: 498c e93d c8a7 e03c 3223 303d 2c19 313d
00000030: 90d1 653d b888 2e3d 40f6 1d3c 19f9 8dbd
00000040: 380a c03d b045 333d fa46 84bd 8ab6 83bd
00000050: 491a c43d 0010 24bb 4ff9 e9bc 458f 5b3d
00000060: 6c7c ac3c 66d0 06be 6d62 8b3d 4ac9 e6bd
00000070: 1036 7fbc b4de f2bd ec1b b9bc 8692 e93d
00000080: ce89 d1bd 279f 5b3d 8ac4 5f3c 91c8 90bd
00000090: f8c9 0cbe 90d7 053c 40a4 84bc 3d59 72bd
000000a0: 4d93 923d 518a 9abd d032 ec3d 507e bd3d
000000b0: 0490 5f3d 50c0 0d3d 68ee f6bb 00aa 38bb
000000c0: 6ec6 8f3d 9f62 973d f288 60bd 00fa ff39
000000d0: eb24 893d 8046 f4bb 5418 b0bc f941 d8bd
000000e0: 1423 0abe b985 f9bd 6085 ecbd 8626 07bd
000000f0: d6a4 e2bd c70d 84bd 068c debd 00d4 6fbb
00000100: b8dc 36bd 4cf8 663d b2ef b1bd c200 0bbd
00000110: 9fb7 c1bd 70f2 30bc 16b6 0bbd c638 c73d
00000120: 0d4e 05bb e34c 8e3d ed01 dabd 5eb6 f3bd
00000130: a13a 0a3e addf e1bd 8a99 b9bd b8a4 65bc
00000140: 548f 553d 1ab2 443d 05a5 92bd 02ad f73d
00000150: 1711 183c c639 813d 3494 01bd 3653 d7bd
00000160: a4b2 09be 4acf c4bc 1a82 61bd 2cc4 a13d
00000170: 1a66 f1bd f6e1 16be 5485 0d3d e804 403d
00000180: 0ee0 01be 60c0 59bd 08d8 d03c e197 ccbd
00000190: 6423 cf3d 2a76 e8bd 8540 d7bd fa62 ed3d
000001a0: fe62 13bd 454f 0dbe fc12 e6bd a48b 05bd
000001b0: fcad 5d3d 80da 553d ebbb c8bd 5a3c 75bd
000001c0: b9f5 b0bd 2005 86bd b457 cdbd d0ec 7fbc
000001d0: b2f3 f7bd 4801 f1bd deb2 83bd 1085 8d3c
000001e0: dfe3 a6bd 5e74 8bbc b74f fdbd d1af f03a
000001f0: d08a 2d3c e81d 0a3d 2029 433d 0372 b1bd
00000200: 7675 893d 9d0a 47bc 349b 823d 4188 813d
00000210: 3fad 10bd dc48 cd3d 47a7 8d3d e7a2 cbbd
00000220: c07d be3b 4c18 64bd 4ea1 643d 8b6b b0bd
00000230: 5085 b33d fa05 d23d 19e0 fa3d 00f4 123d
00000240: 882b 933d 8c97 413d 6bfc 0cbe 68fd 173d
00000250: a3d4 023e e6d0 d5bd 8a3a 45bd ae8c d03d
00000260: cf02 b8bd 7b2c 073e 9506 093e 1031 053e
00000270: 1a5b 96bd d99e 9cbd afd9 d83c 49fd 0a3e
00000280: 5662 bbbc 78e4 e93c 0c13 2a3e bea2 f03d
00000290: a1c4 a03d 69c2 6cbd 85c3 eabd 76f7 03bd
000002a0: 181b cc3d c596 0abe 5cb0 bc3d b831 4dbd
000002b0: b171 fc3d a992 16bd d047 ba3b 2437 a93d
000002c0: 2492 c73d 70b5 f6ba e8c9 9f3c 026f e83b
000002d0: b315 f6bd 6520 fc3d 7ed0 ac3c d93a e13d
000002e0: 1ac7 e93b 1e30 f33d 88f7 f53c 38d3 4bbd
000002f0: 58e1 e9bc 0e29 b53d 9d1a 2bbd be95 b23d
00000300: 4d44 a73d f52e 7d3c e03a 70bc 29d3 95bd
00000310: 5b7c 643c 882b 863c b829 eabc fdb1 0d3d
00000320: 6a8e ab3d 969c 823d 020f c9bc a9bc 83bd
00000330: 82de f53d 37ce 753d 3211 acbd 945c bbbd
00000340: 77b7 ec3c aaf0 ac3d b4cc 3b3c e212 ec3d
00000350: 5ad4 df3d 666f e73d bbc9 e93d 26ed df3d
00000360: bfcc 03be b457 edbc 2aff 973d 08d2 b63d
00000370: af1d 0a3e 5764 c5bd b4cc dd3d d191 563d
00000380: a464 073e 860a 35bd 1840 dabc c6fa d7bd
00000390: a45a 28bd d0ea 5bbc 6eb7 973d f8e5 84bc
000003a0: 0de2 2fbd 044e d33d b957 c83b 1cf6 033d
000003b0: 5ef6 ebbd a80c 8d3d bf58 febd 5e14 0c3e
000003c0: c778 98bd 0834 f5bc 993f 22bc 7ec8 1e3d
000003d0: acd8 a6bd 2e63 ea3d 6c96 fa3d 099f 073e
000003e0: 6034 ca3b 13dc e3bd 0519 fbbd 24de 05be
000003f0: ef53 f63d 7a11 c93c f04c ab3d 317a eb3c

14.bias f4 [50]
-0.057059534 0.05477365 0.024206523 0.11249952 -0.08784935 -0.11179614 -0.09329155 -0.09515449
-0.09296298 -0.10252545 -0.12044336 0.02888668 -0.08345471 0.103145115 -0.017648675 -0.03602331
-0.03427629 -0.1349525 -0.12885883 -0.034186743 0.041433927 0.10187483 0.010611841 -0.12524348
0.07531609 -0.123579934 -0.032575957 -0.13080244 -0.069434084 0.054860167 0.11169945 0.046328794
0.13614263 -0.058928955 -0.12266482 0.068169266 0.054291446 0.053317685 0.042496912 0.013425686
-0.053774867 0.12720138 -0.078279905 -0.08112247 0.10248193 -0.12246502 -0.049929976 0.022799214
-0.02115979 -0.13041125
00000000: 42b7 69bd 565a 603d c24c c63c 2666 e63d
00000010: 5cea b3bd 60f5 e4bd a40f bfbd 5be0 c2bd
00000020: 6063 bebd ddf8 d1bd 02ab f6bd c2a3 ec3c
00000030: 4eea aabd bf3d d33d f493 90bc 2e8d 13bd
00000040: 4c65 0cbd fd30 0abe 92f3 03be 6607 0cbd
00000050: 9fb6 293d c0a3 d03d 4add 2d3c d43f 00be
00000060: 523f 9a3d 7a17 fdbd 5e6e 05bd 13f1 05be
00000070: 7533 8ebd 0eb5 603d aec2 e43d 43c3 3d3d
00000080: f968 0b3e 7d5f 71bd b137 fbbd 549c 8b3d
00000090: b560 5e3d a563 5a3d 3e11 2e3d 69f7 5b3c
000000a0: 0943 5cbd 1441 023e 3751 a0bd 8a23 a6bd
000000b0: 0ce2 d13d f1ce fabd 6083 4cbd 6bc5 ba3c
000000c0: 4c57 adbc 878a 05be

14.weight f4 [50, 50]
0.0030811727 -0.11432546 0.04576999 -0.13626188 0.024060637 0.032294467 0.109310225 -0.04615812
-0.0135445595 0.03771743 -0.023166656 0.06072162 -0.120584145 -0.13028139 0.035567507 0.09869331
0.0682684 0.10421498 -0.08337273 -0.105407625 0.123751 -0.13789704 -0.044211403 -0.05038297
-0.0081599355 0.083794385 0.11767216 0.0008164793 -0.028458461 0.009525746 0.0405764 0.07189295
-0.1335606 0.06097725 0.0076078624 0.039577574 -0.13582066 0.08954784 -0.11848162 0.0789938
-0.120632835 -0.0029700845 -0.02092684 0.124725804 -0.1188319 0.029688552 -0.08541268 -0.09938784
-0.13537225 -0.11885774 0.0022523128 -0.08907162 -0.105219446 -0.08545697 -0.013323352 -0.025956228
-0.06020838 -0.06273398 -0.13051671 0.042207006 -0.05560685 0.021514248 -0.012533441 0.048417974
0.115306675 0.08819404 -0.002314043 -0.1352202 -0.09639197 -0.13880141 0.012319729 -0.10515815
-0.07069667 -0.05338084 0.13547413 0.063901715 -0.10040351 -0.08541454 0.03609945 0.07401718
-0.085036255 0.044680387 0.07381491 -0.13769601 -0.03459675 -0.08988093 0.011449695 0.05935782
-0.12619624 0.06339164 0.047204375 -0.061348572 -0.06316862 0.0003787428 0.11687381 0.04015532
0.027499521 -0.1474518 0.014608015 -0.019382238 -0.111975 -0.07901189 0.051443227 0.07209357
-0.007878449 0.104112625 0.10191862 0.024663612 -0.029033026 -0.09574457 0.12756781 -0.10287981
0.11726548 -0.07423193 -0.102294944 -0.03546424 0.08118697 0.1276335 -0.001404944 -0.058839142
-0.09041044 0.051999763 0.112893075 -0.020758554 -0.034891553 -0.13753021 -0.020173997 -0.08109
-0.008276037 0.10041873 -0.07310597 0.056662414 0.072899446 0.08424727 -0.07376348 -0.012057924
-0.06177678 -0.060996547 0.009351343 -0.12763472 -0.014909448 0.09891457 0.051766638 -0.061546728
0.08728023 0.03655885 -0.08092151 0.12241607 0.100543305 -0.014333278 0.0042535565 -0.060117748
0.04399697 0.108262055 0.10924332 -0.02768378 0.082115114 -0.0908654 0.0088420985 0.060477085
-0.06790815 -0.08403762 0.03479494 -0.037582252 0.13707876 -0.04271077 -0.11848885 0.03805013
0.0531336 -0.10550505 0.113234684 0.048026696 -0.039206937 -0.10660945 -0.10342829 0.017066365
0.14058708 -0.025859922 0.12833089 0.02484408 0.015096081 -0.09548756 -0.096905306 0.006720598
0.046276897 0.009804093 -0.13838933 0.054744784 0.13190325 -0.007682577 0.13981001 0.06983713
-0.07478841 0.030452907 0.023901712 -0.043236226 0.15689762 0.03850231 -0.05736842 0.078395724
-0.018253416 0.11185981 0.12166159 0.029824689 -0.09585912 0.09401235 0.041882068 -0.05829434
-0.017738715 -0.11023254 -0.043668136 -0.08630405 -0.059076145 -0.038297497 0.09721193 -0.022664063
-0.13247271 0.039773345 0.03199397 0.12943484 0.13794948 0.047007844 -0.076393545 -0.030522257
-0.09267116 -0.05711092 0.1301909 -0.12591197 -0.11106402 -0.062737085 0.12437664 0.06960221
0.12226035 -0.10995141 -0.066905916 0.09272803 0.07837331 0.11353128 -0.06909263 0.05845067
0.1253676 0.0051126033 0.12968744 -0.028266564 -0.10071516 -0.035565063 0.03297472 -0.11432785
0.12659483 -0.05194021 0.016892985 -0.12867598 0.00615716 -0.14101776 0.11390816 0.048445016
00000000: 80ed 493b 7723 eabd 5079 3b3d 3c88 0bbe
00000010: d01a c53c 3447 043d 0ade df3d 4c10 3dbd
00000020: 00ea 5dbc 987d 1a3d 00c8 bdbc 3cb7 783d
00000030: d2f4 f6bd 7c68 05be 3caf 113d b81f ca3d
00000040: 4ed0 8b3d aa6e d53d 52bf aabd f4df d7bd
00000050: 2a71 fd3d e234 0dbe 0417 35bd 605e 4ebd
00000060: 40b1 05bc 649c ab3d 1afe f03d 0009 563a
00000070: b821 e9bc e011 1c3c 7033 263d 9c3c 933d
00000080: 1cc4 08be 48c3 793d 604b f93b 181c 223d
00000090: 9214 0bbe dc64 b73d 7ea6 f2bd 80c7 a13d
000000a0: 590e f7bd c0a5 42bb c46e abbc 3e70 ff3d
000000b0: 245e f3bd 6835 f33c d8ec aebd da8b cbbd
000000c0: 069f 0abe b06b f3bd 8a9b 133b 2e6b b6bd
000000d0: 4b7d d7bd 1004 afbd 304a 5abc 28a2 d4bc
000000e0: 109d 76bd ac7a 80bd 2ca6 05be 41e1 2c3d
000000f0: 02c4 63bd a63e b03c 1059 4dbc ed51 463d
00000100: e825 ec3d 149f b43d 33a7 17bb 2a77 0abe
00000110: 2769 c5bd f521 0ebe b0d8 493c 285d d7bd
00000120: 6ac9 90bd dea5 5abd bbb9 0a3e e7de 823d
00000130: 5ba0 cdbd d1ed aebd 04dd 133d 5296 973d
00000140: 7d27 aebd c802 373d 462c 973d 2f00 0dbe
00000150: 52b5 0dbd 7e13 b8bd 8097 3b3c 2f21 733d
00000160: 9639 01be 7ad3 813d 6059 413d a448 7bbd
00000170: 8d5e 81bd 0092 c639 895b ef3d e879 243d
00000180: ad46 e13c 9bfd 16be 7556 6f3c 80c7 9ebc
00000190: 2653 e5bd fcd0 a1bd 22b6 523d cba5 933d
000001a0: 9c14 01bc 0039 d53d b6ba d03d 580b ca3c
000001b0: abd6 edbc bb15 c4bd 23a1 023e a6b2 d2bd
000001c0: e228 f03d e906 98bd 0380 d1bd f342 11bd
000001d0: 5b45 a63d 5bb2 023e 1926 b8ba 5001 71bd
000001e0: 1c29 b9bd b4fd 543d 7c34 e73d d80d aabc
000001f0: 72ea 0ebd b8d4 0cbe f043 a5bc 8412 a6bd
00000200: 3798 07bc 56a8 cd3d 95b8 95bd d916 683d
00000210: 4e4c 953d d589 ac3d 4f11 97bd 998e 45bc
00000220: a609 7dbd 84d7 79bd 6036 193c adb2 02be
00000230: c246 74bc b993 ca3d 4109 543d 6c18 7cbd
00000240: fabf b23d bcbe 153d 2dba a5bd 47b5 fa3d
00000250: a6e9 cd3d 20d6 6abc 6b61 8b3b 073e 76bd
00000260: 2b36 343d 7fb8 dd3d f6ba df3d 18c9 e2bc
00000270: f82b a83d a417 babd 73de 103c d2b6 773d
00000280: 6e13 8bbd ea1b acbd 2485 0e3d d9ef 19bd
00000290: 605e 0c3e 7df1 2ebd 48aa f2bd 74da 1b3d
000002a0: 9ea2 593d 0813 d8bd 96e7 e73d a4b7 443d
000002b0: 7497 20bd 0e56 dabd 36d2 d3bd c3ce 8b3c
000002c0: 0ff6 0f3e 30d8 d3bc 2c69 033e d085 cb3c
000002d0: 8e55 773c fb8e c3bd 4a76 c6bd 7638 dc3b
000002e0: d88c 3d3d 59a1 203c efb5 0dbe 113c 603d
000002f0: a511 073e 20be fbbb 5b2a 0f3e c506 8f3d
00000300: aa2a 99bd 6078 f93c 86cd c33c 7818 31bd
00000310: c5a9 203e 99b4 1d3d 26fb 6abd f08d a03d
00000320: 3088 95bc c216 e53d b629 f93d e852 f43c
00000330: c951 c4bd 8c89 c03d 888c 2b3d 0cc6 6ebd
00000340: c850 91bc 99c1 e1bd 5cdd 32bd 2ec0 b0bd
00000350: d4f9 71bd d6dd 1cbd 0c17 c73d fca9 b9bc
00000360: eda6 07be 60e9 223d 1c0c 033d 918a 043e
00000370: a142 0d3e 4c8b 403d 3874 9cbd d009 fabc
00000380: 61ca bdbd 24ed 69bd c350 053e 11ef 00be
00000390: 8875 e3bd 4d7c 80bd 2eb9 fe3d 9a8b 8e3d
000003a0: a263 fa3d 342e e1bd f805 89bd 32e8 bd3d
000003b0: 3082 a03d 1683 e83d 7080 8dbd f869 6f3d
000003c0: 5d60 003e a087 a73b c9cc 043e 488f e7bc
000003d0: c043 cebd acac 11bd 8010 073d b824 eabd
000003e0: 13a2 013e 42bf 54bd 2863 8a3c a3c3 03be
000003f0: 00c2 c93b f666 10be ae48 e93d 486e 463d

16.bias f4 [50]
-0.09388192 -0.040931202 -0.03549006 0.036254533 -0.12096773 -0.022561617 -0.121963866 -0.02371315
-0.077278025 0.06292002 -0.044782177 -0.09592654 -0.09338118 0.009216946 -0.115409255 0.07032391
0.09566023 0.043928362 -0.083928406 -0.08932767 -0.09471926 -0.014723076 -0.08775101 0.12054174
0.05530882 -0.08855477 0.0612536 0.09501223 0.05105937 0.0031682407 0.073905185 -0.017854467
0.12510976 -0.059169523 -0.1005269 0.118878 0.0970047 0.007949609 0.06688402 0.018370122
-0.0810868 -0.12909414 0.06120417 -0.067871965 0.11836568 0.11601372 0.06272809 -0.045912422
0.13652618 0.017975181
00000000: 2a45 c0bd 7aa7 27bd 065e 11bd a27f 143d
00000010: eebd f7bd 24d3 b8bc 31c8 f9bd 1442 c2bc
00000020: f143 9ebd 36dc 803d 846d 37bd 2275 c4bd
00000030: a23e bfbd ac02 173c b05b ecbd fb05 903d
00000040: 83e9 c33d 3aee 333d a8e2 abbd 6df1 b6bd
00000050: 2cfc c1bd 0e39 71bc cdb6 b3bd 96de f63d
00000060: 808b 623d 345c b5bd 0ee5 7a3d c695 c23d
00000070: a123 513d 42a2 4f3b 9a5b 973d 8843 92bc
00000080: c61c 003e be5b 72bd 0ce1 cdbd 4f76 f33d
00000090: 66aa c63d 143f 023c 7dfa 883d f07c 963c
000000a0: d610 a6bd 4131 04be 39b1 7a3d 7500 8bbd
000000b0: b569 f23d 9a98 ed3d 9677 803d aa0e 3cbd
000000c0: 85cd 0b3e b040 933c

16.weight f4 [50, 50]
-0.13392688 0.09230934 -0.057566576 -0.13531217 -0.11052902 0.020977885 0.001421541 -0.03448929
0.08326928 -0.015362129 0.08728139 0.11215119 -0.1263719 0.133182 0.12612467 0.08837308
-0.11206652 -0.08622738 -0.0875005 -0.11174883 -0.06729805 0.10840194 0.01033707 0.117538825
-0.06486857 -0.07220024 0.017015234 0.06665397 -0.08072437 0.09475611 0.10524033 -0.13217431
-0.01882159 -0.06077692 -0.11339234 0.07457748 -0.12215333 0.03277403 -0.05931721 -0.10477303
0.085430145 -0.12788509 0.117556885 0.12048127 -0.1327095 -0.021023571 0.14081995 -0.13317543
-0.007304907 -0.061746873 0.06351568 -0.121521115 0.004997234 0.1350494 0.027556002 -0.061388202
0.11576092 0.08125815 0.06050733 -0.10972437 0.008416355 0.14092362 0.10715613 0.12721245
-0.06798229 -0.006351281 0.031984784 0.04040955 0.01991481 0.13572581 0.018622331 0.11289453
0.09723872 -0.07886458 0.074572384 -0.058922417 -0.11141436 0.14005908 0.09929697 0.13044289
0.096820764 0.09218378 -0.0674862 -0.038989045 -0.022269636 0.06702854 0.12634294 0.07737572
0.12836523 0.0028616965 0.055028763 0.10714902 0.06257978 -0.07814094 0.04071474 0.06766391
-0.13362314 -0.032669105 -0.0971552 -0.075327665 -0.06057807 0.09358799 -0.018893445 0.09863266
-0.05564025 0.021116734 -0.10001797 -0.058068775 -0.09114811 -0.08209057 0.018602714 0.037762247
0.076796025 -0.03267312 -0.081407085 -0.012538937 -0.06595412 -0.13834915 0.116106756 -0.04900065
-0.007805351 0.07986316 0.061498687 0.047315806 -0.12386251 0.048046876 -0.11265738 -0.018016348
0.116981074 0.11644863 -0.024069974 0.038292393 0.068846755 -0.14326642 -0.08392495 0.086725384
0.116705164 0.07099671 -0.090838216 -0.100546 -0.03890796 0.099346206 0.005169153 -0.08097042
-0.03530041 0.04852532 -0.10439227 -0.1185534 -0.1359196 0.11393382 -0.015055358 0.042722274
0.02966192 0.084556095 -0.024033688 0.0041458607 0.049068898 0.013058886 0.104351 -0.11021626
-0.08753543 0.11499341 0.06504063 0.11167142 0.008870274 -0.035183065 -0.12902828 0.014534712
-0.13766494 0.026683822 -0.10623799 0.044360004 -0.0961975 -0.11300904 0.09438175 -0.100490466
0.08320245 0.028117195 -0.1316812 0.027483428 0.11500102 -0.13991822 -0.14505002 0.033272848
-0.037541837 -0.10981172 0.12585528 -0.12892835 -0.103172064 0.026721077 0.03162408 -0.116310805
-0.0873541 -0.07154519 -0.018347332 -0.022493571 0.13461925 0.002649046 -0.10064432 0.07527836
-0.015923262 0.122621164 -0.06741989 -0.115036234 0.037816003 0.010541901 0.086669564 -0.01518701
-0.08830789 0.03916499 0.054452106 -0.04079441 0.031803295 -0.03578475 0.08814503 0.046280682
0.13499002 0.0868662 0.12460597 -0.04024925 0.028396815 -0.047363974 -0.09691787 -0.020082183
0.046538293 -0.003084883 0.006816864 -0.13489898 -0.0021705925 -0.007105246 -0.018853486 -0.04281722
0.062104315 0.13450678 0.035376653 -0.100933805 0.12951843 -0.12827545 -0.01657381 0.029909506
0.028607547 -0.12667237 -0.12919326 0.059851646 -0.05375059 0.09631181 0.095673606 0.041772455
0.0991406 0.07618369 -0.12818956 0.11941092 -0.13915455 0.12504525 0.06725933 0.001982987
00000000: 2124 09be ae0c bd3d eeca 6bbd 468f 0abe
00000010: 0a5d e2bd d0d9 ab3c 0053 ba3a a444 0dbd
00000020: 1689 aa3d 70b1 7bbc 96c0 b23d 86af e53d
00000030: a367 01be dd60 083e d326 013e f2fc b43d
00000040: 2283 e5bd fb97 b0bd 7633 b3bd 92dc e4bd
00000050: 8fd3 89bd d601 de3d d05c 293c 32b8 f03d
00000060: d0d9 84bd b8dd 93bd 8863 8b3c e081 883d
00000070: d252 a5bd 7e0f c23d 3e88 d73d b458 07be
00000080: bc2f 9abc 38f1 78bd 3e3a e8bd 14bc 983d
00000090: 862b fabd 103e 063d 9af6 72bd 3e93 d6bd
000000a0: 00f6 ae3d 4ff4 02be aac1 f03d e2be f63d
000000b0: 00e5 07be a039 acbc 1b33 103e 245f 08be
000000c0: 005e efbb 4aea 7cbd 8214 823d 10e0 f8bd
000000d0: d6bf a33b 644a 0a3e 20bd e13c 3272 7bbd
000000e0: 1014 ed3d ac6a a63d 89d6 773d 2cb7 e0bd
000000f0: c0e4 093c 484e 103e ac74 db3d fb43 023e
00000100: 4d3a 8bbd 681e d0bb 7a02 033d 7c84 253d
00000110: 6224 a33c b5fb 0a3e dc8d 983c 3f35 e73d
00000120: 1825 c73d c183 a1bd 68b9 983d a258 71bd
00000130: 362d e4bd a66b 0f3e 365c cb3d d292 053e
00000140: f749 c63d daca bc3d 3436 8abd fab2 1fbd
00000150: d06e b6bc 4246 893d 0b60 013e 2977 9e3d
00000160: 2d72 033e 4d8b 3b3b d765 613d f270 db3d
00000170: d429 803d 5b08 a0bd 80c4 263d 6093 8a3d
00000180: 81d4 08be 0ad0 05bd 4ef9 c6bd 6445 9abd
00000190: b620 78bd 0fab bf3d 6dc6 9abc ecff c93d
000001a0: 08e7 63bd 00fd ac3c 39d6 ccbd 86d9 6dbd
000001b0: dcab babd 1a1f a8bd b864 983c 96ac 1a3d
000001c0: 3c47 9d3d 40d4 05bd c2b8 a6bd 1d70 4dbc
000001d0: f412 87bd 66ab 0dbe 61c9 ed3d e8b4 48bd
000001e0: 08c4 ffbb 4c8f a33d 0ce6 7b3d 38ce 413d
000001f0: a1ab fdbd cdcc 443d eab8 e6bd 0597 93bc
00000200: c693 ef3d 9f7c ee3d 652e c5bc 7cd8 1c3d
00000210: 87ff 8c3d 6fb4 12be d8e0 abbd 149d b13d
00000220: 1e03 ef3d b966 913d 6309 babd 10eb cdbd
00000230: f45d 1fbd 0676 cb3d 0062 a93b d2d3 a5bd
00000240: 2a97 10bd 7cc2 463d 9dcb d5bd 20cc f2bd
00000250: 822e 0bbe 2256 e93d c0aa 76bc 8dfd 2e3d
00000260: 8efd f23c bf2b ad3d 4ce2 c4bc 00da 873b
00000270: 78fc 483d f0f4 553c fab5 d53d 10b9 e1bd
00000280: c745 b3bd aa81 eb3d 0634 853d fcb3 e43d
00000290: a054 113c 1e1c 10bd fd1f 04be 0023 6e3c
000002a0: 0af8 0cbe 0898 da3c 4e93 d9bd d6b2 353d
000002b0: 3203 c5bd 4971 e7bd 384b c13d f2cd cdbd
000002c0: 0c66 aa3d 0856 e63c 70d7 06be ed24 e13c
000002d0: a885 eb3d b946 0fbe fe87 14be 1c49 083d
000002e0: 78c5 19bd f8e4 e0bd 35e0 003e cb05 04be
000002f0: e04b d3bd 29e6 da3c 4088 013d 5c34 eebd
00000300: b5e6 b2bd 4986 92bd 254d 96bc 7044 b8bc
00000310: a1d9 093e 9e9b 2d3b 9c1e cebd 8a2b 9a3d
00000320: 8071 82bc ce20 fb3d 7013 8abd 1e98 ebbd
00000330: f4e4 1a3d f0b7 2c3c d07f b13d f0d2 78bc
00000340: c4da b4bd 786b 203d 2c09 5f3d 0a18 27bd
00000350: 2c44 023d 0893 12bd 6285 b43d d090 3d3d
00000360: d33a 0a3e e8e6 b13d 6a31 ff3d 66dc 24bd
00000370: 70a0 e83c ba00 42bd e07c c6bd 6483 a4bc
00000380: f09e 3e3d c02b 4abb 0060 df3b f522 0abe
00000390: 8040 0ebb 20d3 e8bb a072 9abc 1c61 2fbd
000003a0: 1861 7e3d 25bc 093e 1ce7 103d 62b6 cebd
000003b0: 7ba0 043e a45a 03be ccc5 87bc c804 f53c
000003c0: 605a ea3c 67b6 01be 3d4b 04be 0027 753d
000003d0: 9429 5cbd 203f c53d 86f0 c33d 9819 2b3d
000003e0: 3a0a cb3d 3206 9c3d 2044 03be b68d f43d
000003f0: 887e 0ebe dd0b 003e 42bf 893d 00f5 013b

18.weight f4 [1, 50]
0.11226608 0.1302624 0.019252928 -0.13362734 -0.016256034 0.12881063 0.09615516 0.04896818
-0.07274334 -0.09750446 0.038060784 0.12156637 -0.052112438 -0.027457122 -0.036052622 -0.011401627
-0.035055637 -0.08003483 -0.016520016 0.037635416 0.10277937 -0.097284384 -0.05431807 -0.10851894
-0.063197576 0.026492536 0.033924174 -0.006408332 -0.12356311 0.15195839 0.009823602 0.014726341
0.16236487 -0.112671375 -0.07233376 -0.032365777 -0.009548064 0.06907606 0.022485716 0.042484477
-0.004606679 -0.02091667 0.1539453 0.0903379 0.08507384 0.022065729 0.12832443 0.06402308
0.07249189 -0.12592173
00000000: c2eb e53d 8263 053e 51b8 9d3c 9bd5 08be
00000010: 602b 85bc efe6 033e ffec c43d dc92 483d
00000020: 76fa 94bd 6bb0 c7bd a0e5 1b3d caf7 f83d
00000030: da73 55bd c2ed e0bc eaab 13bd e4cd 3abc
00000040: 8096 0fbd 4de9 a3bd fc54 87bc 9827 1a3d
00000050: fe7d d23d 093d c7bd a07c 5ebd 2e3f debd
00000060: bb6d 81bd e006 d93c 13f4 0a3d fcfc d1bb
00000070: a80e fdbd fb9a 1b3e 2cf3 203c c046 713c
00000080: fa42 263e 40c0 e6bd b923 94bd fa91 04bd
00000090: 7c6f 1cbc c077 8d3d f733 b83c 3404 2e3d
000000a0: a0f3 96bb 7059 abbc d6a3 1d3e 1403 b93d
000000b0: 323b ae3d 30c3 b43c 7b67 033e 881e 833d
000000c0: a176 943d a0f1 00be

2.bias f4 [50]
0.100960255 -0.0946254 0.0052042753 -0.0387631 0.09342943 -0.0013383821 0.10740178 0.10691117
0.027471185 0.14291218 0.09587297 0.008014161 0.11742137 0.103761934 0.16100885 -0.09456475
0.032849923 0.12326425 -0.05759322 0.1371528 -0.047796648 0.09577174 -0.09913839 0.016146934
0.062094703 -0.06377704 -0.11749463 0.03333889 -0.076321155 -0.058316402 0.08721001 0.08864085
-0.13816567 0.013274983 -0.0787378 -0.07854602 0.12428751 -0.08421843 -0.0015460104 -0.12509349
-0.03270265 0.12341431 -0.13779128 -0.08031561 -0.12289068 0.10980229 0.092920065 -0.044048958
-0.08686547 -0.110062234
00000000: 40c4 ce3d f6ca c1bd a088 aa3b 0ec6 1ebd
00000010: ee57 bf3d a76c afba 77f5 db3d 3ef4 da3d
00000020: 400b e13c 9257 123e 0c59 c43d d44d 033c
00000030: 9e7a f03d 2381 d43d 81df 243e 2aab c1bd
00000040: a48d 063d f871 fc3d dee6 6bbd c971 0c3e
00000050: 6bc6 43bd f923 c43d 1109 cbbd 9346 843c
00000060: 0457 7e3d 899d 82bd 06a1 f0bd 5c8e 083d
00000070: 444e 9cbd 2edd 6ebd 299b b23d 5589 b53d
00000080: 4d7b 0dbe 507f 593c 4941 a1bd bcdc a0bd
00000090: 738a fe3d b67a acbd 80a3 caba 8218 00be
000000a0: 37f3 05bd a4c0 fc3d 2819 0dbe 837c a4bd
000000b0: 1cae fbbd 06e0 e03d e04c be3d ae6c 34bd
000000c0: 86e6 b1bd 4f68 e1bd

2.weight f4 [50, 50]
0.05996801 0.09324798 -0.04815957 0.0785972 0.099872276 0.12938128 -0.1400311 -0.070199646
-0.12431702 -0.114890985 0.0857047 0.07930069 -0.075994685 0.110468164 0.007677853 -0.13391207
-0.013917491 -0.060612917 0.01060532 0.017293304 -0.06787969 -0.018531516 0.050617695 -0.020646527
-0.14008251 0.0726082 -0.08469881 -0.13723299 0.02145803 -0.07086816 -0.10195468 0.038220406
-0.028228581 0.05003597 -0.107481554 -0.02622664 -0.11612213 0.07213998 0.059571475 0.046130627
-0.10870582 0.020336732 0.04204978 -0.048510887 -0.05490703 0.092582956 0.12519594 0.04985532
-0.082856566 -0.11992509 -0.017782249 0.12520738 -0.13469173 -0.09405227 -0.080463916 0.10544537
-0.011771992 0.008106917 0.06679942 0.03414999 0.033001676 0.06675553 0.085549176 0.09788434
-0.037526056 0.13682483 -0.07200314 0.09950864 0.030635059 0.08838032 -0.093361035 -0.02796939
-0.06451725 -0.029599443 -0.040014222 0.07350309 -0.117758416 -0.039363205 0.018444613 -0.038841628
0.14102866 -0.048977487 0.027804479 -0.08194584 0.04743755 0.024408206 0.12343584 -0.0037302822
-0.025663637 0.019304141 -0.12759781 -0.114982024 -0.02163738 0.11903484 0.024617597 -0.014506727
0.11348398 0.089664236 -0.05583618 0.053838506 -0.040940084 -0.1048881 0.04555255 -0.118981905
0.12811787 0.14110278 -0.11622146 -0.12946433 -0.020427704 0.11791761 -0.022485666 -0.06416435
0.04858753 -0.066893086 -0.036595434 0.110195264 0.0692039 -0.03875959 -0.13791616 0.14113657
-0.013449192 0.104606 -0.10412636 -0.11270762 0.06796092 -0.072302856 -0.10614437 -0.101157025
0.1256047 -0.0984453 -0.026215374 -0.13780631 0.05882506 -0.024258293 0.11139257 -0.06749592
-0.137567 -0.034732126 -0.1361889 0.0020647645 -0.03615416 0.009013668 -0.14065951 -0.13029501
-0.11899963 0.06596011 -0.08675471 0.010733366 -0.10197562 0.070328176 0.03327026 -0.07554299
0.083581015 0.15047519 0.0028818874 0.12143178 0.0071664453 0.0002797693 0.13222776 -0.038228154
-0.053758036 -0.07790615 -0.013647358 0.0660789 -0.066438965 -0.05559807 0.09624949 0.14053023
-0.08337371 0.030911945 0.04759668 0.04489462 -0.06284886 -0.023537636 0.12882711 0.163348
0.015157616 0.083506 -0.045703925 -0.01510714 -0.036459737 0.13214013 0.14662169 0.06761287
0.096940205 -0.091144666 0.11682893 -0.0034921318 -0.023391642 0.162154 -0.031730972 0.06817209
-0.06744966 -0.013087302 0.008278064 0.07615298 0.13707191 0.040398166 0.06908533 -0.04603464
0.049946085 0.0012247711 -0.05143863 -0.015070165 0.090261474 -0.0052520186 0.10162206 0.07298723
0.02909264 0.08635075 0.028410858 0.1263086 -0.059781708 -0.12383554 0.12117915 0.070451595
0.10019149 -0.14021227 -0.14910029 0.08501446 0.051986903 -0.13507517 0.08433847 0.13573359
-0.005256438 0.013464184 -0.12508506 0.085323855 -0.01798544 0.043980032 0.101257384 0.009137984
0.109194584 0.020690024 -0.06483647 -0.0037219904 0.018190965 0.11471374 -0.162253 -0.05023223
0.021438336 0.0049656476 -0.15957826 0.1394798 0.0358314 -0.12198271 -0.010966086 -0.008959264
0.09443211 -0.01532039 0.010140099 -0.011581823 -0.045679934 0.15443186 -0.057899356 0.08595984
00000000: 04a1 753d ccf8 be3d f842 45bd 92f7 a03d
00000010: d689 cc3d 877c 043e 5064 0fbe d5c4 8fbd
00000020: ec99 febd f74b ebbd f285 af3d 6668 a23d
00000030: 1aa3 9bbd 223d e23d 8096 fb3b 3f20 09be
00000040: 3006 64bc 4045 78bd f0c1 2d3c b0aa 8d3c
00000050: 8204 8bbd 68cf 97bc 8054 4f3d e822 a9bc
00000060: ca71 0fbe 9cb3 943d 9276 adbd ce86 0cbe
00000070: c0c8 af3c 5323 91bd 9ecd d0bd 008d 1c3d
00000080: a03f e7bc 84f2 4c3d 4a1f dcbd 40d9 d6bc
00000090: 70d1 edbd 20be 933d 3801 743d 78f3 3c3d
000000a0: 28a1 debd 3899 a63c 643c 2c3d 5ab3 46bd
000000b0: 32e6 60bd 229c bd3d 5d33 003e 1835 4c3d
000000c0: b4b0 a9bd 499b f5bd 14ac 91bc 5d36 003e
000000d0: a1ec 09be 7a9e c0bd 44ca a4bd bef3 d73d
000000e0: 50df 40bc e0d2 043c 22ce 883d dce0 0b3d
000000f0: c42c 073d 20b7 883d 6834 af3d 9677 c83d
00000100: ecb4 19bd cf1b 0c3e 6276 93bd 30cb cb3d
00000110: 60f6 fa3c be00 b53d 1234 bfbd 1020 e5bc
00000120: 9f21 84bd 887a f2bc f4e5 23bd ca88 963d
00000130: 532b f1bd 503b 21bd 2819 973c 6618 1fbd
00000140: d169 103e 9e9c 48bd 38c6 e33c 38d3 a7bd
00000150: e04d 423d b8f3 c73c eecb fc3d c077 74bb
00000160: 8c3c d2bc b823 9e3c 00a9 02be b27b ebbd
00000170: e040 b1bc 8ac8 f33d d8aa c93c a0ad 6dbc
00000180: 4a6a e83d e2a1 b73d 7ab4 64bd c485 5c3d
00000190: cab0 27bd 92cf d6bd 5095 3a3d c9ac f3bd
000001a0: 5531 033e 3f7d 103e 8405 eebd 4c92 04be
000001b0: 0058 a7bc ca7e f13d dc33 b8bc 9968 83bd
000001c0: b803 473d 3eff 88bd 18e5 15bd 0eae e13d
000001d0: c6ba 8d3d 60c2 1ebd e539 0dbe 1b86 103e
000001e0: 005a 5cbc ac3b d63d 3340 d5bd 41d3 e6bd
000001f0: 182f 8b3d 8513 94bd 3862 d9bd 6a2b cfbd
00000200: 859e 003e b09d c9bd a0c1 d6bc 191d 0dbe
00000210: 8cf2 703d 54b9 c6bc ca21 e43d 4d3b 8abd
00000220: 5dde 0cbe 4643 0ebd 1a75 0bbe 0051 073b
00000230: 6216 14bd 10ae 133c 0c09 10be 0e6c 05be
00000240: 14b6 f3bd 1816 873d 74ac b1bd 00db 2f3c
00000250: 98d8 d0bd 3808 903d 6546 083d 48b6 9abd
00000260: 862c ab3d 2b16 1a3e 0cde 3c3b 3ab1 f83d
00000270: 80d4 ea3b 00ae 9239 b766 073e 2095 1cbd
00000280: 6331 5cbd 428d 9fbd 2b99 5fbc 6054 873d
00000290: 2711 88bd cdba 63bd 741e c53d 28e7 0f3e
000002a0: d6bf aabd 0c3b fd3c bcf4 423d 6ce3 373d
000002b0: e7b6 80bd 00d2 c0bc 41eb 033e b344 273e
000002c0: a657 783c 3205 ab3d 0a34 3bbd f083 77bc
000002d0: ce56 15bd be4f 073e ff23 163e 9e78 8a3d
000002e0: 9688 c63d 0eaa babd 0244 ef3d 40dc 64bb
000002f0: d49f bfbc b30b 263e 56f8 01bd cf9d 8b3d
00000300: 0c23 8abd 206c 56bc b8a0 073c 18f6 9b3d
00000310: 945c 0c3e 8c78 253d 9c7c 8d3d d28e 3cbd
00000320: 4494 4c3d 8088 a03a 50b1 52bd dae8 76bc
00000330: 02db b83d 2019 acbb 3a1f d03d 547a 953d
00000340: b053 ee3c a9d8 b03d e3bd e83c 0b57 013e
00000350: aadd 74bd 7d9d fdbd c62c f83d ed48 903d
00000360: 3231 cd3d ce93 0fbe bfad 18be 101c ae3d
00000370: 38f0 543d 2551 0abe a6b9 ac3d bffd 0a3e
00000380: 333e acbb e198 5c3c 4c16 00be 46be ae3d
00000390: 3456 93bc 6824 343d 0860 cf3d 7cb7 153c
000003a0: 69a1 df3d 207e a93c fcc8 84bd a3ec 73bb
000003b0: 3805 953c 0aef ea3d a725 26be 50c0 4dbd
000003c0: 739f af3c dfb6 a23b 7c68 23be cbd3 0e3e
000003d0: f2c3 123d 12d2 f9bd 19ab 33bc e0c9 12bc
000003e0: 9f65 c13d 6002 7bbc a822 263c b0c1 3dbc
000003f0: e21a 3bbd 6323 1e3e e027 6dbd b60b b03d

4.bias f4 [50]
-0.025292039 -0.087493554 -0.043808628 0.16656233 -0.121168114 -0.14123058 0.11203068 0.16636191
0.06786484 0.12318005 0.11948493 0.12945765 0.16220059 0.07264186 -0.07602892 -0.00950364
0.11407121 0.057451516 -0.038300917 0.12390189 0.07913457 -0.05993537 0.14068171 -0.012425393
-0.05116924 0.11080137 -0.075356744 -0.13012005 -0.07807764 -0.020629197 -0.007779113 0.029351173
0.038439445 -0.008708268 -0.07423073 -0.110235795 0.081878945 -0.09663914 -0.081763074 0.042858332
-0.06999705 0.0049825963 -0.058585875 0.096875295 0.15016057 0.002770961 -0.11212902 0.027602226
0.016503781 0.15938784
00000000: 4031 cfbc d22f b3bd ad70 33bd 518f 2a3e
00000010: fd26 f8bd c09e 10be 5770 e53d c75a 2a3e
00000020: b9fc 8a3d d245 fc3d 84b4 f43d 8c90 043e
00000030: e917 263e 41c5 943d 0db5 9bbd 28b5 1bbc
00000040: 2b9e e93d 4852 6b3d 6ce1 1cbd 46c0 fd3d
00000050: 4e11 a23d ca7e 75bd de0e 103e e093 4bbc
00000060: d696 51bd d4eb e23d a354 9abd 313e 05be
00000070: 2be7 9fbd 90fe a8bc eee7 febb df71 f03c
00000080: ae72 1d3d 20ad 0ebc 4806 98bd 4ec3 e1bd
00000090: 26b0 a73d beea c5bd 6673 a7bd 388c 2f3d
000000a0: 9d5a 8fbd 0c45 a33b bef7 6fbd 8e66 c63d
000000b0: b1c3 193e 0399 353b e6a3 e5bd 101e e23c
000000c0: f032 873c 9136 233e
