LinearNN.onnx (onnx, 105320 bytes, 20 tensors)

0.bias f4 [50]
000000 d6 1a 98 3d 58 d2 88 bd c5 c9 b5 3d 5c 39 91 bc
       0.074269935 -0.06680745 0.08876375 -0.017727546
000010 23 83 b0 3d 48 34 ff 3d b1 1a ea 3c af f3 ff 3c
       0.08618762 0.12461144 0.02857718 0.031244127
000020 90 4d d8 3d f8 22 6b bd 77 95 e7 3d 1b c9 41 bc
       0.10561669 -0.057406396 0.11307805 -0.011827732
000030 c2 d7 19 3c 7e fe 30 bd bc 89 45 3d 27 43 d9 3d
       0.00938982 -0.043211453 0.048227057 0.106085114
000040 84 d5 31 3d e3 56 ec 3d 7f 96 5e 3d 4a fa a6 3d
       0.043416515 0.1154001 0.054342743 0.081532076
000050 06 21 1a bd 10 d9 0c 3d 24 82 a3 ba e1 a6 c8 3c
       -0.03762915 0.034386694 -0.0012474698 0.024493637
000060 81 e0 bf bb 03 41 4d 3d 7c ab 80 3c b2 5f 4c bd
       -0.0058556204 0.050110828 0.01570677 -0.04989595
000070 9c c4 94 bb 47 1c 7e 3d 6e 74 87 3c 06 c5 6d 3d
       -0.004540039 0.062038686 0.01653501 0.058049224
000080 82 ab 86 3c cb 5f 3e bc 1c ed ca 3d 03 23 b0 3d
       0.016439203 -0.0116195185 0.09908506 0.08600428
000090 fd 97 09 3d 49 65 9a 3d 11 50 84 bd 88 21 98 3d
       0.033592213 0.0753885 -0.06460584 0.074282706
0000a0 9f cf 2b bd fa 01 96 3d 83 9e b9 bb cb be 25 3e
       -0.04194605 0.07324596 -0.005664648 0.16186063
0000b0 a5 90 4b ba 28 33 51 3d 4b 78 f7 3d b6 d9 95 3d
       -0.0007765389 0.051074177 0.12083491 0.07316916
0000c0 09 39 88 bb f4 24 6b 3d
       -0.0041571897 0.057408288

0.weight f4 [50, 100]
000000 e1 88 e9 3d b5 12 6f bd a3 75 ca 3d 31 38 60 bd
       0.11403061 -0.05836745 0.09885719 -0.05474109
000010 16 07 fd bc 8a db 2d bd 23 1d a3 bc ff d7 d7 bc
       -0.030887168 -0.042445697 -0.019911354 -0.026348112
000020 ef 24 0b bd 99 f7 44 bd 3f 1c b6 3c 4c 59 25 3c
       -0.03397077 -0.04808769 0.022230266 0.010092091
000030 41 25 cb bd bc 15 88 3d d0 d0 93 bd cc 10 87 bd
       -0.09919215 0.066447705 -0.07217562 -0.065950006
000040 8c 7d e4 3d 1b 02 6c bd 8a d9 f2 3d ee 66 97 bd
       0.11156759 -0.057619195 0.118578985 -0.07392679
000050 f4 60 78 bd 64 d0 fa bd c2 92 dd bd 4e 57 99 bd
       -0.060639337 -0.122467786 -0.108190075 -0.07487355
000060 c3 7c 99 bd 14 cd b6 bb 14 3c 10 3e 4a b8 b0 bd
       -0.074944995 -0.0055786464 0.14085418 -0.086289
000070 a9 ad 2a bd 78 2e 3b bd c3 13 e2 3c f4 cd d3 bd
       -0.04166952 -0.045698613 0.027597314 -0.10342017
000080 5e f3 2d bc d0 b2 c1 3d 79 aa ab bd 4a 35 10 be
       -0.010617105 0.09457934 -0.083821245 -0.14082828
000090 9c a1 70 3c d1 6c 02 3d f6 c5 6e bd 1f 82 10 be
       0.014686968 0.031842057 -0.05829426 -0.14112137
0000a0 50 cf 13 3c ff cf 94 3d 06 cb 1c bd 54 8d b7 3d
       0.009021595 0.072662346 -0.038279556 0.08962503
0000b0 a3 c4 d7 bc 23 6f ca bd 03 e2 5c 3d dc b9 da 3d
       -0.02633888 -0.09884479 0.05392648 0.10679981
0000c0 37 74 60 bd ee 6e cc 3d 98 d9 bb 3d 4a 6c 88 bd
       -0.05479833 0.09982096 0.09172362 -0.066612795
0000d0 26 0e 45 bd 5b 40 0e 3d cf 76 a4 bc 18 84 ae 3d
       -0.048109196 0.034729343 -0.020076184 0.08521289
0000e0 49 1c e4 3c 70 8d 36 3c d7 62 85 bc e0 66 b8 3d
       0.027845519 0.01114212 -0.016282482 0.09003997
0000f0 0f 31 26 3d 83 93 cc bd 35 44 b0 bd 0e 5c 9d bd
       0.04057413 -0.09989073 -0.086067595 -0.07683574
000100 7d a5 ec 3c ad 41 15 3d 51 a8 8f bd f6 dc 65 bc
       0.028887505 0.036439586 -0.07014526 -0.014029732
000110 52 69 a2 3c d1 13 3e bb 98 3b ab 3d 37 88 eb bd
       0.019825611 -0.002900351 0.08360976 -0.1150059
000120 b0 11 96 bd 08 9b a7 bc 48 fc a6 bd 3a 8a 6c 3d
       -0.073275924 -0.020459667 -0.081535876 0.05774901
000130 2d e3 5e bb b9 3d 64 3c f3 d0 02 3d 91 8f 9d 3d
       -0.003400992 0.013930731 0.03193755 0.07693399
000140 09 bc 30 bd 8d 91 19 bd ce 7a 20 3d b9 33 f6 3d
       -0.043148074 -0.037492324 0.039179616 0.12021584
000150 c2 4c ea 3d 77 17 64 3d f6 08 3d 3d 05 93 40 bd
       0.11440422 0.05568644 0.046151124 -0.04701521
000160 bc fe 6c bd 0a 07 00 be 41 de 1e bd 61 a9 b3 3d
       -0.05786012 -0.12502685 -0.038786177 0.08772541
000170 79 64 f2 bd f4 c1 10 bd e0 6f 3a bd 90 e1 95 bd
       -0.1183557 -0.035341218 -0.04551685 -0.07318413
000180 86 e4 6f 3d 16 a0 6d bd 60 43 d0 bc fe 4d a7 3d
       0.058567546 -0.058013998 -0.025422752 0.08169173
000190 2c 7e 9d 3c 90 f2 2c bc 7b c0 2a 3c e8 45 87 bd
       0.019225203 -0.010555878 0.0104218675 -0.066051304
0001a0 7c 9a 83 3c d8 5b d1 3d ea 1f 6e 3d 7b ca 87 3c
       0.016064875 0.10222596 0.058135904 0.016576042
0001b0 5c 5c 0b 3d 98 1e cd 3d f3 0a 2f 3d 18 1c b4 3d
       0.034023628 0.10015601 0.04273505 0.08794421
0001c0 93 30 13 3d 50 ec 45 bb 9d 06 a2 bd 4c fa cf bd
       0.035934996 -0.0030200668 -0.07911418 -0.10155162
0001d0 25 13 9e 3d c3 e5 2a bc e5 1b 26 bd 5c 8e 8a bd
       0.07718495 -0.010430756 -0.040553946 -0.06765434
0001e0 fa 40 51 3d 24 71 d0 bd 0e 6b df bd bf 7c 2a be
       0.051087357 -0.1017783 -0.10909091 -0.1664915
0001f0 19 f1 2b 3d ea f7 58 bd f2 9d 93 3d 2a 67 e8 bc
       0.041977976 -0.052970804 0.0720786 -0.028369505
000200 bb fd c4 bc e8 06 01 bd 94 e7 82 3d a8 26 a9 bb
       -0.02404677 -0.031500727 0.06391826 -0.005162079
000210 f2 ba 2d bd 5f e9 af bd 12 ee 24 3d b9 b4 b8 bd
       -0.042414613 -0.08589434 0.040266104 -0.09018845
000220 bc 1b 2d bd 85 9d 82 3b ab ee 89 bd 57 ce c1 3d
       -0.042262778 0.003986063 -0.067349754 0.09463184
000230 ee f7 82 3d 88 df dd 3c 45 9f 8a bc 5d b3 f9 bc
       0.06394945 0.027084127 -0.016921649 -0.030481035
000240 f5 78 09 be 9e 5b 98 3d 65 77 c7 3d e8 ca 7c bd
       -0.13425048 0.074393496 0.097395696 -0.061716944
000250 c2 8d 57 bd 17 8e e5 3d ac d9 3c 3d 5d 1c 0c 3e
       -0.052625425 0.11208742 0.046106026 0.13682695
000260 1e 8d c8 3d 92 dc 76 3b 44 81 ef bc 4b d8 76 bd
       0.09792541 0.0037668091 -0.029236443 -0.060264867
000270 45 91 a5 bd ad 71 88 bd 3e 9d 66 bd 53 bd 0d be
       -0.080843486 -0.06662307 -0.0563023 -0.13841753
000280 f2 49 d8 bc 68 65 9a bd 87 f5 b8 bd 13 ea c0 bd
       -0.026402447 -0.07538873 -0.090312056 -0.09419646
000290 f1 57 91 bd be ec 20 3d 58 07 00 be 16 a6 bd bd
       -0.070968516 0.039288275 -0.12502801 -0.09260194
0002a0 87 b3 62 bd 0f 81 73 bd 36 da d2 bb 12 77 99 bb
       -0.055346992 -0.05944925 -0.006434704 -0.0046833837
0002b0 3c 03 d8 bd 25 ee 12 3d 93 32 e0 bc d2 56 c9 bd
       -0.10547492 0.035871644 -0.027367866 -0.09831013
0002c0 ad dc 2a 3d 17 fe 00 be b9 11 a5 3d 36 11 2e 3d
       0.04171436 -0.12596928 0.08060021 0.042496882
0002d0 46 e7 ab 3d 06 8a 05 3d 8a b3 58 bb 0f 62 f4 bc
       0.08393721 0.032602333 -0.0033065998 -0.029831914
0002e0 e9 3a f3 3c cf 92 bf 3c 95 f9 70 3d 18 fe 04 be
       0.029691176 0.023385433 0.05883177 -0.12987554
0002f0 72 a5 97 3d d1 c5 ec bc d6 45 19 bc ad b6 ae 3c
       0.07404603 -0.02890292 -0.009355029 0.021327341
000300 82 85 6f bd 65 88 22 bd 94 68 35 bd 08 07 85 bd
       -0.058476932 -0.039680857 -0.044289187 -0.06495482
000310 64 b9 cc 3d 86 2f d0 bc e9 b8 cd 3d 15 ef bc 3d
       0.09996298 -0.025413286 0.100450344 0.09225289
000320 f9 26 9e 3d d5 f7 72 3d 13 9b aa bc c0 c6 d0 bd
       0.07722277 0.059318382 -0.020825898 -0.101941586
000330 01 87 cb 3d 3a 19 87 3d 24 08 f7 bd 54 ef d8 3c
       0.09937859 0.065966085 -0.120620996 0.026481308
000340 57 4f 95 3d e1 46 0d 3e 5f 3d 10 3e 14 18 7d 3c
       0.072905235 0.1379657 0.14085911 0.015447635
000350 22 a2 d0 3c e0 39 c2 bd ca f9 eb 3d 3f 9c a6 3d
       0.025467936 -0.09483695 0.11522253 0.0813527
000360 1c 23 7b 3c 87 6d f7 3d c3 bf 84 bd 59 3f d3 3b
       0.015328195 0.120814376 -0.06481888 0.0064467606
000370 0d 0d a6 3c 6f e2 cf 3d c9 1c b0 3d 8f 0a 02 3c
       0.020269895 0.10150611 0.0859924 0.007937088
000380 6c 71 95 3a 26 0f 01 3e 6d 97 09 be 36 14 14 3e
       0.00114016 0.12603435 -0.1343667 0.14460835
000390 e4 80 eb bb 24 7a 90 bd 69 5c 00 3e 46 52 ea 3d
       -0.007186996 -0.070545465 0.12535252 0.11441474
0003a0 f7 3e a5 3d d2 b8 98 3d a8 fd 6b bd 51 ad e1 3d
       0.0806865 0.07457127 -0.057614952 0.110193856
0003b0 e2 7a ed 3b 5a d2 43 bd ed 17 95 bd df 84 02 3d
       0.007247315 -0.04780803 -0.07279954 0.031864997
0003c0 b8 5a d0 3d fd 73 a7 3d 87 e7 04 3d 5b 71 ea bc
       0.10173553 0.0817642 0.032447364 -0.028618505
0003d0 54 aa 95 bd 84 52 22 3c 96 cd 01 3d b6 69 87 3d
       -0.07307878 0.009907369 0.031690203 0.0661196
0003e0 d6 e6 be bb 27 f2 59 3c 3f 66 e4 3d 44 78 c6 bc
       -0.0058258576 0.0133023625 0.111523144 -0.024227269
0003f0 87 66 95 3d 00 4a 0c be 69 ec a1 3d ac a9 c2 bd
       0.07294946 -0.13700104 0.0790642 -0.095050186

10.bias f4 [50]
000000 55 e3 da 3d ed 96 e4 bd b1 c6 8a 3d cd 78 7e 3d
       0.106878914 -0.11161599 0.06776179 0.062126923
000010 07 8e ce 3d d1 73 eb bd e3 ef b7 bd 5c bd b6 bd
       0.10085683 -0.114966996 -0.08981302 -0.08922836
000020 22 6e ff bd e6 5a f4 bd 5f 10 09 be 65 24 b6 bd
       -0.12472178 -0.119314 -0.13385151 -0.088936605
000030 1a 22 d7 3c 23 23 f7 bd 0d 48 8b bd 56 74 13 3e
       0.026261378 -0.12067249 -0.06800852 0.14399847
000040 c8 05 c5 3c 31 c7 c8 bd f2 2e 05 be 8e 0e ee bd
       0.024050608 -0.09803618 -0.1300619 -0.1162387
000050 86 a5 cf bd ec c3 ff 3d c0 1e bd bb 97 13 be 3d
       -0.10138993 0.12488541 -0.005771488 0.0928108
000060 04 5b e9 bd 86 d5 f6 bd 80 9f 45 3c e1 dd 96 bd
       -0.11394313 -0.12052445 0.012061954 -0.07366539
000070 68 cb ea 3d 17 83 06 be 9f 65 03 3e 06 6a d8 bd
       0.11464578 -0.13135944 0.12831734 -0.10567097
000080 b5 6e c8 bd 63 d8 95 bd 26 c5 ac 3c aa 2e c0 bc
       -0.09786741 -0.07316663 0.021090101 -0.023459751
000090 6c b3 0f be c6 0a 0e 3e a5 b9 6b bc 27 ec de 3d
       -0.14033288 0.13871297 -0.014387523 0.10884886
0000a0 c8 b3 42 3d cc 85 12 bd fc 6a 2a bd 32 5a 6c bd
       0.047534734 -0.03577213 -0.041605935 -0.057703204
0000b0 c7 bd 0a be 8c 8a 02 be 8f 8b 37 3c 1e 96 db bc
       -0.13548957 -0.12748164 0.011202707 -0.02680498
0000c0 53 43 ab 3c 4b 3f 16 3e
       0.020906126 0.14672582

10.weight f4 [50, 50]
000000 31 25 21 be d1 cb 20 3e ff d5 47 bd f2 72 b6 bd
       -0.15736844 0.1570275 -0.048788067 -0.08908643
000010 93 6e 11 bd fd 29 4e 3d c8 7a 99 3d d0 0f 22 3e
       -0.035505842 0.050333012 0.07494122 0.15826344
000020 f3 76 7f 3d 16 c5 f7 3d a3 c8 b9 bd 70 6a 49 3d
       0.0623693 0.12098138 -0.090714715 0.049173772
000030 11 9d 17 3d 27 86 02 3e a8 1b 8e bd 1b d8 07 3e
       0.037015025 0.12746488 -0.06938869 0.13266031
000040 f8 66 a7 bd 02 88 ae 3d f7 3e 4c bd 8f e0 ad 3d
       -0.081739366 0.08522035 -0.049864735 0.08490097
000050 1e 08 30 3d c3 69 54 3d 0c 18 03 be ac 46 d0 3d
       0.04297649 0.051858675 -0.12802142 0.101697296
000060 57 68 ba bd 90 a2 e1 3d 00 20 a6 ba e7 d1 82 bc
       -0.091019325 0.110173345 -0.0012674332 -0.01596923
000070 c9 94 a9 bd 75 56 75 3d 85 12 12 3d 8c fa af bc
       -0.08280332 0.059896905 0.035662193 -0.021481775
000080 2a ab 6d bd 13 59 a9 bd 40 6c be bd 45 2e 7c bd
       -0.058024563 -0.08268943 -0.09297991 -0.061567564
000090 c7 98 7e bd 2f 86 92 bd 4b af 27 3e c0 13 e2 3c
       -0.06215742 -0.071545 0.16375463 0.027597308
0000a0 78 0d 1d be 2e 24 e0 3d 5a 21 87 3d c0 37 18 3e
       -0.15337169 0.10944401 0.06598158 0.14865017
0000b0 a4 69 42 bd 3b ad 2e 3d eb a9 ff 3c de 97 63 3d
       -0.047464028 0.042645674 0.031208953 0.055564754
0000c0 c0 b4 63 3c a8 2c 0b 3e 4b 54 59 bd 37 be b9 bd
       0.013898075 0.13591254 -0.053058904 -0.09069484
0000d0 bf 13 61 bc d9 ab b7 3d 9f d8 c2 bd f7 cf 27 bd
       -0.013737618 0.08968324 -0.095139734 -0.040969815
0000e0 43 0a 53 bd 81 39 05 3e 0e 51 e5 3c 90 e8 85 3d
       -0.05152346 0.13010217 0.027992751 0.065384984
0000f0 04 36 67 3d 67 db 06 3e 08 7e 28 3d a5 8f b2 bd
       0.056447998 0.13169633 0.041135818 -0.08718804
000100 a6 e8 cf bd 2a 5a f8 3c af 9e cd 3c 42 7a 9c bd
       -0.10151796 0.030316431 0.02510008 -0.07640506
000110 43 73 0c 3e 0c 0a 06 3e ad 44 cf 3b 7b 1e b5 3c
       0.13715844 0.1308977 0.0063253255 0.02210926
000120 67 f7 e6 bd cc e4 42 3e 78 1c f5 bd 29 e8 15 bd
       -0.11277657 0.19032592 -0.119683206 -0.03659836
000130 34 a9 82 3d 90 6b d8 3d 31 28 84 3d 13 80 a4 3d
       0.06379929 0.10567391 0.064529784 0.08032241
000140 ca 14 09 3e e4 11 90 bd 62 df 8a 3d 0f 75 29 be
       0.13386837 -0.07034662 0.06780888 -0.1654856
000150 ab 8f 4f bd 95 ca 0e 3e 5d 5c 48 3d d1 50 2a 3d
       -0.05067412 0.13944466 0.04891621 0.04158098
000160 5d fb fe 3c a0 b6 2b bc 8d 84 06 3e 00 06 11 3a
       0.031125719 -0.010480553 0.13136502 0.0005532205
000170 88 a6 27 3e 68 21 9b bd 50 ed f2 bd 8a 95 69 3d
       0.1637212 -0.07574731 -0.1186167 0.057027377
000180 40 07 c7 3b 73 3d 3e 3d 52 4b f1 3d 1f c8 d1 3d
       0.0060738623 0.04644532 0.11781944 0.10243248
000190 9d 02 c5 3d 2b 89 1d 3e 88 89 db 3d 4c 92 99 bc
       0.09619639 0.15384357 0.107195914 -0.018746518
0001a0 fb 33 ec 3c a3 78 aa bc de 1a 9e bc 9c 56 98 bd
       0.02883338 -0.020809477 -0.01929992 -0.074383944
0001b0 c8 30 8c 3b 40 0f f0 3b 17 5f 69 bc fa d8 ad 3d
       0.004278276 0.0073260367 -0.014243863 0.084886506
0001c0 f8 9d d1 3d e6 24 15 be 34 42 95 bd 55 f0 58 3d
       0.10235208 -0.14564857 -0.07288018 0.052963573
0001d0 02 8b 15 bd 42 50 87 3d a7 27 8f 3d 77 c5 9b bd
       -0.03650952 0.06607105 0.06989985 -0.07606023
0001e0 70 28 d7 bd 5c 78 e2 3d de b2 cb 3c 03 1a 1a 3e
       -0.1050576 0.11058113 0.024865564 0.15048985
0001f0 34 f7 c3 bc a7 1a a3 bc 30 90 d8 bd 28 bd a6 3d
       -0.023921587 -0.01991017 -0.105743766 0.081415474
000200 6a ea 26 3e 2d 4f e3 bd 6e 8c 1c 3d 43 0c 2c 3e
       0.1630036 -0.11099086 0.03821986 0.16801552
000210 70 56 b1 3c ab 2c 0f be 60 ee ac bd 00 52 c6 3d
       0.021647662 -0.13981883 -0.08443904 0.09683609
000220 9f c9 1f be 19 ad 15 be 1c 78 78 bb 98 1b 0b bd
       -0.15604256 -0.14616813 -0.0037913388 -0.033961862
000230 fb b7 0f 3e cc 19 d1 bd 51 d1 33 3d b9 1f ff 3b
       0.14035027 -0.102099985 0.04390079 0.007785764
000240 54 27 29 3d fe cb ab 3d f4 b7 a4 bd a2 b6 b2 3d
       0.04129727 0.08388518 -0.08042899 0.08726241
000250 3e 37 f9 bd 9a 33 71 bd d3 a5 3c 3d 8e b4 b0 3c
       -0.1216874 -0.0588871 0.04605658 0.02157047
000260 3f 9e 92 3c 4e 99 ee 3d 03 a5 99 bd 54 8e 84 bd
       0.017897723 0.11650334 -0.075021766 -0.064724594
000270 ee 1a a7 3d 05 68 a6 3d 40 e6 a7 3d 30 05 21 3d
       0.08159433 0.08125309 0.081982136 0.039311588
000280 8b fc b5 bd 7e ce 68 3d 4d a6 05 be 07 ba f5 3d
       -0.088860594 0.05683755 -0.1305172 0.119983725
000290 f0 0d ee bd db e6 6c 3d 51 15 29 3c 45 f1 6f bd
       -0.11623752 0.05783735 0.010320024 -0.058579702
0002a0 f9 09 99 bd 77 7e c0 3d 80 9e 18 bd d7 69 11 3d
       -0.07472605 0.09399121 -0.037260532 0.035501327
0002b0 d7 e5 cf 3d 15 55 4d 3d 57 47 0b 3e be e2 a4 3c
       0.1015126 0.05012997 0.13601433 0.02012765
0002c0 82 db e0 bd 5f 59 13 3c 51 40 2b be 72 d8 f7 3d
       -0.10979368 0.008993476 -0.16723754 0.121018305
0002d0 82 67 be 3d 03 54 ae bd a6 26 d1 bd c7 b5 4d bd
       0.09297086 -0.08512118 -0.1021245 -0.050222185
0002e0 47 4b fc bc c4 73 cb bd 0b 1d 11 3e fe aa b5 3d
       -0.030797614 -0.0993419 0.14171235 0.08870505
0002f0 64 1e ce 3d 79 1a ec bd 1e 75 bd bd 7c 9c 9a bc
       0.1006439 -0.11528487 -0.09250854 -0.018873446
000300 e1 66 02 bd dd fc ca bc f4 2b d9 bc 46 cd 19 3e
       -0.031836394 -0.024778778 -0.026510216 0.15019712
000310 9a 98 08 be 42 b2 de 3d 9a 35 b4 3d 30 b0 92 3d
       -0.13339463 0.10873844 0.08799286 0.07162511
000320 db 17 1a bd 85 b5 08 be 37 42 78 bd d9 57 be bd
       -0.037620407 -0.13350494 -0.060610022 -0.09294099
000330 9d 9f 94 bd 13 a9 f9 bd 67 33 ec 3d c1 25 17 be
       -0.07257006 -0.121904515 0.11533242 -0.14760496
000340 82 39 e5 3d b0 b6 05 bc 7d a6 07 be 37 e9 71 bd
       0.11192609 -0.008161232 -0.13247104 -0.0590603
000350 02 a0 8a 3d 00 7e a1 bd 1c f3 5b 3d 44 ed bd 3d
       0.067688 -0.07885361 0.053698644 0.092737705
000360 f5 6b ff bd c3 2e 24 3b 24 89 67 3d 4a e8 2c bd
       -0.12471763 0.0025052286 0.056527272 -0.042213716
000370 16 6f 05 be f5 68 14 bd 44 93 1b 3e b9 d2 6f 3d
       -0.13030657 -0.036232907 0.15192896 0.05855057
000380 b5 ce cc bd be 2c 1b 3e 96 bb 99 bd 0a 20 9e 3d
       -0.10000364 0.15153787 -0.07506482 0.07720955
000390 c5 29 b8 3d 67 96 66 3d 1c 9d 12 bd b9 1c de bc
       0.08992342 0.05629578 -0.035794362 -0.027113305
0003a0 00 33 19 bc fb 55 52 bd 4f 6a 3f bd db e4 4e 3d
       -0.009350538 -0.05135153 -0.046732243 0.050511222
0003b0 5d 94 80 bc 5b 43 a9 3d a4 42 48 ba 61 c7 e1 bd
       -0.015695745 0.082648 -0.0007639325 -0.11024357
0003c0 eb ca bb 3d 75 1d dd bd 1e 62 e6 bd b4 b0 e2 bd
       0.09169563 -0.10796634 -0.11249183 -0.1106886
0003d0 00 3f 61 3c a7 4a 4a 3d 63 33 b5 ba 2d d6 6e bd
       0.0137479305 0.0493876 -0.0013824519 -0.058309723
0003e0 3d 11 02 3e b4 18 df bd b5 28 0b be e6 22 61 bd
       0.12701888 -0.108933836 -0.13589747 -0.054964922
0003f0 6a 76 e5 bd 20 e3 02 3c 8e d3 a5 3d 34 e8 e3 bd
       -0.11204226 0.007988721 0.080969915 -0.111282736

12.bias f4 [50]
000000 bf 8f a0 bd 34 d2 c0 3c 4d 97 be 3d 35 2c cf 3d
       -0.078399174 0.023537733 0.09306202 0.10115854
000010 2d 51 ea bd ec 6d bd 3d 4c 34 a4 bd e0 ec 8c 3d
       -0.11441264 0.092494816 -0.08017787 0.06881118
000020 a7 35 af 3c 12 c9 d7 3d 20 8f 9a bd 85 89 00 3e
       0.021387888 0.10536398 -0.0754683 0.1255246
000030 c6 68 1c be a8 16 8c bc 52 1f bb 3d 84 17 5a bd
       -0.15274343 -0.017100647 0.09136833 -0.053245082
000040 19 a7 e6 bd 2d 87 a0 3d 60 bd a2 3d 5f 1d f6 bd
       -0.1126234 0.07838283 0.07946277 -0.12017321
000050 da 45 6f bd f7 2b 87 bc bf 78 21 3d 03 e7 80 bd
       -0.058416225 -0.016500456 0.039421793 -0.06294062
000060 00 82 92 3d c8 c5 1b 3d 64 9a 19 3d d3 5e 8a bd
       0.07153702 0.038030416 0.037500754 -0.067563675
000070 94 e7 76 3d 63 5d 0e be 37 04 87 bd 5d 56 6e 3d
       0.060279444 -0.13902812 -0.06592601 0.05818783
000080 2a ff 06 be 47 55 21 bd 2a a1 b4 3c 9d 32 95 3d
       -0.13183275 -0.039387967 0.022049505 0.07285044
000090 5c e6 d1 3c 3a 83 24 be b6 a2 03 bd 92 15 6a 3c
       0.02562254 -0.16065684 -0.032137595 0.014287369
0000a0 24 10 f7 3d 0a c7 ef 3d de 1e bd 3d e0 4a 0a 3e
       0.120636255 0.117078856 0.09234403 0.13505125
0000b0 f0 82 de 3d f0 21 34 bd f3 fa 82 3d 68 ca 92 3d
       0.10864818 -0.043977678 0.06395521 0.07167512
0000c0 16 8e 7e bc 0e 3f 75 3d
       -0.015536806 0.059874587

12.weight f4 [50, 50]
000000 28 72 80 3d b9 39 21 bd 88 92 93 bd 83 99 4f bd
       0.062717736 -0.03936169 -0.07205683 -0.05068351
000010 0f 61 a1 bd 88 02 36 3d 7e 63 2e bd b6 23 06 be
       -0.078798406 0.044436008 -0.042575352 -0.1309956
000020 cb 42 a9 ba 31 97 28 bd c6 4c ef bd 60 56 46 3d
       -0.0012913583 -0.041159812 -0.11684565 0.048422217
000030 a6 7a e2 3d a1 af 00 be b1 78 fb bd f1 7d bf bd
       0.110585496 -0.12566997 -0.122788794 -0.09350193
000040 d8 78 9c 3c 79 77 b6 bd 54 be 9e 3d 92 d3 09 be
       0.019100592 -0.08909506 0.07751146 -0.13459614
000050 ea 4e 04 be de 3e 9b 3d 35 da 00 be e1 cf c4 3d
       -0.12920728 0.0758035 -0.1258324 0.09609962
000060 72 e4 19 3e 1a 4b 7c bd 78 46 c2 3d 4e 4a 03 be
       0.15028551 -0.06159506 0.09486097 -0.12821314
000070 67 f3 0d be 78 8a c5 3d 60 54 e1 bd e7 1b 9b 3d
       -0.13862382 0.096455514 -0.110024214 0.07573681
000080 c0 a9 c3 bd e5 c4 5e 3d 89 35 0b be 46 ee 96 bd
       -0.095538616 0.054386992 -0.13594641 -0.07369666
000090 26 76 b0 bc 9d d4 6a b8 a6 40 bf bd 7c c2 df bd
       -0.021540713 -5.598796e-05 -0.093385026 -0.10925767
0000a0 8f 87 de 3d 7c 1d c1 3d 93 f7 97 3d 38 ef cb bd
       0.108656995 0.09429452 0.07420268 -0.09957737
0000b0 74 6e 56 3d 06 21 d6 3d 9b 9c 64 bc 68 54 12 be
       0.05235143 0.104555175 -0.013953353 -0.14290011
0000c0 29 c7 d9 3d 42 32 a9 bb 41 a1 af 3c 85 4f d3 bb
       0.1063369 -0.005163462 0.021439197 -0.0064486885
0000d0 5a 9c 59 3d dc 3c 0c 3e 46 f4 bf bd 39 ce e9 bd
       0.053127624 0.13695091 -0.09372763 -0.11416287
0000e0 07 80 3a bd 29 6b cb bd cb 05 73 bd b1 82 c4 bd
       -0.045532253 -0.099325486 -0.059331696 -0.0959524
0000f0 7a 52 2f bd aa ec 1e 3e e3 96 bf 3d 7a d5 d4 3d
       -0.042803265 0.15519968 0.09354951 0.1039228
000100 c6 9a 02 be 8a e9 9c 3d 0a 05 e5 3d 18 ed af bd
       -0.12754354 0.076617315 0.11182602 -0.08590144
000110 cd 5a 54 3d bf 0f 6d bd 16 1a 95 bd 6d 11 bf 3a
       0.051844407 -0.057876345 -0.07280366 0.0014577337
000120 00 17 88 3d fb 7a 9f bd 5d 03 f2 bc b8 da 13 bd
       0.06645012 -0.077871285 -0.02954262 -0.03609726
000130 84 4d 5a 3d fe d6 39 3d a8 ff 4f bc 89 4a 02 be
       0.05329658 0.04537105 -0.012695231 -0.12723745
000140 f8 3a 61 3d 94 24 d5 bd 00 ee 66 bc 1d 22 6f bd
       0.054987878 -0.10407367 -0.01409483 -0.058382142
000150 81 39 1d bd e5 aa 09 be cb ea e2 3d 18 be c8 bd
       -0.038384918 -0.13444097 0.110799395 -0.098018825
000160 c7 bf c2 3c 45 9b 1e 3e fd b4 af bd f7 88 b2 3d
       0.023773087 0.15488918 -0.08579443 0.0871753
000170 d9 60 c8 bd 00 ef 35 3a 7c bf 06 be 46 45 c0 bd
       -0.09784097 0.0006940216 -0.13158983 -0.09388213
000180 21 17 a2 3d be 27 f7 3d aa dc 1e bd ed d4 c8 bd
       0.07914568 0.12068127 -0.03878466 -0.09806237
000190 cb c4 30 3e f7 2d eb bb ea 85 ea 3d ee 85 fe 3d
       0.1726257 -0.0071771103 0.11451323 0.12427889
0001a0 6f 6e 9f bb 26 71 e8 3d 9b a9 f0 3d 62 a3 52 bc
       -0.0048654596 0.11349706 0.117511 -0.012856336
0001b0 f0 a7 ca bd a2 ce 6f bd 2f 8d 0d 3e 5c 2e 5f bd
       -0.09895313 -0.05854667 0.13823389 -0.05448757
0001c0 02 5c ca ba 1c 32 a0 bc 0a 6a b1 3c 8d e4 30 3e
       -0.0015438797 -0.019555144 0.021657009 0.17274685
0001d0 20 95 29 bd d3 5f 5a bd 6f b4 67 3c fb 50 de bd
       -0.041401982 -0.05331404 0.01414214 -0.108552895
0001e0 28 fa ff 3c c1 c4 ef bc e2 b5 a8 3d df 37 6c 3d
       0.031247213 -0.029268624 0.082378164 0.05767047
0001f0 2b 04 dc 3d 72 74 a3 3d de 85 d7 3d 6c 26 7e 3b
       0.107429825 0.079811946 0.1052358 0.0038780225
000200 e0 1e f9 bd f6 e7 be 3d 0f e0 19 be 5a 31 69 bd
       -0.12164092 0.09321587 -0.15026878 -0.05693183
000210 ad 4e 5e 3d cb 4a 1c bc 87 14 e2 bd e7 95 13 3e
       0.05427425 -0.009539316 -0.110390715 0.14412652
000220 5e ef 00 3e 13 25 e2 bd 51 b7 d0 3d 88 cf 6a b9
       0.12591311 -0.110422276 0.10191215 -0.0002239329
000230 d2 40 0c 3e 35 52 14 3e 8b 8f 16 3e ce a6 ae 3d
       0.13696602 0.14484484 0.14703195 0.08527909
000240 40 fe 98 3d 53 72 c6 bd cc f9 1a 3e 8c ee d6 bd
       0.07470369 -0.09689774 0.15134352 -0.10494718
000250 8a ad d1 bc 0d 1c f0 bd 70 7c 2d 3e 71 42 75 bd
       -0.025595445 -0.117241 0.16942 -0.059877817
000260 25 ad ba 3c 9d 35 0f 3d f7 22 e0 bd d8 21 ad 3c
       0.02278764 0.03496324 -0.10944169 0.021134302
000270 ce 8e 6c 3d 0e d9 35 3d c3 82 59 3d 62 09 bb bd
       0.057753377 0.044396453 0.05310322 -0.09132649
000280 66 30 b9 3d ad 29 17 be 96 8d 98 bd bc 5c b3 bd
       0.090424344 -0.14761992 -0.074488804 -0.08757922
000290 e9 13 e8 3d e2 da 34 3e f2 0c 59 bd b8 97 ee 3d
       0.113319226 0.17661622 -0.05299086 0.11650032
0002a0 14 37 ca bd 6a f3 d1 3d ba 35 cb bd 2b c8 6c 3d
       -0.098737866 0.10251506 -0.09922357 0.057808083
0002b0 3b 35 0c 3e af ac a0 3d 65 c8 05 bb e9 f6 a6 bd
       0.13692181 0.07845437 -0.0020413634 -0.08152563
0002c0 c4 47 6b bd 38 bb 4f bd 4f 33 8f 3d ac 19 fe bd
       -0.057441488 -0.050715655 0.06992208 -0.1240724
0002d0 5b c7 ed bd fd ac 5d 3d d8 0b 63 bd 78 af 9d 3d
       -0.1161029 0.054120053 -0.055431217 0.07699484
0002e0 3d 03 e1 3d 27 ba 0b 3e 94 58 5a 3d e7 87 1d 3e
       0.10986946 0.1364523 0.05330713 0.15383874
0002f0 50 bd b5 3c b9 b6 af bd c3 95 25 3d f5 29 1f 3e
       0.022184998 -0.085797735 0.040426027 0.15543349
000300 f4 7e 43 3d 42 20 b5 3d 24 6b b1 bd 9b de d8 3d
       0.047728494 0.08844043 -0.086630136 0.105893336
000310 6c 25 1e bd 0e 42 a2 bd ab 15 0d 3e 07 88 0d 3e
       -0.038609907 -0.07922755 0.13777797 0.13821422
000320 70 3d 41 3d 17 12 05 be 4b 83 27 be c9 bb bd 3d
       0.047177732 -0.12995182 -0.16358678 0.09264333
000330 e1 8d 4e bd 00 67 bc 3b 72 95 c2 3c bb ee 15 3e
       -0.050428275 0.0057495832 0.023752902 0.1464185
000340 4f c3 fc 3d b9 79 5d bc 44 42 e0 bd 93 a2 d2 3d
       0.1234194 -0.0135177905 -0.10950139 0.10284915
000350 42 55 6d bd a0 28 58 bd f5 f2 cf bc 18 71 d0 bd
       -0.057942636 -0.052773118 -0.025384406 -0.10177821
000360 f4 57 ae bc 22 0d d4 3d ad 95 5a 3c 47 69 c0 bd
       -0.021282174 0.103540674 0.01334135 -0.0939508
000370 ca 15 a9 3d 6b 03 0e 3c ec f7 ef bd 76 b9 25 3e
       0.08256109 0.008667807 -0.11717209 0.16184029
000380 88 ec 0f 3e 30 c4 2a bc 1a ae 4c bd 39 4f 1c 3d
       0.14055073 -0.010422751 -0.049970724 0.03816149
000390 30 f7 40 3c e2 cd f4 3d e2 9d 4b 3d cf 6e 80 3d
       0.011777684 0.119533315 0.049711116 0.06271135
0003a0 62 82 e3 bd b6 ea b3 bd 86 4e 94 3d 06 2b 3b 3d
       -0.11108853 -0.08785002 0.0724154 0.045695327
0003b0 4c a4 05 be 76 6e 44 bd a4 8f c9 bd 1d 04 01 3e
       -0.13050956 -0.047956906 -0.098418504 0.12599225
0003c0 b2 4f 53 3d a5 72 1a bd 0d 28 97 bc a0 51 f9 bb
       0.051589675 -0.03770699 -0.018451715 -0.0076086074
0003d0 44 37 88 bd fd f7 0b be 7a 35 ef 3d 41 83 35 3d
       -0.06651166 -0.13668819 0.11680122 0.044314627
0003e0 13 dd 80 bc da 80 21 bd 6c 3c 74 3d 5e b9 56 3d
       -0.015730416 -0.039429523 0.059627935 0.052422874
0003f0 ca dd 41 3d 81 87 a5 3d 16 45 a3 bd 60 30 3a 3c
       0.047330655 0.08082486 -0.079721615 0.011364073

14.bias f4 [50]
000000 89 da a2 bc 3c 0d 98 bd ca c0 0c 3e 65 9a 96 3d
       -0.019879596 -0.07424399 0.13745418 0.07353667
000010 20 55 47 bd ff d9 c2 3d a0 93 51 bd 8c 84 f7 3d
       -0.048665166 0.09514236 -0.051166177 0.12085828
000020 83 bb a8 3d 13 62 30 bb b2 43 bf bd 20 f9 9c bb
       0.0823889 -0.0026913926 -0.09339084 -0.00479044
000030 8f 4d e6 bd 65 19 97 bd d2 72 8e 3d ab dd 1c 3d
       -0.11245262 -0.073778905 0.06955494 0.038297337
000040 5b 22 0d be 72 46 d5 bd bb 95 29 bd 18 3c 51 3d
       -0.13782637 -0.10413827 -0.04140256 0.0510827
000050 fa 32 41 bd 24 cf 3d be 7e d5 85 bd a0 31 a4 3b
       -0.047167756 -0.18536049 -0.06534861 0.0050107986
000060 08 5f 0a 3c 7e e5 a3 bd 4a 47 d6 bd b2 22 cb bd
       0.008445509 -0.080027565 -0.10462816 -0.09918727
000070 9c 4b 26 be a9 9d 09 bd 49 91 03 be 29 47 b4 bd
       -0.1623978 -0.033597622 -0.1284839 -0.08802635
000080 db f1 bd bd 54 ab b6 bd 9d 6d ba bd f7 94 de bd
       -0.09274646 -0.08919397 -0.09102938 -0.108682565
000090 f3 71 84 bd b6 4d ff bc ae f9 89 3b 30 ff 44 bc
       -0.064670466 -0.031164985 0.0042106723 -0.012023732
0000a0 ae ce b3 bd b6 76 c5 bc 0f af 16 3e 1c cb 36 bc
       -0.087796554 -0.024104457 0.14715217 -0.0111568235
0000b0 9e 99 81 3d fa 68 6f bc dc 02 00 bd df 77 df bd
       0.06328128 -0.014612431 -0.031252727 -0.109115355
0000c0 2c 72 0f 3e d2 0a ee 3b
       0.14008397 0.0072644735

14.weight f4 [50, 50]
000000 38 c4 b7 bd b8 6a 2a 3d 8f 9b 8b 3d 2e 08 80 bc
       -0.08972973 0.04160568 0.0681678 -0.0156289
000010 83 ce a2 bd bb 95 34 3d c5 49 c7 bc a8 e3 f8 3a
       -0.07949545 0.044088107 -0.024327168 0.0018988745
000020 9b 57 2d 3c 5c 2e 9d 3d f2 fa fa 3d 1d e7 c1 3d
       0.010579969 0.07674858 0.12254895 0.094679095
000030 80 c5 90 3c d4 cd d2 3d aa e1 0a bd 00 11 95 bd
       0.0176723 0.10293165 -0.033906616 -0.07278633
000040 14 62 4d 3d 60 83 6b 3d fa 60 a7 bc f0 2a 06 3e
       0.050142363 0.057498336 -0.020431984 0.13102317
000050 a0 ce b7 bd bc f0 75 bd 2e c6 10 be 28 69 15 3d
       -0.089749575 -0.060044035 -0.141381 0.036477238
000060 2a de 52 bc 18 94 ab bc 71 c6 a8 bc ed bd db 3d
       -0.012870351 -0.02094464 -0.020602437 0.10729585
000070 24 a5 0a bd d8 8a 80 bc df 4a 0c be 51 58 38 bd
       -0.033848897 -0.015691206 -0.13700436 -0.0450061
000080 18 a1 4e 3d 5d 0a da bd 84 90 fc bd f6 e9 f8 bd
       0.0504466 -0.10646508 -0.12332252 -0.121539995
000090 12 50 c7 bd d7 1d e5 bd 18 9f a6 bd 02 74 0d be
       -0.09732069 -0.11187332 -0.081358135 -0.13813785
0000a0 6f 18 65 bd 16 7b d1 bd 19 0a 12 bd 0e 89 a7 3c
       -0.055931505 -0.10228555 -0.03565416 0.020451095
0000b0 05 d9 f0 bc dc be fd bc 00 1b 54 3a b6 a0 68 bd
       -0.029400358 -0.030974798 0.00080911815 -0.05679389
0000c0 63 4d ab 3d 3e ff 95 3d 2d 75 b7 bd 4d b2 98 3b
       0.0836437 0.07324074 -0.089578964 0.004659927
0000d0 e5 69 86 ba 87 72 40 3c 59 72 19 3d 5e e9 e9 3d
       -0.0010254948 0.011746055 0.037462566 0.114214644
0000e0 b5 9f 5a 3c 61 25 0b 3d e2 88 e1 3d 1c 96 f3 3c
       0.013343741 0.033971194 0.110124364 0.029734664
0000f0 84 5d 26 3d 8f f2 46 bd fd 0b 54 3c 39 a3 af 3d
       0.040616527 -0.048571166 0.012942311 0.08576054
000100 5d 01 c5 3d fc 73 cd 3d 0e ea cc bd 44 b4 2c bd
       0.09619401 0.10031888 -0.1000558 -0.042164102
000110 8c c1 04 3e 73 03 51 3d 04 4b 5c 3d 82 97 60 3b
       0.12964457 0.05102868 0.053782478 0.0034269993
000120 9e b3 12 be 70 b6 17 3c e2 58 33 3d 09 7d 15 bc
       -0.14326331 0.009259805 0.043785937 -0.009124049
000130 92 ec fa bd 96 8d 45 3c c1 fc af bc 7e 43 f1 3d
       -0.122521535 0.0120576825 -0.021482827 0.11780451
000140 b2 72 16 be b8 10 35 3d 6a 36 bc bb 2e f9 9f 3d
       -0.1469219 0.044205397 -0.0057437913 0.07811199
000150 ca ae 82 bd f5 40 11 be 5f 28 27 be 56 a3 80 3d
       -0.063809946 -0.14184935 -0.16323994 0.06281154
000160 7c aa c9 3d b9 33 16 3e da c0 02 be f3 29 03 3d
       0.098469704 0.14668168 -0.1276888 0.032022428
000170 30 48 0f 3d eb 3e db bc 46 c5 b8 3d 14 b8 47 3d
       0.034980953 -0.0267634 0.09022002 0.048759535
000180 8f 07 11 3e 4c d0 d0 3c 15 b0 97 bd f9 3e 9d bd
       0.1416304 0.025489949 -0.07406632 -0.07678027
000190 1b 65 c7 bd 3c 05 95 3d 68 4d 3c bd df fb a7 3d
       -0.09736081 0.07276389 -0.045972258 0.082023375
0001a0 e3 b8 17 3d 1a d5 16 3e 0c 0d b9 3d e8 e3 a9 3d
       0.037041556 0.1472973 0.090356916 0.08295423
0001b0 82 e9 7c bd 09 2e 20 3d e0 d3 84 bd a4 bb 15 3e
       -0.061746128 0.039106403 -0.064857244 0.1462236
0001c0 a6 1c ce bd a0 22 cd bd 89 76 72 3d a0 b8 3e 3d
       -0.10064058 -0.1001637 0.059195075 0.04656279
0001d0 dd b9 67 3d 2d 35 a0 bd 27 ea e2 3d 64 6e c8 bd
       0.056573737 -0.078226425 0.11079817 -0.0978668
0001e0 80 c1 89 ba e0 31 a2 bd e9 ca d1 bc 50 43 f6 bd
       -0.0010509938 -0.07919669 -0.02560945 -0.120245576
0001f0 04 0c 24 3d 0a 92 8a bd 2e ba 84 3d 6f 64 bf bc
       0.04005052 -0.06766136 0.064808235 -0.02336332
000200 f1 61 56 3d f0 2f fa bc ea 92 80 3d b3 01 73 3d
       0.052339498 -0.030540437 0.06278022 0.059327792
000210 c6 dc 2d 3c 69 fb 87 3d 62 5d 0d 3b ba b4 a0 bd
       0.0106117185 0.066397496 0.0021570553 -0.07846971
000220 d3 e0 a2 bd 77 49 c5 bd 4a d0 3f bd a5 7d a1 bd
       -0.07953038 -0.09633153 -0.0468295 -0.07885293
000230 d4 3b 51 bd c0 3b 08 be c3 d3 c4 bc ed 46 39 3d
       -0.051082447 -0.13304043 -0.024026757 0.045233656
000240 2c a0 91 3d 72 ba 3d bd c8 9e 8e 3d e7 41 0b be
       0.071106285 -0.046320386 0.06963879 -0.13599358
000250 5d aa 9d 3d e2 72 57 bd 6a 3a 1b be 39 50 e3 3d
       0.0769851 -0.052599795 -0.15159002 0.11099286
000260 af 49 0e bc 0c d8 56 3d c6 34 fd 3d b8 6b da 3d
       -0.00868456 0.052452132 0.12363581 0.10665077
000270 e3 6c ce 3d 70 1e ae bd 86 1c 66 3d d4 3f 1b bc
       0.10079362 -0.08501899 0.056179546 -0.009475667
000280 8e 51 8e 3c ad a8 a8 bd 61 0d 17 be fa 7c 30 3e
       0.017372873 -0.08235297 -0.14751197 0.17235175
000290 f6 7a cb bb 14 0f 84 bd 49 72 d7 bc 7d 42 a7 bc
       -0.0062097264 -0.064481884 -0.026299613 -0.020417446
0002a0 11 1d 9d bd 06 64 08 be d4 a7 72 3d 2a 18 99 bd
       -0.076715596 -0.13319406 0.059242085 -0.07475312
0002b0 ea a9 1b 3e a0 93 ac bd 1c 65 38 3e 1c 30 0d 3e
       0.15201536 -0.08426595 0.1800732 0.13787884
0002c0 69 9b 80 3d 96 1b 32 3e 92 9c d5 bc 9a b0 11 3e
       0.06279642 0.17393336 -0.026075635 0.14227524
0002d0 56 e2 96 3d a4 81 99 3d 3f 91 50 3c a1 16 e0 bd
       0.07367389 0.0749543 0.012729942 -0.10941816
0002e0 21 db 27 3e 92 c9 93 3d ff 57 e7 3d 36 a8 8d 3c
       0.16392185 0.07216181 0.11296081 0.017292123
0002f0 d6 38 05 be 84 9e c0 3c a6 41 73 3d a1 d9 32 3e
       -0.13009962 0.023513086 0.05938878 0.17465831
000300 33 37 fa bc 22 27 e7 3d db b2 30 3d 71 b1 0a be
       -0.0305439 0.11286761 0.04313932 -0.13544251
000310 9f a5 bc 3d 3a c4 f5 3d c3 3f d0 bd 5c 2e bc bc
       0.09211277 0.12000318 -0.101684116 -0.022971325
000320 14 05 0e be d2 3e a7 bd 84 45 12 bd 1c c0 24 3d
       -0.13869125 -0.08166279 -0.035710827 0.040222272
000330 8e 57 f0 3d cb 57 10 be 4e e7 9f bd 3e 76 de bd
       0.1173545 -0.1409599 -0.0780779 -0.10862397
000340 d0 97 21 3c 00 77 04 bc 56 b7 a2 3d 53 4c 08 3e
       0.009862855 -0.008085012 0.07945125 0.13310365
000350 8e 88 9b 3d be ac bd 3d 43 6b 04 be 6f 2c 0d 3e
       0.07594405 0.092614636 -0.12931542 0.13786481
000360 c2 5e f5 bd 35 93 0a be 44 f5 de bc b2 cd 9d 3d
       -0.11980964 -0.13532718 -0.027216561 0.07705249
000370 a0 f3 c2 bd 86 d3 89 3d e6 61 ee 3d 20 c3 bd 3b
       -0.09519124 0.06729798 0.116397664 0.005791083
000380 56 fb 03 be 4d ac c8 bd 02 71 51 bd 80 6e 36 3d
       -0.12888846 -0.09798489 -0.051133163 0.044538975
000390 9f b5 04 3e ea 22 0e be 12 cd 1b bd ec e6 c6 3d
       0.12959908 -0.13880506 -0.038037367 0.097120136
0003a0 28 ad 94 3d 9e cb 9a bd 50 28 14 3d 9f ea 04 be
       0.072595894 -0.07558368 0.036171257 -0.12980126
0003b0 c0 17 6f bc 90 e8 24 bc 4d e7 0e 3e f9 77 eb bd
       -0.014593065 -0.010065213 0.13955422 -0.11497492
0003c0 42 39 f1 bd ae 3c ad bd 80 b4 2d bd 40 e3 ec bc
       -0.11778499 -0.08458839 -0.042408466 -0.028916955
0003d0 32 f0 2d bd cd 6e 84 bd 6a 6a 27 bd ee 6f ee 3d
       -0.042465396 -0.06466446 -0.04087297 0.11642443
0003e0 70 3c 04 be 39 c5 0c 3e 6b 23 f6 3d 36 07 1f be
       -0.1291368 0.1374711 0.12018474 -0.15530095
0003f0 fb 2d 0a 3e a1 a9 f8 3d 51 2b 18 3e 41 c6 90 3d
       0.13494103 0.12141729 0.14860274 0.07069064

16.bias f4 [50]
000000 d5 db ee 3d 44 f0 ca 3d 29 8d b0 3d 06 0b 02 bb
       0.116630234 0.09909108 0.08620674 -0.0019842996
000010 35 ef d6 3b 54 d7 aa bd 99 60 fc bd 92 d6 dd bd
       0.0065592774 -0.08341852 -0.12323112 -0.10831942
000020 03 e9 ed bd 60 52 02 3c 9f c8 e9 3d c0 70 02 be
       -0.11616709 0.00795421 0.114152186 -0.12738323
000030 79 03 0d 3e 86 93 b3 ba f6 34 c3 bd 75 cc db bd
       0.13770856 -0.0013700582 -0.09531586 -0.107323565
000040 c2 93 09 bd ed 8c cc bd e6 dc 99 3d 75 f2 ca 3d
       -0.03358818 -0.09987817 0.07512836 0.09909526
000050 47 27 c9 3d 2e 5c 0b bd 0c ca a9 bd ce cd bf 3d
       0.09821945 -0.034023456 -0.082904905 0.09365426
000060 7c 6b 43 bd ba 67 65 3d 8e 22 44 bd 32 f4 e1 3d
       -0.047709927 0.056007124 -0.047884516 0.11032905
000070 10 0f b2 bd ec 07 62 3d ff 84 51 3d bc 10 bd 3d
       -0.08694279 0.055183336 0.051152226 0.092317075
000080 13 d7 2b 3d 6e 27 6a 3d fb c8 f2 3d f5 22 09 3d
       0.041953158 0.05716651 0.1185474 0.033480603
000090 f6 ad c5 bd 64 8e 65 3c 88 1d 99 3d 9d f8 3c 3d
       -0.09652321 0.014010999 0.07476336 0.046135534
0000a0 69 07 ff bc d3 da ac bd 5e 09 77 3d 6c 4a 3b 3c
       -0.031131463 -0.08440175 0.060311668 0.011431318
0000b0 58 20 00 be 70 90 1a bd 3d e2 99 bd d3 44 d5 3d
       -0.12512338 -0.037735403 -0.07513855 0.10413518
0000c0 aa 90 d1 bd 94 2d a7 3d
       -0.102326706 0.0816299

16.weight f4 [50, 50]
000000 78 15 4c bc ed 18 06 3d f0 c9 7c bc 83 5e eb 3c
       -0.01245629 0.032738615 -0.015429005 0.02873159
000010 88 88 c6 bd d6 91 d9 bd 22 03 e0 bd cc bd 90 bd
       -0.0969401 -0.10623519 -0.109380975 -0.07067451
000020 4d fd 56 3d 79 1f dd 3d b0 81 b7 3d 00 a6 cb ba
       0.05248766 0.107970186 0.08960283 -0.0015537143
000030 08 b7 df 3d 36 32 1a 3d 3c 4a a3 bd ee 92 03 bb
       0.10923582 0.03764554 -0.079731435 -0.002007659
000040 80 9d ec 3a 71 9d 09 be 53 5c 08 3e 20 7d 1a be
       0.001805231 -0.13438965 0.13316469 -0.15086794
000050 ff 43 5d 3c 3d 28 9a 3d cf 58 05 be 59 85 d2 bd
       0.013504981 0.07527206 -0.13022159 -0.1027934
000060 22 9b 47 3d 38 72 be 3d ae 9f ac 3d e1 b7 ff bd
       0.04873193 0.09299129 0.08428894 -0.12486244
000070 9c 27 8b 3d 81 37 42 3d 16 59 ad 3d 85 4a cd 3d
       0.06794664 0.047416214 0.084642574 0.10023979
000080 c4 9d f9 bc 1a d7 0d be 97 d7 a5 bd 00 15 c8 3b
       -0.030470736 -0.13851586 -0.08097761 0.006106019
000090 65 1a 42 3d a7 80 70 bd cc fa ec bc 2e ca 31 3b
       0.047388453 -0.058716442 -0.028928183 0.0027128565
0000a0 ca c5 ab 3d a5 22 92 3c 0f 3c 54 bc 45 ec d9 3d
       0.08387335 0.017838785 -0.012953772 0.10640768
0000b0 0c 76 0a 3e 7e af 87 bd 18 cc 4d bd 96 17 0b 3e
       0.13521594 -0.06625269 -0.050243467 0.13583216
0000c0 aa 25 ce 3c d7 a6 d5 bd 9c 7f 9c 3d 4b c2 d7 bd
       0.025164444 -0.10432213 0.07641527 -0.10535105
0000d0 2c 32 02 be 1f bd e5 bd ce 2c c9 3d 30 3e fb 3c
       -0.12714452 -0.112177126 0.09822999 0.030669302
0000e0 46 5f 7f 3d 42 0f c7 3c 3b f9 03 3e e8 12 45 bd
       0.06234672 0.024299268 0.12888043 -0.048113734
0000f0 17 76 73 bd ab 36 04 3e d8 1c b6 3d e9 d0 0e 3e
       -0.05943879 0.12911479 0.0889222 0.1394688
000100 cd c8 60 bd 74 e1 c8 bd 15 f8 8b bd 80 21 85 bc
       -0.054879 -0.09808627 -0.06834427 -0.016251326
000110 7e 34 52 bd 22 88 87 bb d5 94 cb bd 34 ca e9 3d
       -0.05131959 -0.0041361013 -0.09940497 0.1141552
000120 fd 1a 01 3e 40 73 db 3c 6d e9 9a 3c fe 59 6d bd
       0.12607951 0.026788354 0.018910134 -0.05794715
000130 d0 d1 15 3d da 44 b9 bd 73 ec 53 3d 02 fe 17 be
       0.036577046 -0.090463355 0.051739167 -0.1484299
000140 7e 03 26 3b 93 f2 2b 3d dc 7a 9f bd ba 03 06 bd
       0.0025331671 0.041979384 -0.077871054 -0.032718398
000150 6e a3 fd 3d 70 6f e6 bd af dd dc 3d 20 89 12 3e
       0.12384687 -0.11251724 0.1078447 0.14310122
000160 e7 31 04 3e 2f 69 5e 3d 5d 3e 9b bd 6b ce 91 bd
       0.12909661 0.05429953 -0.07580254 -0.07119449
000170 33 70 18 3d 50 db d6 3d cd d6 a0 bd cb ac ae 3d
       0.037216377 0.10491049 -0.0785347 0.085290514
000180 00 04 c4 3d bd 4c 9d bd 7c 29 d9 3d 73 d5 ee 3c
       0.095710754 -0.07680652 0.10603616 0.029154515
000190 10 0e 40 3d da 10 09 3e 88 ae 8a bd b8 8e d8 3c
       0.04688841 0.13385335 -0.067715704 0.026435241
0001a0 be 55 08 be 59 7e 1b be 07 25 84 bd 43 ff 2e 3c
       -0.13313958 -0.15184917 -0.06452375 0.010680976
0001b0 4e 8c 82 3b da e4 ad 3d 84 e5 a1 3d 35 2b c0 bd
       0.003984011 0.084909156 0.07905105 -0.09383241
0001c0 49 6c 0d 3e 83 5f 49 be 6d b4 a2 bd 88 69 02 3c
       0.13810839 -0.19665341 -0.0794457 0.007959731
0001d0 14 ec bc 3d 74 4f e5 bd 3f 4a 07 3e 05 08 c5 3d
       0.09224716 -0.11196795 0.13211916 0.0962067
0001e0 e6 46 3e 3e 2e ae f1 3d 3e e4 98 3d b8 4c 0a 3d
       0.18581733 0.118008 0.07465409 0.03376457
0001f0 8a 0f 6f 3b 42 17 53 bd c6 aa 9a bd a2 6b be 3d
       0.0036477768 -0.051535852 -0.07552104 0.09297873
000200 92 12 53 bd f0 98 a8 bd da 84 c9 bd 06 f2 46 bd
       -0.051531382 -0.082322955 -0.098397925 -0.048570655
000210 c5 4c e0 3d 9d 42 b8 bd cc 66 94 bd be 24 c8 3d
       0.109521426 -0.089970805 -0.072461694 0.09772633
000220 be 62 e2 bd 61 04 21 3d 99 3e ed bd db b9 88 3d
       -0.1105399 0.039310817 -0.11584205 0.06676074
000230 e0 14 ea 3c 64 ac fc bc 70 72 41 bd fa 53 c1 bd
       0.028574407 -0.030843921 -0.047228277 -0.094398454
000240 94 99 45 3e 0b cf 3e be 6d 4c 9f 3c 15 d4 21 be
       0.19296867 -0.18633668 0.019445622 -0.15803559
000250 05 71 6a 3d 44 ab df 3d 89 eb 04 3e 9f 58 d1 bd
       0.05723669 0.10921338 0.12980475 -0.10221981
000260 53 32 d8 3c f2 df e2 bc 00 aa f1 39 44 a3 ec bd
       0.026391184 -0.027694676 0.00046093762 -0.11554578
000270 55 e5 f2 3d 9a c1 61 bd 3e 79 c4 3d 12 28 e3 bd
       0.11860148 -0.055116273 0.095934376 -0.11091627
000280 45 a0 12 be 42 53 c5 3d d6 28 ce 3d ad 25 73 bd
       -0.1431895 0.09635021 0.100663826 -0.059362102
000290 b1 45 f5 3d 42 b5 d1 3d d7 84 10 3e 58 58 9a bd
       0.11976183 0.1023965 0.14113174 -0.075363815
0002a0 40 a8 bb 3d 77 99 fb 3d 08 9f bc 3d aa b5 3b bc
       0.091629505 0.122851305 0.0921002 -0.011456886
0002b0 2b 10 d1 bd 60 9f ca 3b 26 d4 09 bc 60 00 1d 3d
       -0.10208162 0.0061835498 -0.008412397 0.038330436
0002c0 c0 77 6d bc 08 94 37 bd 00 2f ed bd 8c 6e da bc
       -0.014493883 -0.044818908 -0.1158123 -0.026664041
0002d0 8d 4e f5 3d 22 0a 56 bd 05 32 62 3d a4 39 e6 3d
       0.11977873 -0.052255757 0.055223484 0.11241463
0002e0 36 af d9 3d 29 9f 03 be 91 67 ed bd 57 3b e3 bd
       0.10629122 -0.12853684 -0.11592019 -0.110953026
0002f0 8d 92 0b be 1a cf f5 bd f0 bb ea 3c f2 ff 0b be
       -0.13630123 -0.12002392 0.028654069 -0.13671854
000300 fb 79 df bd ac bb 82 3c 33 26 cc bc 56 be 55 3d
       -0.10911938 0.01595863 -0.024920559 0.05218347
000310 30 c9 a5 bc 8d 4f 3a bb 78 bb 68 bd fa 33 4c bd
       -0.020237535 -0.0028428764 -0.05681941 -0.049854256
000320 54 c4 96 bd b0 48 ef bd 82 65 d0 bc 7a 96 a2 bd
       -0.07361665 -0.11683786 -0.025439028 -0.079388574
000330 ca 56 57 bd 94 2f b1 3c 5c b7 10 be 94 eb 3e 3d
       -0.052573003 0.021629132 -0.14132446 0.046611384
000340 58 96 b8 3d 39 63 95 bd 18 1f e6 bd aa 4c 23 bd
       0.09013051 -0.07294316 -0.112363994 -0.039868034
000350 73 70 05 3e 58 fa ef bd 76 3c d5 bd d3 4b be bd
       0.13031177 -0.11717671 -0.10411923 -0.09291806
000360 1e 96 c4 bd 6a 1f f9 bd 10 d1 4f bc 47 76 f7 3c
       -0.09598945 -0.12164195 -0.012684122 0.030207766
000370 90 50 c0 3c 30 24 53 bc bf 0f b3 bd fc 39 61 3d
       0.023475915 -0.012887046 -0.08743238 0.05498694
000380 c1 14 88 bd cc 86 9b bd 46 6a d5 bd 4e c7 4e bd
       -0.066445835 -0.0759407 -0.10420661 -0.05048304
000390 6a b0 c5 3d 09 89 a6 bd 53 a0 0d 3e d2 2f 07 be
       0.09652789 -0.08131606 0.1383069 -0.13201836
0003a0 80 13 6c bb 28 57 da bd 0f 8b 0c 3e 26 32 c5 bd
       -0.0036022365 -0.10661155 0.13724922 -0.09628706
0003b0 80 18 58 bc ee 67 25 3d 66 4a ee bd 5c fb 0d 3d
       -0.013189435 0.04038232 -0.11635284 0.034663543
0003c0 ab 9e ec bd 23 ff bd 3d fe bc 77 3d b5 00 fa bd
       -0.11553701 0.09277179 0.06048297 -0.12207166
0003d0 34 7e fa 3d cc ca 1d 3d 00 41 4a 3c d8 3c b9 bd
       0.122311026 0.03852348 0.012344599 -0.09044808
0003e0 6a 64 d9 bd 63 8d fb bd 60 61 02 bc 3d 4b 8c 3d
       -0.106148556 -0.12282827 -0.007957786 0.06850288
0003f0 6f ec de bd d1 57 ea 3d 58 31 2d 3d 1e 8d b2 bc
       -0.1088494 0.11442531 0.042283386 -0.021795806

18.bias f4 [10]
000000 ef dd 02 be 0f 7a f2 bd 32 53 45 bd 99 e0 13 3c
       -0.12779973 -0.11839687 -0.048175044 0.009025716
000010 4b 76 8c bd 24 24 83 3d fe 5b a5 bd 2f 3f b7 3c
       -0.068585 0.06403378 -0.08074187 0.022368995
000020 47 e1 c2 3d a3 0f eb 3d
       0.095156245 0.11477592

18.weight f4 [10, 50]
000000 6c 35 a6 3d a5 51 9d 3d 7c 58 17 be 7d 67 62 bd
       0.08115658 0.07681588 -0.14779848 -0.055274475
000010 bf b3 81 3d ae e6 bf bd d0 a8 20 3e 51 da a6 bc
       0.06333112 -0.093701705 0.15689397 -0.020367773
000020 86 68 bd bb f8 86 9a bd f5 ee d9 bd 97 7f 8a bd
       -0.0057802824 -0.075452745 -0.106412806 -0.06762617
000030 c1 8c e7 bd 4b 65 e4 bd 46 7f 06 3e 11 a1 8d 3d
       -0.113061436 -0.111521326 0.13134488 0.069154866
000040 52 9c 21 3e ea d9 09 3e 8f 55 48 bd 42 db 0e 3b
       0.15782288 0.13462034 -0.04890972 0.0021798168
000050 13 ac ba bd 15 32 04 be 95 d6 32 3c ea 30 07 3d
       -0.09114852 -0.1290973 0.010915418 0.033005632
000060 6e db 24 3c 2f 62 ff 3d f9 ec f5 bc 01 82 dd bd
       0.010062082 0.12469899 -0.030020224 -0.10815812
000070 ea ce bf 3d 9c fe 22 3e c9 a9 66 3c ab f6 19 be
       0.093656376 0.15917438 0.014078566 -0.15035503
000080 8d 86 07 3e 94 0e c5 bd f5 af c7 3d a6 96 0d 3e
       0.13234921 -0.09621921 0.09750358 0.13826999
000090 2b 9e 9c 3b 61 87 27 3e 73 60 24 be 87 37 27 3e
       0.0047795973 0.16360237 -0.16052417 0.16329776
0000a0 50 e3 2f 3b 4d 48 eb bd b3 d2 94 bb 11 f4 0d bd
       0.002683837 -0.114884 -0.004541719 -0.034656588
0000b0 65 99 8d bd e4 bb 5d bd 00 e3 32 3b af a0 fb bc
       -0.06914023 -0.054134265 0.0027295947 -0.030716268
0000c0 80 55 0a bd 7b c6 d9 bd 3a 93 12 bc 7b de 68 3d
       -0.033772945 -0.1063356 -0.008946234 0.0568528
0000d0 76 a5 bc 3d 73 8b 58 bd 2a ea 51 bd ca ff ae bd
       0.09211247 -0.052867364 -0.051248707 -0.08544882
0000e0 ae 80 70 3d 66 4a 97 3d 16 e7 ae bc fe cc f7 bd
       0.05871647 0.07387237 -0.021350425 -0.12099646
0000f0 31 21 fe 3d 80 22 ee bd c0 51 eb 3d 91 19 40 bd
       0.124086745 -0.11627674 0.11490202 -0.046899382
000100 a0 58 78 3d c3 cd ed bd c5 f6 88 3d dd 4c 9b bc
       0.060631394 -0.116115116 0.066876926 -0.01895755
000110 19 2f b8 3d 56 20 0c 3e 84 65 15 be 1e 00 f7 3d
       0.08993358 0.1368421 -0.14589506 0.12060569
000120 bc f6 ef bd 87 89 62 bd 13 c3 7b 3c 1a b5 cd bd
       -0.11716983 -0.055306938 0.015366334 -0.10044308
000130 2f fd 97 3c 18 12 fa bd eb 01 dd bd 51 f2 35 3d
       0.018553345 -0.12210482 -0.107913814 0.044420544
000140 22 44 19 3d 9a 02 80 3d 49 e0 1a be 8f 0c 00 be
       0.037418492 0.06250496 -0.1512462 -0.1250479
000150 47 0c dd bd e7 79 09 3e cd aa 31 3e 89 c9 f2 bd
       -0.10793357 0.13425408 0.17350312 -0.11854846
000160 ea 47 b0 bc e6 76 f2 bc 11 57 aa 3d 76 02 c1 bc
       -0.021518666 -0.02959771 0.08317388 -0.023560744
000170 7b 84 da bd 5a 17 67 3d f2 b4 bd bd 17 69 0a 3e
       -0.106698 0.056418754 -0.09263028 0.13516651
000180 bf df f6 bc 10 a4 f1 bd 47 ab 74 bd 8a bb eb bc
       -0.030135987 -0.117988706 -0.059733655 -0.028775949
000190 f3 19 64 3c 07 d8 8f bd d4 27 17 3d 66 ce dc bc
       0.013922202 -0.07023626 0.036903217 -0.026953887
0001a0 bd 3e 81 3d b7 32 ee 3d 16 88 b6 bd de 0a 65 3d
       0.063107945 0.11630767 -0.08912675 0.055918567
0001b0 c8 a1 8b bd ba 39 b8 3d c0 3c 96 bd fa c5 d1 bd
       -0.06817967 0.089953855 -0.07335806 -0.10242839
0001c0 ee 90 16 3e 92 fa dc bd 91 8e 5a bd dc ec c5 3c
       0.14703724 -0.1078998 -0.05335862 0.024160795
0001d0 6e 28 f2 3d 9c 3d 8d bd ae 0f 0e 3e 37 33 15 3c
       0.118241176 -0.06896517 0.13873169 0.009106449
0001e0 5d 53 99 bc cb 75 85 bc 90 d1 1a 3d bc 36 84 bd
       -0.018716509 -0.01629152 0.03779751 -0.06455752
0001f0 41 2b 23 bd 5c 1a 26 3d 43 5a 18 3e 8a 7f 59 bd
       -0.039836172 0.040552482 0.14878182 -0.053100146
000200 6b f3 fe 3b 1b 77 83 bd 30 22 95 bd 9f db f5 3d
       0.0077804825 -0.06419202 -0.072819114 0.1200478
000210 42 44 1b bd 41 23 19 3c a7 6a 88 bd c3 b2 a2 bd
       -0.037906893 0.009346784 -0.06660967 -0.07944252
000220 78 6d 1e be 56 8c 36 be c0 99 e3 bb d6 7f 96 3b
       -0.15471447 -0.17826971 -0.0069458187 0.004592876
000230 4d db c3 bd 1d 0c 88 3c 35 a3 13 3e d5 99 de 3d
       -0.09563313 0.016607339 0.14417727 0.10869185
000240 6c 7e d5 bd 63 30 8f bd 36 35 87 bd 9f aa c9 3d
       -0.10424504 -0.06991651 -0.06601946 0.098469965
000250 e7 b1 87 3d 7a 16 27 be b2 bb 62 3c 6f 7c 07 3e
       0.06625729 -0.16317168 0.013838695 0.13231061
000260 a0 ff d1 bc 9c e6 ed 3d b3 84 b0 3d 2c fc a9 3d
       -0.025634587 0.11616251 0.0861906 0.08300051
000270 7c 75 bb bd f7 eb f5 3d 4a 44 f0 bd a0 79 2a bd
       -0.09153268 0.12007897 -0.11731775 -0.041619897
000280 95 74 40 be 1a a8 4e bd 01 81 40 bd 75 3c 41 3d
       -0.18794473 -0.050453283 -0.046998028 0.047176797
000290 bf ff 60 bb 1c 23 82 3d 8a d3 04 3e ff 32 74 bb
       -0.0034332124 0.06354353 0.12971321 -0.0037261841
0002a0 d3 ed 6c 3d 03 be 82 bd 71 46 d8 3d 21 13 01 3d
       0.057843994 -0.06383898 0.10560311 0.031512383
0002b0 3a ba 02 be 75 be 12 bd 10 f0 ca 3c 26 c4 a9 3d
       -0.12766352 -0.035826165 0.024772674 0.082893655
0002c0 91 ed 08 be ee 93 85 bc ad 35 4c 3d 1b 79 86 bd
       -0.13371874 -0.01630589 0.049855877 -0.06566068
0002d0 1b f1 d2 bd 12 36 65 3d a9 1f 08 3d 1b 71 b8 bb
       -0.102998935 0.05595977 0.03323332 -0.0056287176
0002e0 8b 19 06 3e 07 5c d0 3d 93 84 11 bd 32 30 f1 3d
       0.13095681 0.10173803 -0.035526823 0.11776771
0002f0 d5 9c c1 bd 54 e2 ab bd 59 f7 ec 3d 6f cb 99 3d
       -0.094537415 -0.08392778 0.11570615 0.07509505
000300 62 a0 eb 3d 00 25 f8 bd bb ed d5 3d 1f e2 00 3e
       0.115052 -0.12116432 0.10445734 0.12586258
000310 43 9c f7 bd f6 51 5f be e5 3e 29 3d f1 4d 1d 3e
       -0.120903514 -0.2180861 0.041319747 0.15361764
000320 44 18 5a bd d1 54 06 3e 46 bc 7a bd f0 c8 e0 bc
       -0.053245798 0.13118292 -0.061214708 -0.027439564
000330 f8 2e 0c 3c ab 33 38 bd b2 ff 91 bc a6 5f e2 3d
       0.00855612 -0.04497115 -0.01782212 0.110534
000340 a7 c0 cc 3d b6 72 e9 3d 7f bb c2 3d 1e 3f 5b bd
       0.09997683 0.113988325 0.09508418 -0.05352699
000350 1f f9 18 3c 6c 6d 13 3e bc 3b 80 bc 69 46 66 bd
       0.009336739 0.1439721 -0.015653484 -0.056219492
000360 58 dc f6 3d b4 11 63 bd 99 48 9a 3b 7a 8b d7 3d
       0.12053746 -0.055436805 0.0047083613 0.1052465
000370 49 94 dd bd b7 b3 06 be 3c 0a c0 bd 9b cd 20 3d
       -0.10819299 -0.13154493 -0.09376952 0.03925858
000380 ca 0c 02 be 24 ef 08 bb 39 7b d0 3d dc 11 83 3d
       -0.12700191 -0.0020894492 0.10179753 0.06399891
000390 8b 90 0f 3b ba 8a 0e 3e 28 f2 e6 3b 62 b3 e3 3d
       0.0021906223 0.13920107 0.0070479102 0.11118199
0003a0 43 25 04 be 72 24 f9 bd 1f 8a ff 3d 46 40 d8 bd
       -0.12904839 -0.121651545 0.124775164 -0.10559134
0003b0 25 8a 89 3d 13 31 c1 3d de e6 dc bd 3a 22 a7 bd
       0.06715802 0.09433188 -0.10786222 -0.08160825
0003c0 ca 31 b0 3c b1 44 07 3d 5b ea 7b bc 42 84 0d be
       0.021508116 0.033024494 -0.015375699 -0.13819984
0003d0 14 fb ef 3c 2c 2f e3 bd 6b 2c 93 bd c0 f9 9b bd
       0.029294528 -0.11092982 -0.071862064 -0.076159954
0003e0 d6 8b e3 3c 01 ae ce bd cd b8 0f be c1 49 20 3d
       0.02777664 -0.10091782 -0.1403534 0.039132837
0003f0 12 dd c4 3d bc bc 8e bc ef d8 22 bd 9f e8 c1 bd
       0.09612478 -0.01742398 -0.039757665 -0.09468197
