Linear_4.onnx (onnx, 105481 bytes, 20 tensors)

0.bias f4 [50]
00000000: 6c4f 5e3d c897 af3d 43f2 02bb 3f5b be3d
00000010: 9007 b83d 8876 aebd 65e6 203d c46c 193d
00000020: a95e 06bd d269 64bc 0c87 09bd ec81 a2bd
00000030: 5c9c 8a3b bb5c 1cbd 997e 833d 3eab 873d
00000040: 1a72 db3d 3b9a c33d 8740 cd3d fc40 7e3d
00000050: 3161 af3d a054 22bd 593f 043e 0f2d 903c
00000060: 8784 d43d f812 ef3d 6508 d83b cfa4 133d
00000070: b2fb b7bd 361b 983d 4e3a 6c3d d856 bcbd
00000080: 43a2 0d3d a52d 113d 3e09 a53d b814 063e
00000090: 2292 483d db15 9c3d f2bb 8dbd a183 55bd
000000a0: 2b71 e83d 16ff 1a3d abbd 593d fa0c 5cbd
000000b0: 006b c8bd c1c0 10bd e15b 29bc 53aa d23d
000000c0: 0dec 82bd e9f8 9a3c
0.05427496 0.08573872 -0.0019980825 0.092947476 0.089858174 -0.08518702 0.03928222 0.037457243
-0.03280512 -0.013941245 -0.033576056 -0.07934937 0.0042300653 -0.038174372 0.06420631 0.06624459
0.107151225 0.095509015 0.10022073 0.062073693 0.0856346 -0.039631486 0.1291479 0.01759961
0.1037684 0.1167354 0.0065927976 0.036045846 -0.08983554 0.07427065 0.05767279 -0.09196252
0.034578573 0.03544392 0.080584034 0.13093841 0.048967488 0.07621356 -0.06920613 -0.052127484
0.1134971 0.037840925 0.053159397 -0.053723313 -0.09786034 -0.035340074 -0.010336847 0.10286393
-0.06392679 0.018917518

0.weight f4 [50, 100]
00000000: 310b 433d 4a24 563d 1c1c 643c e51a c9bd
00000010: 5ede 22be 1e9f 823b d666 0dbe bc67 00bd
00000020: ff8a c3bc cc02 82bd 822d 54bd 8b60 353d
00000030: 3ebb e93d aa7e 5e3d aa11 13be 0ae8 0bbe
00000040: 5fff cd3d abb1 143d 3bdf 7bbd 350a b3bd
00000050: a616 15be bc28 a8bd 7709 883c 29a2 dcbd
00000060: ec84 e03b 8094 a83d fa7e 603d 45da c8bd
00000070: 3edf f4ba 76a0 833d d058 923c a8dc 123c
00000080: 0bbe 03be f057 debd 216a 79bd fdb0 153e
00000090: baa2 a43d 4bff 1cbd 9bae c6bc e846 ba3d
000000a0: cd57 bcbd 4065 1c3c 016d 93ba 4497 813c
000000b0: 9260 68bc 4416 d6bd 731e 063d 134f 9dba
000000c0: e17d 983d 9769 94bd df48 a1b9 8325 783d
000000d0: 1e60 fdbc d441 cbbd 92ed 53bc 0101 45bd
000000e0: 9c96 05bd 4ed7 4cbd 6675 a53d ca0e 623d
000000f0: 666c c4bd a4a2 013e 7801 97bc cf02 38bd
00000100: 5b6c b73d ff78 80bd 67bf 033c 5dbe 9f39
00000110: 87f0 bf3d 9f16 b93d 422c 98bc 2546 49bd
00000120: 8fb2 e5bd 8a5e b13b 7f48 96bd 7276 0b3c
00000130: 2be1 aebc b68b 643d 8844 bebc ff9b a43b
00000140: 310b 5ebd 206d 723d 697b 06bd 95ee a23d
00000150: 7e04 0fbe 4adb a93d aa0a 2abd d065 e23d
00000160: 36fc b83c 8aea 283d 83da d03b 19c0 e3bd
00000170: f23a e53c 3908 b13d 8227 ea3c 9b2c 9e3c
00000180: 9b8f 30bc 30e6 ef3d 514c b23d 03f9 61bb
00000190: 01ba 5abc 7e99 d63d c3bc 48bd 4b66 313d
000001a0: 76be c43c c57c 80bd aa4c 11be 097a 233a
000001b0: 00bc b93d c5ec b33d 6f41 bd3d 59f7 c6bc
000001c0: f979 903d 33ce 5aba f637 613c 2d42 5e3c
000001d0: d427 ac3c a0f4 6e3c d185 6fbd 5f15 02be
000001e0: fe4b e1bd d77e 273d 60ba ab3c 87b4 8abd
000001f0: 0b29 2cbb 9e81 1f3e 1736 bf3c 779a 10be
00000200: cfcf 6d3c e310 7e3c ea8a ccbd 4998 8d3d
00000210: 93c7 bdbd b6b4 b5bd 9aef 5dbd d57b 013e
00000220: 6f47 893d 1fe0 ca3d bea5 37bd e8df ca3c
00000230: 6ecc 75bd fee2 b63c 7f93 e83d 99f8 6cbc
00000240: 9c35 263c fbcb dbbd 2adb afbd fd4a 473d
00000250: 62e6 a83d 6efc 3bbd 21c2 b23c 2b47 8a3d
00000260: 71ea a43c cf92 12bd 319b 3b3d 1237 1c3c
00000270: 673d 7ebd e8ba e3ba 7b38 353c 5679 d5bc
00000280: c9fd 1abe 0890 d63d 169f e8bc acce 83bd
00000290: 0453 10bd 58c5 38bd 85f6 e0bc 83f2 3cbb
000002a0: 12db 383d 4b96 a13d 4e1a 0a3c 20b9 ef3a
000002b0: 5112 9dba fadd 133e b0b4 bebc a18d e3bb
000002c0: f2b2 8d3d 1783 443d 373f c4bd 9839 2d3d
000002d0: 442e ef3c de1a babd 51d8 7ebc 8c5b 8b3d
000002e0: 37e8 d23b da0c 6b3d 2540 fa3d ff6b 44bc
000002f0: 41ff 1bbe ba76 f63d cbb0 21bd ed57 0bbe
00000300: 0c18 8cbd 8b2f d93b 4720 d23d 716c 843d
00000310: 8454 09be 6a5a d8bc 8d44 063e 34fc 03bd
00000320: cdba a83d c971 9e3d fb49 99bd 0653 243c
00000330: f2ca 823d 9cc3 973d 4209 86bc 43cb 9fbd
00000340: 0e38 a0bd 4214 cb3d ab8f af3d 757f abbb
00000350: 7a1a a93d a520 98bd 058b 023c 161e b7bb
00000360: 21cc 3f3d b837 63bc d977 36bd ebd9 853c
00000370: d556 a33d b4b3 8d3d c278 4d3d 9b66 a3bd
00000380: 2f7f b43c 1a0c 4b3b 39b7 89bd 7090 59bd
00000390: 1bc9 5f3d aa4d 043d 5cec c6bd a3fd 13bd
000003a0: d280 d33d e481 21bc 81d4 d73c fd08 8fbd
000003b0: a467 123d 7a2b 203d 51e3 753d 9d71 843d
000003c0: 9fc0 ba3d e9d9 42bd b2bb 4c3d e37e a63d
000003d0: 1405 d1bc c9a5 43bc 2077 dfbb 9169 ae3a
000003e0: bc6a 1a3d 38a9 933d ceab 96bd 6da5 ad3d
000003f0: bc67 f7bc d74d 373d 96f4 c13d 5ae2 ceba
0.047618095 0.0522807 0.013922717 -0.09819583 -0.15905139 0.0039862534 -0.1380876 -0.03134893
-0.02386999 -0.0634819 -0.051801212 0.044281524 0.11412667 0.054320015 -0.14362207 -0.13662735
0.10058474 0.03630225 -0.061492186 -0.08742181 -0.14559421 -0.082108945 0.016606076 -0.10773117
0.006851783 0.08231449 0.054808594 -0.098072566 -0.0018682254 0.0642709 0.017864615 0.008963741
-0.12865464 -0.108566165 -0.060892228 0.14618297 0.0803885 -0.038329404 -0.02425318 0.090955555
-0.09196434 0.009545624 -0.0011247696 0.0158192 -0.01418318 -0.104534656 0.032743882 -0.0012001715
0.074458845 -0.07246702 -0.00030762606 0.06058265 -0.030929621 -0.09924665 -0.012935059 -0.04809666
-0.032614335 -0.050010018 0.080790326 0.055189885 -0.09590988 0.12659699 -0.018433318 -0.044924553
0.08956214 -0.06273078 0.008041239 0.00030468675 0.09372049 0.09037518 -0.018575791 -0.04913916
-0.11215698 0.0054128813 -0.07338046 0.008512126 -0.021347603 0.0557973 -0.023226038 0.005023479
-0.05420989 0.0591861 -0.032832537 0.07955662 -0.13966557 0.08293779 -0.041514076 0.110545754
0.022581201 0.0412393 0.006373705 -0.11120624 0.027982209 0.086441465 0.028583292 0.019308379
-0.010776426 0.11713827 0.087059624 -0.0034480698 -0.013350011 0.10478495 -0.049008142 0.043310445
0.0240166 -0.06273798 -0.14189401 0.0006236141 0.09069061 0.087853946 0.09240996 -0.024287866
0.070545144 -0.0008346766 0.013746252 0.013565582 0.021015085 0.01458469 -0.058477227 -0.12703465
-0.110008225 0.04089245 0.020962894 -0.06772714 -0.002626958 0.15576789 0.023341222 -0.14121424
0.014514877 0.015506956 -0.09987433 0.06913812 -0.092665814 -0.088723585 -0.05418358 0.12644894
0.06703078 0.09906029 -0.0448358 0.02476497 -0.060009412 0.022325035 0.11356258 -0.014463567
0.010144617 -0.107322656 -0.08586724 0.0486555 0.08247067 -0.045895033 0.021821084 0.067518555
0.020131322 -0.03578454 0.0458023 0.009534614 -0.062070277 -0.0017374428 0.011060829 -0.026058834
-0.15135874 0.104766905 -0.02839617 -0.06435904 -0.03523542 -0.045110077 -0.0274613 -0.0028831072
0.045130797 0.07889994 0.008429123 0.0018289424 -0.0011983608 0.14440146 -0.023279518 -0.0069443737
0.06918897 0.04797658 -0.0958237 0.042291254 0.029196866 -0.09087156 -0.015554504 0.068045706
0.0064363736 0.057385303 0.12219266 -0.011988639 -0.1523409 0.12034364 -0.039475244 -0.1360776
-0.06840524 0.006627982 0.10260063 0.06465996 -0.13411146 -0.0264103 0.13112088 -0.03222294
0.082387544 0.077365465 -0.07484814 0.01002956 0.06386365 0.074103564 -0.016361836 -0.07802441
-0.078231916 0.09915973 0.08572324 -0.0052337 0.08257003 -0.074281015 0.007967715 -0.0055883033
0.046825532 -0.013868265 -0.04454789 0.016339263 0.07975546 0.06919041 0.05016399 -0.07978555
0.022033302 0.0030982555 -0.067244 -0.053116262 0.05463515 0.03230063 -0.09713051 -0.03613056
0.10327305 -0.0098576285 0.026346447 -0.06984136 0.03574337 0.039103962 0.06003124 0.064669825
0.09118771 -0.047571097 0.049983688 0.081296705 -0.025515117 -0.011941382 -0.0068196207 0.0013306608
0.037699446 0.0721001 -0.07356988 0.08478818 -0.030200832 0.04475197 0.09470479 -0.0015784011

10.bias f4 [50]
00000000: d4de fbbb a4cd ba3d 31de 743d 7dc6 abbc
00000010: 6e7e 473d 87f6 9abc 7667 b9bc 7126 2fbe
00000020: 0c73 4fbc 1835 1fbe 2732 b6bd 7e1a eb3d
00000030: 07d2 833d 85af c93d a3d9 0ebe 76fb e23d
00000040: 48e9 433d c0b5 cc3d f710 81bd 83d0 43bd
00000050: 0731 02be 38dd 94bd fa73 ee3c 01b7 6c3c
00000060: ec4a 5bbd afa4 0dbe db95 b13d 9ea6 43bd
00000070: bd83 843c 968c db3d 0cc9 2fbb 17f1 e1bd
00000080: f893 0c3e 5a9d c8bd 27d7 f2bd c77d 9fbd
00000090: 6c30 92bd dd43 05be 4e3c 0ebe 8cd2 46bd
000000a0: 4191 59bd 5034 76bc c8a9 a0bd 9a10 bfbd
000000b0: 0544 0dbe cf0e 0a3e 595d 213e 5a9f cb3d
000000c0: 3ab3 ab3d aae7 d5bc
-0.0076864753 0.09121254 0.05978221 -0.02096867 0.048704557 -0.018916382 -0.022632342 -0.17104508
-0.012661707 -0.15547597 -0.088962846 0.11479662 0.06436544 0.09847931 -0.1395021 0.110831186
0.047829896 0.099956036 -0.06302064 -0.047806274 -0.12714015 -0.07268757 0.029108036 0.014447928
-0.053538248 -0.13832353 0.08671161 -0.04776632 0.016176099 0.10720174 -0.0026822714 -0.11032312
0.1372832 -0.097956374 -0.11857443 -0.07787662 -0.07138142 -0.13014169 -0.13890192 -0.048540637
-0.05311704 -0.015027121 -0.07844883 -0.09329338 -0.13795479 0.13482212 0.15758266 0.09942503
0.08383794 -0.026111443

10.weight f4 [50, 50]
00000000: 642f 903d 7a33 0e3d 723a 9b3d 3caa d93c
00000010: 5610 87bc 13ee 093e 04b5 bbbd 308d 6fbc
00000020: cd90 153e 7eab 9ebd 7898 28be f1bd 06bd
00000030: 42b2 763c 2d01 efbc ff65 05be a447 513d
00000040: 92c3 e3bd 024c 113e 985c 113e ba0b c73c
00000050: 4d97 94bd 1dc0 023e 58a5 9fbd cf7c 6a3d
00000060: ce41 223e bd64 0fbd 3c9d eb3d 3b5c 0a3e
00000070: f5cc 37bd fa65 67bd d8a8 ac3d f6b4 733b
00000080: 08ea 7a3d 32e8 2bbd 2b31 8e3d ce89 a93d
00000090: 4428 163d f081 91bd a9dd 283e d83e 6ebd
000000a0: 5b8d d7bd 4fb1 18be aa6c c23d 31ba 463e
000000b0: 84ca edbc a948 5c3d 5808 0cbc 6184 dc3d
000000c0: 19e3 a33c 2ab7 423c f808 413e e382 71bd
000000d0: 044e 12bd 6beb 82bd 42d9 c5bd 42b0 eb3d
000000e0: 6181 0c3c 5288 f73d d4e0 bcbd 0217 313d
000000f0: 4525 e13b 3d1a 053e 87be 26be c0cb 2fbc
00000100: dfc6 373d d6d9 c03d df36 77bd 7574 62bc
00000110: dc65 fd3d 5a0b cc3b 76b3 423e e523 443c
00000120: 2c03 d9bd a18b c43d c5fb 953b 0df8 fd3d
00000130: a79d 593d d59f 973d 7e4c 033e a66a e33d
00000140: 4081 053b 0c8e 37bd 51ce 383d 0cbc 86bd
00000150: 4321 bbbd 458b 713d f8a0 f13c df57 e83d
00000160: 1b67 3d3e 9c7f 10be d6bd f5bc ebb4 1fbe
00000170: ac76 1b3d ef04 363e cd49 8b3d 9549 133e
00000180: 7be1 35be 39c9 e23d 82d7 263e 00eb 03be
00000190: e5c0 583d 6cd0 86bd d777 c33c 6e3d b8bc
000001a0: b136 d8bd 3ec7 133d ab68 03be dcfc 9b3d
000001b0: 0bd2 e4bd 9d67 18be 010a 13be 8d46 b13d
000001c0: bddb 14be a657 1fbe c56b 343d fc91 253d
000001d0: dc88 0bbe c2c8 3dbd 85d4 f83c c4b1 94bd
000001e0: 7376 f13d 0322 803d b4f6 fcbd dbd4 063e
000001f0: 298d c93d 2d26 393e 6b5e ad3d 1279 92bd
00000200: fab1 663d 6aff 8c3d 36f1 e03d 571a e53d
00000210: c256 0e3e 0eaf 0e3e 62e1 063e bc8c 77bc
00000220: fe47 b0bd e68d 4f3c 40bb 2f3e 284b 06be
00000230: 26cc cb3d c5ce c6bc 3092 7f3d 6722 843d
00000240: 40d9 a93d 8323 55bd 2819 a5bd 4d21 463e
00000250: 0ccb 99bb 9d64 8fbd cae3 98bd 4124 a73d
00000260: f0c3 4d3c caea d2bd 13d4 803c c574 7dbd
00000270: 1805 e7bd 548d d4bd 6c89 c9bd 9a81 2e3c
00000280: 2e2d ab3d 5dd5 c7bd e730 ea3b 18e9 563d
00000290: 998f 493d 775b 023e c740 03be da77 f1bd
000002a0: 2c8c 113e 0c18 933b 99a0 443d 6783 fdbd
000002b0: aae2 0abe 772e 87bd 3844 ad3c 60a5 073e
000002c0: 639b 61bd c335 c83b c276 1bbd d513 afbd
000002d0: da69 f1bd 9082 063e 83aa 2c3b 084b 18bd
000002e0: 2c32 043e c073 173d 9849 b2bc d18b 9f3d
000002f0: 0a2c 773d d0e1 653c 71f4 28bd d0e0 123d
00000300: 957e d7bd a666 bfbc f8e5 8237 d57d 4a3d
00000310: abb6 f73d 5f31 0d3e 9c7c cabc 258e 97bd
00000320: 89e6 153e 6366 56bd 49e9 f83d edee 87bd
00000330: a766 fbbd 35c8 fe3d 14af 83bb dc67 c7bd
00000340: 9a91 7e3c 612a 0dba 5246 cf3d 0eb6 2e3e
00000350: 50e0 393d 55eb 19be 4454 efbd f0b3 333d
00000360: 8a25 f3bb d293 5b3d 562f b9bd a6d1 773d
00000370: 3a42 033e da3d 3a3d 51d5 7a3d 2d01 33bd
00000380: 8a7c ef3d 9eb5 263e 3945 14bd b548 e93d
00000390: 4cc9 54bd a871 c9bd 44fa 863d c26b 1d3d
000003a0: 2375 d83d 5862 273e a7d7 dabd f2a0 a6bb
000003b0: 54bd 23bd 573d fb3b b395 253e 3882 d5bd
000003c0: a860 04be 08ee 5fbd a2a7 a43d fa6c 0fbe
000003d0: b32b 3d3d b7e9 b63c 7bb2 16be 6c20 353b
000003e0: 3279 503d 35d3 2d3c 0c7e 84bd 93de 8a3c
000003f0: 1555 c23d 7f46 c23c fa64 ecbd 9c1b a03d
0.07040289 0.03471706 0.07579507 0.026570432 -0.016487282 0.13469724 -0.09165385 -0.014621064
0.14606018 -0.07747553 -0.16464412 -0.032895986 0.015057148 -0.029175365 -0.1302719 0.051093712
-0.111212865 0.14189151 0.14195478 0.024297584 -0.07255421 0.12768598 -0.07795209 0.057247933
0.15845415 -0.03500818 0.115045995 0.13511746 -0.044873197 -0.056493737 0.08430642 0.0037186719
0.061258346 -0.041969486 0.06942972 0.08278237 0.036659494 -0.07104862 0.16490807 -0.0581654
-0.10525008 -0.14911388 0.09493382 0.19406964 -0.029027231 0.05378023 -0.008546911 0.10767437
0.02000575 0.01188449 0.18851078 -0.058962714 -0.035718933 -0.06392559 -0.09660579 0.11508228
0.008575768 0.12086548 -0.0922257 0.043234833 0.006870898 0.1299829 -0.16283618 -0.01072973
0.044867393 0.09416549 -0.060355064 -0.013821711 0.12372944 0.006226939 0.19013771 0.011971449
-0.10596308 0.095969446 0.0045771324 0.124008276 0.053128865 0.074035324 0.12822148 0.11104326
0.0020371228 -0.0448132 0.045118634 -0.06578836 -0.091372035 0.05897071 0.029495701 0.11344885
0.18496363 -0.14111179 -0.029997747 -0.15596358 0.03795497 0.1777532 0.06801186 0.14383538
-0.17761795 0.110735364 0.16293147 -0.12882614 0.052918334 -0.06582722 0.023860855 -0.02249023
-0.105573066 0.036078684 -0.12832896 0.076165885 -0.11172875 -0.14883275 -0.14359285 0.086560346
-0.14536949 -0.15560779 0.04404809 0.040422425 -0.13626426 -0.046334036 0.030374775 -0.072604686
0.117901705 0.06256487 -0.123517424 0.13167135 0.09841377 0.18080969 0.084652744 -0.071519986
0.056322075 0.06884654 0.10983507 0.111866646 0.13900283 0.13933966 0.13171914 -0.015109237
-0.086074814 0.012668109 0.17161274 -0.13114607 0.099510476 -0.024268517 0.062395275 0.06451874
0.0829339 -0.05203582 -0.08061439 0.1934864 -0.0046933945 -0.07001612 -0.07465322 0.08161212
0.012558922 -0.10298689 0.015726125 -0.06187894 -0.112802684 -0.10378519 -0.09840664 0.010651017
0.08358227 -0.09757493 0.007146943 0.05246839 0.04920921 0.12730204 -0.1281768 -0.11790438
0.14213628 0.0044889506 0.04800472 -0.12378579 -0.13563028 -0.06600659 0.021150693 0.1324668
-0.05507983 0.0061099245 -0.037955053 -0.085487045 -0.11787768 0.13135743 0.002634675 -0.03718093
0.12909764 0.036975622 -0.021763608 0.0779034 0.060344733 0.014030889 -0.041248742 0.03585893
-0.105221905 -0.023364376 1.5604295e-05 0.04943641 0.12095388 0.13788365 -0.024717622 -0.07400159
0.14638723 -0.052343737 0.121538706 -0.06637368 -0.12275439 0.1244053 -0.0040186737 -0.097366065
0.015537644 -0.0005385038 0.101208344 0.17061636 0.045379937 -0.15031178 -0.11685994 0.043872774
-0.0074202465 0.05360777 -0.09042232 0.06050267 0.12818232 0.045469142 0.06123859 -0.043702293
0.11693676 0.16280219 -0.03619883 0.11390821 -0.051949784 -0.09836131 0.06590703 0.038432844
0.10569217 0.16346109 -0.10685664 -0.005085104 -0.03997548 0.0076672244 0.16170387 -0.10425228
-0.12927496 -0.054670364 0.08039786 -0.14006415 0.046184253 0.02232824 -0.14716522 0.0027637733
0.05089683 0.010609438 -0.06469354 0.016951835 0.09488884 0.023715256 -0.11542697 0.07817766

12.bias f4 [50]
00000000: 287a a3bc fe94 183d 88dd 1ebd 1c05 d1bd
00000010: 4cbe 073c 41a2 93bd 6708 5b3d c90f 08be
00000020: 5077 20bc c1fa 77bc 2f9a c1bc a0db 03bc
00000030: 1d26 c2bd 4094 b5bc c74f 663d 7a9c 523c
00000040: f4c1 28bc 61c9 97bd 94c7 0c3d 5677 cc3d
00000050: 42a0 5e3c be9b c0bd 114a d1bd 5b6d 293c
00000060: 643e 21bd 8223 f3bd 9845 79bd f79b 313d
00000070: b136 3a3e e648 f3bd c94c 9bbd 757b f83c
00000080: ea42 ed3d e4aa 64bd 35bb 943d 69cc f6bd
00000090: e140 23be bc03 92bd 9465 d6bd 6a09 163e
000000a0: d9da ddbd 838b f63d 765d 82bc a03a 453c
000000b0: 2801 c43c 1433 dc3d 4bba 053e a9ee cabd
000000c0: d4c6 80bc 7fdf 0ebe
-0.01995571 0.037251465 -0.038785487 -0.10206053 0.008285116 -0.07208682 0.05347481 -0.13287272
-0.009794071 -0.015135468 -0.02363309 -0.008047968 -0.09479926 -0.022165418 0.056228425 0.01285469
-0.010300148 -0.07411457 0.03437002 0.09983699 0.013588013 -0.094047055 -0.10219205 0.010341014
-0.03936614 -0.11872007 -0.060857385 0.04336163 0.18184926 -0.11879139 -0.07583005 0.030332306
0.115850285 -0.055827036 0.072622694 -0.12050707 -0.15942718 -0.071296185 -0.10468593 0.14652029
-0.108327575 0.120383285 -0.015913706 0.012037903 0.023926333 0.1075193 0.13059346 -0.09908802
-0.015719809 -0.13952444

12.weight f4 [50, 50]
00000000: 2e03 9bbd c712 87bd 2e4c e03d 264c cb3d
00000010: e6d2 cb3c 981f 77bd 076d 8f3d 9f17 a43d
00000020: 9885 8e3c 5332 08be 56ea 433b 12dc 003e
00000030: d2a6 943d 1b8b 01be d65c 5bbd e938 e8bd
00000040: 1727 27bd 9cf4 07be 4dc7 043e 20d4 253d
00000050: 4c8a 803d 9246 d43d 8084 d73d ea44 0d3d
00000060: 90f3 c3bd de18 fb3d 748a bd3d a2a6 13bd
00000070: e8e4 b83d cfdd c23d 003f 4aba ceab e63d
00000080: ab09 04be 66af c63d 89ac 723c 6b0d 003e
00000090: ae4f f03d 3aac 28bd 833a 063e 6c92 01be
000000a0: 2a18 3abc c570 87bd 85a9 f43d d8af ad3c
000000b0: 2aa6 a4bd 766b 6b3c cf7e 85bd c5f8 a93c
000000c0: 100c 5ebc 7076 2cbd 620a 063e 07c7 ef3c
000000d0: 6bf2 d43d 30de f8bd 1084 d8bd add8 bf3d
000000e0: c09b adbd 547d eb3d ae1b 763c 2ba9 463c
000000f0: 0617 49bd decd 2c3d 53d3 debd 56ba 173e
00000100: d602 00be 6110 de3d 7457 dcbc 5a6b 4c3c
00000110: f5bd bb3b c097 293e 8062 81bb 5ee2 94bc
00000120: b983 b1bd 854f cebd d102 fdbd 6cf0 4f3d
00000130: f2f6 cabd a2bd a63d ec25 9f3d 9bc3 103e
00000140: 6f05 bebd f9d2 b53d 42f9 183e 88e7 993c
00000150: 4978 2b3e 7f6f b4bd 9d63 423d bd64 213e
00000160: 3183 093e 42bd e4bd 8002 88bc d99d 87bd
00000170: 7a6a 7abd d080 8dbd b3fd a8bd 81e1 263e
00000180: 9801 c33c a9a5 18bc 59b1 5fbd 411e aebd
00000190: b245 05be d014 75bc 141e 02be c086 58bb
000001a0: a6de dc3d ed56 0a3e f6d6 b0bd 8b43 93bd
000001b0: 4cab 473d aaa9 d33d bc1a 64bd a490 063d
000001c0: 1dca 0cbe 37c6 f5bd 246d 2abd b8ba 0e3d
000001d0: f0ee 5fbd 94c5 9cbd fde0 a8bd 654d 00be
000001e0: 40be d23c a071 d73b 2055 dcbd b2f9 d33d
000001f0: 4c4c 06be a0e0 61bc 0830 b23c 1e2d d23d
00000200: a072 c0bb 402a 08be ea39 b93d 683a 5a3d
00000210: f9ac c6bd 3198 083e ccfe 1a3d c0cb 5ebc
00000220: 384b a33d 62af 80bd 6062 85bc de93 d9bd
00000230: 40c1 d63b 641a e7bd 9962 0e3e 0031 d13b
00000240: 205d 4cbc 9ced 14bd 66d8 a6bd 424b 2cbd
00000250: f03b 49bc 3b67 0a3e a4e4 90bd 8656 a2bb
00000260: 9772 f23d 1e84 9c3b 7f19 283c df19 e7bd
00000270: b08e edbc ca1b c83d 8272 f23d 1e92 fb3c
00000280: f426 c73b c2d5 59bd 13a2 9b3c c578 073d
00000290: 76ce ef3d 2d00 10bd 5eea 1a3e 9cb6 e33d
000002a0: 1cc5 7b3c 46f7 1e3d c847 38bd 0202 f9bd
000002b0: 27c3 003c 435e ee3d 5476 0fbe 3edb ef3d
000002c0: 7668 fc3d 2310 4c3c d7ac 0b3e 6642 05be
000002d0: 02e4 0e3b f8b7 073e 8be3 e1bc bb38 103e
000002e0: 07f3 1abd f202 5a3c d756 193e b330 75bd
000002f0: 9e7f fd3d 75c7 e9bd 165b 733d d4d5 5e3d
00000300: 042d c33d 53be 0e3e 069f b2bc aa51 ff3d
00000310: e5a0 f83c 591f 183e 254a 09be f771 963d
00000320: c29d 523d e3ec 9bbd 15d2 4ebd 3f0f e7bd
00000330: 9d98 053e 4a4c a43d fa67 d03c 8b01 153e
00000340: 959d 753d f21b 133e db1c ccbd 3fcf 973d
00000350: b379 313e e158 123e 4bae 083e 47ae 613d
00000360: c4e4 2b3d e0cd 933d c131 103e b7db d93c
00000370: e480 09bd b44f 8ebd 84f7 a93d 6929 d93d
00000380: f462 08bd 5809 09be a06c c83d 98b5 913d
00000390: 9540 ebbd b93b f1bd af93 123d 3765 02be
000003a0: 7eff 453d 8a05 0dbe 315c 8bbc 98ce 813d
000003b0: c38f ef3d bb18 0bbe 2a2e b7bd 2d1c eebd
000003c0: 4015 6d3d 80be 173d ee36 79bd 1585 ffbd
000003d0: bff6 cdbd a226 c1bd 55ad 0d3e a29b da3c
000003e0: 5f6c 273e cb13 613d 2179 f23d 8528 c03c
000003f0: b922 a7bd a6b8 babd d4b9 ac3d f9a2 10be
-0.07568966 -0.06595378 0.1095203 0.099266335 0.024880838 -0.060332865 0.07003217 0.08012318
0.017397687 -0.13300447 0.0029894314 0.1258395 0.07258381 -0.12650721 -0.053555332 -0.1133898
-0.040808763 -0.13276905 0.12966652 0.0404855 0.06276378 0.10365023 0.10523319 0.03448955
-0.0956794 0.122606024 0.092549235 -0.036047585 0.090280354 0.09514963 -0.0007715076 0.11263238
-0.12894313 0.09701423 0.014811643 0.12505119 0.11733948 -0.041179873 0.13108258 -0.12653512
-0.0113583 -0.06613306 0.11946396 0.021202013 -0.08039506 0.014368882 -0.065183274 0.020748505
-0.013552681 -0.04210514 0.13089898 0.029269708 0.103978 -0.12151754 -0.10572064 0.093674995
-0.084769726 0.11498514 0.015021248 0.012125294 -0.049094222 0.042188518 -0.10880151 0.14817175
-0.12501082 0.10842968 -0.02689717 0.0124767665 0.0057294318 0.16561794 -0.0039485097 -0.018174347
-0.08667702 -0.10073761 -0.12354053 0.050766394 -0.09910382 0.08141638 0.07770905 0.14137118
-0.0927838 0.088781305 0.14938834 0.01878716 0.16745104 -0.08810329 0.04745828 0.15761085
0.13428952 -0.111689106 -0.016602755 -0.06621904 -0.0611367 -0.06909335 -0.08251514 0.1629696
0.02380447 -0.00931684 -0.05461249 -0.08501864 -0.13014868 -0.014958575 -0.12706786 -0.0033039302
0.10784654 0.13509722 -0.086347505 -0.07190617 0.048747346 0.10335095 -0.05568956 0.032852784
-0.13748975 -0.12000697 -0.04160799 0.034846038 -0.054671228 -0.076548725 -0.08246038 -0.12529524
0.025725484 0.0065748245 -0.10758424 0.1035036 -0.13115042 -0.013786465 0.021751419 0.10262512
-0.0058730394 -0.13297367 0.09044249 0.053278357 -0.09700961 0.13339306 0.03784065 -0.0135983825
0.07973331 -0.062834516 -0.01628226 -0.106239066 0.006553799 -0.112843305 0.139048 0.006384015
-0.012473375 -0.036359414 -0.081467435 -0.04206396 -0.012282357 0.13515942 -0.0707486 -0.004954162
0.118382625 0.004776492 0.010259985 -0.112842314 -0.028998703 0.09770925 0.11838247 0.030709323
0.0060776416 -0.05318237 0.018998181 0.03307416 0.11709301 -0.035156418 0.15128466 0.11118814
0.015366819 0.038810037 -0.04499033 -0.12158586 0.007859028 0.11639073 -0.14009982 0.11711739
0.12324612 0.012455019 0.13640152 -0.1301361 0.0021803384 0.13253772 -0.027574321 0.14084141
-0.037829425 0.013306366 0.14974533 -0.059860896 0.12377857 -0.114149965 0.05941304 0.05440314
0.095300704 0.1393979 -0.021804344 0.12466748 0.030350158 0.14855708 -0.1340719 0.07345956
0.05141998 -0.07613542 -0.05049332 -0.11282205 0.13046499 0.080223635 0.025440205 0.1455137
0.059964735 0.14366129 -0.09966441 0.07412576 0.17331581 0.14291717 0.13347737 0.055097844
0.041966215 0.07217002 0.1408148 0.026594026 -0.033570185 -0.06948796 0.08299163 0.106036015
-0.033297494 -0.1338247 0.097863436 0.071147144 -0.114869274 -0.11778969 0.035785373 -0.12733923
0.04833936 -0.13771644 -0.017011734 0.06338233 0.11697342 -0.13583653 -0.08944352 -0.11626468
0.057881594 0.03704691 -0.0608434 -0.12476555 -0.10056829 -0.09431197 0.13835652 0.02668554
0.16349934 0.054950517 0.1183951 0.023456821 -0.0816092 -0.0911725 0.084338814 -0.14124669

14.bias f4 [50]
00000000: 54c4 cfbd 2e7e 24bd 5086 ba3d e002 c03b
00000010: c83b c63d 6af7 22be 5492 9dbc 0953 3fbd
00000020: 1dff 013e cbc6 0d3e 2dc5 223e 94bb 03be
00000030: dba3 f43d e0ce cfbb 1861 66bd 3e2a 77ba
00000040: 6463 bebc 8f03 e13d d400 8a3d fd39 eebd
00000050: 6fd7 a8bd 49fa 19be ddbf f13d db57 34bd
00000060: 71a4 89bd e648 21be c1f8 d6bd c40e 50bd
00000070: 513f 943d 4f59 1b3d 3e31 a3bd 9e96 e9bd
00000080: 10e3 c5bd 747d dbbc 653f a93b cad1 04be
00000090: 8cb5 72bb cefe 043e 70ee 86bb 7f69 24be
000000a0: a0b2 cc3d e678 cebd 3f10 0abe b492 cc3d
000000b0: eadf d43d d9c2 373d b420 02bd eec0 6e3d
000000c0: 8a8b df3d a84e bb3d
-0.101448685 -0.040159397 0.09107649 0.0058597177 0.09679371 -0.15914693 -0.019234814 -0.046710048
0.12694974 0.13845365 0.15895529 -0.12864524 0.119453155 -0.0063418 -0.05624494 -0.0009428597
-0.023240753 0.10987007 0.06738439 -0.11632154 -0.08244216 -0.15036882 0.11804173 -0.044029098
-0.06720818 -0.15750465 -0.10496665 -0.05079533 0.07238639 0.03792697 -0.079683766 -0.11405681
-0.09662449 -0.02679322 0.005165028 -0.12970653 -0.003703448 0.12987825 -0.0041177794 -0.16055869
0.099950075 -0.10081653 -0.1348276 0.09988919 0.10394271 0.044863556 -0.03176947 0.05828946
0.10915287 0.09145862

14.weight f4 [50, 50]
00000000: 485a 253d dc95 a03d fa42 ce3d 9c99 03be
00000010: 0f3a 84bd ca3e 63bd 6db0 d5bd 00d0 0fbb
00000020: a2bf e63d 21f4 043e 6027 98bb 1e13 71bd
00000030: 7865 393d c97f 94bd e07b 563c 3056 50bc
00000040: d6d3 0cbe ea91 8bbd 72a2 a5bd 6835 d53d
00000050: 48ed c1bd a2f2 993d d0ed fd3c bcb2 00be
00000060: 94d6 acbc 4e99 47bd 0eb3 11bd 34af acbd
00000070: 8d69 043e 3af1 f2bd e219 d43d f841 753d
00000080: 8cc3 3bbd 6d2d dfbd 5826 aa3c 7683 2dbd
00000090: 4e39 e73d b621 9abd 9a97 babd e632 26bd
000000a0: d879 ce3d 6938 05be 1e68 fcbd 8874 b6bd
000000b0: fbcb dbbd 7a20 f43d d450 d43d 0478 0ebe
000000c0: 84cc 61bd c81b 333d a079 623c 880e c33d
000000d0: 9c8d 543d 81d0 a93b aaf5 eabd 081c 41bb
000000e0: ad8b 9b3d c2fc 653c bc6e db3d f48b e73d
000000f0: 483a 2dbd 1a32 f73d c233 863d 48ca aebc
00000100: 2651 0cbe 2dcb 083e 3612 5cbd fb68 b6bc
00000110: d88a f8bc 4596 07be 85af 773c 507b 593c
00000120: 128c d9bc b920 20bd 3692 003d 1f30 e4bd
00000130: d9d1 e23d 8f81 733d 098a d8bd 80ab cbbd
00000140: eddc 543c 0411 8fbd a03d 243d f39e 0dbc
00000150: a447 3dbd 54fe bbbc bff5 003e 73b6 9cbd
00000160: f670 4cbd c21c debc 08fd b3bc d89e a73d
00000170: f53f f7bd 20e3 ec3b dacc 1bbd 7828 90bd
00000180: 343d a53d a0fc b33c 5df1 8fbd 653f 95bd
00000190: 2d53 863c 6f37 283e 7870 b6bc e453 b8bd
000001a0: c298 22be 24e4 16be 5290 1a3e 17c3 c4bc
000001b0: e4b1 833d cbd9 0e3e 190f ab3d 7ae7 d2bd
000001c0: c9c4 013e 2857 8dbc 2923 933d c742 233d
000001d0: fb80 04be 379c 41bd b4a3 783d a64f 013d
000001e0: 77d9 4dbd 4aab fb3d 9968 803d de5a a43d
000001f0: 347e f23b e40f b13d d039 07be 67a1 113b
00000200: b9bf 103e b00e 21bd bd86 053e da5e 2f3e
00000210: 7576 72bd 9901 2e3c 99ca d5bd 442a 90bd
00000220: 572c ebba c0b2 f73d e4b9 253e 0040 aebd
00000230: 8f4c 93bd 58fb c13d aa89 08bd 3e17 f93d
00000240: 5f85 f6bd fe06 55bd 4532 aebd 50e4 363c
00000250: 5df7 ef3d 2eea aebd 8643 f93d f00d f3bc
00000260: 00be 49bc cc0a c4bc d0bc 21bd 7840 03be
00000270: 5ec6 fd3d 90ea 8ebd 5cfa e1bc 5821 d53c
00000280: 40d8 a0bc 0a00 05be e12e 053e 001a 30bb
00000290: 989b 393d 0090 50b9 0029 053c e681 b7bd
000002a0: 0dbe 083e 8048 9fbd 8411 bbbc 20d6 e43c
000002b0: 9437 35bd 0036 833a 88c0 a6bd 00f4 efb9
000002c0: e8a8 f63c 683c 09bd 8cb2 1fbd 407f c2bb
000002d0: a8e5 5e3d b220 01be 726a 07be 88b5 d83d
000002e0: 3817 373d 1c1f e5bd 62b6 963d c8f4 8a3d
000002f0: 0c29 9d3d 5c14 413d 54aa bebd e3a1 0abe
00000300: 0cf5 f1bd f32f fabd 8a97 59bd e053 81bc
00000310: 942a 5c3d e039 bd3b 6cf8 85bd 1a7a 88bd
00000320: 2aeb 6f3d a99a f6bc c495 bdbc 8f25 bcbc
00000330: a1e3 f33c 36f4 913d cf44 dd3d 4760 c63d
00000340: 1c25 0a3d 9a75 83bd 3949 233e 0067 6a3d
00000350: 484b 843d 3afc 63bd c61e 89bc 7d8f 433d
00000360: 9af3 573c cb81 cb3d 3223 fe3d 61af c93d
00000370: 9486 0c3e f061 10bd d5cd 123e ea5b c53b
00000380: 5520 163e 0697 c9bd d781 3c3c 2155 80bd
00000390: fc7a a83d cc8a e2bc e1cb aabd 2ba6 01bd
000003a0: 8dfd a03d 8bf4 21bd 5321 efbd 90ba 04bc
000003b0: 9867 37bd 9d55 23be 1d5b 893d 4aa4 193e
000003c0: c884 4b3d 37cc 283e e14f 0a3e 0725 033e
000003d0: 7463 0ebe 7fdd 55bd d83d 29bc a09f fdbb
000003e0: 0a97 81bd b4f0 673c c33c c23c feac 71bc
000003f0: 80f2 1e3d b9b3 e9bd 5893 5bbd 1995 05be
0.040369302 0.078410834 0.100713685 -0.12851566 -0.06456386 -0.055479802 -0.10434041 -0.0021944046
0.1126702 0.12983753 -0.0046433657 -0.058856122 0.045262784 -0.072509356 0.013091058 -0.012715861
-0.13752684 -0.0681494 -0.080876246 0.10410577 -0.09469086 0.07516982 0.030997187 -0.12568182
-0.021098413 -0.048730187 -0.03557115 -0.08431855 0.1293089 -0.118624166 0.10356499 0.059877366
-0.045840785 -0.10897336 0.020770237 -0.0423617 0.11290227 -0.07525961 -0.09110947 -0.040575884
0.100818336 -0.130098 -0.12324546 -0.08908945 -0.107322656 0.11920257 0.10366979 -0.1391297
-0.055126682 0.043727666 0.013822943 0.09524256 0.05189286 0.0051823263 -0.11472638 -0.002946617
0.075950004 0.014037313 0.1071448 0.11305991 -0.04229191 0.12070103 0.06552841 -0.02133669
-0.1370283 0.13358755 -0.053728305 -0.022266855 -0.030339643 -0.13240917 0.015117531 0.013274029
-0.026556049 -0.039093707 0.031389438 -0.11141991 0.110751815 0.05944973 -0.10573203 -0.099448204
0.012992126 -0.06985667 0.040097833 -0.0086438535 -0.0462109 -0.022948422 0.12593745 -0.07651987
-0.049912415 -0.027113322 -0.02197124 0.08184594 -0.12072746 0.007229224 -0.03803716 -0.07038969
0.08068314 0.021971047 -0.07028458 -0.07287482 0.016397083 0.16427396 -0.022270426 -0.09000376
-0.15878585 -0.14735466 0.15094116 -0.024018807 0.06430414 0.13950269 0.08352489 -0.10298057
0.12672724 -0.017253473 0.07184441 0.039858606 -0.12939827 -0.04726812 0.060702994 0.0315701
-0.05025622 0.1228853 0.062699504 0.08025144 0.0074002985 0.08645609 -0.13205647 0.0022221447
0.14135636 -0.039320648 0.1303968 0.17126027 -0.059195 0.010620498 -0.10439033 -0.070393115
-0.0017942291 0.12094641 0.16184193 -0.08508301 -0.07192337 0.09471768 -0.03333441 0.12162636
-0.12037157 -0.05200862 -0.08505682 0.011162832 0.11717103 -0.0854076 0.12171082 -0.029669732
-0.012313366 -0.02393093 -0.039486706 -0.12817562 0.12391351 -0.06978333 -0.027585201 0.026016876
-0.019634366 -0.12988296 0.13006164 -0.0026870966 0.0453144 -0.0001989007 0.008127451 -0.08960323
0.13353749 -0.077775 -0.0228355 0.027934134 -0.044242457 0.00100106 -0.08142191 -0.00045767426
0.030109838 -0.033504874 -0.038988635 -0.0059355795 0.054418236 -0.12610129 -0.132242 0.10581499
0.044699878 -0.11187574 0.073590055 0.067849696 0.07673845 0.047138557 -0.09309831 -0.13538317
-0.11814317 -0.12216177 -0.053123035 -0.015787065 0.053751543 0.0057747215 -0.06541523 -0.06663914
0.05857388 -0.030103045 -0.023142703 -0.022967128 0.029771628 0.07126658 0.1080414 0.09686332
0.033726797 -0.06418915 0.15945901 0.057227135 0.06459671 -0.055660464 -0.016738307 0.047744263
0.013180638 0.099368654 0.12409057 0.09847904 0.13723212 -0.03524965 0.14336331 0.00602292
0.14660771 -0.098432586 0.011505566 -0.06266237 0.082265824 -0.027654074 -0.08339668 -0.03165261
0.07860861 -0.039539855 -0.11676278 -0.008101121 -0.04477653 -0.15950628 0.067068316 0.15004078
0.049687177 0.16484152 0.13507034 0.12807094 -0.13905126 -0.05221319 -0.010329686 -0.007739976
-0.063276365 0.014156509 0.023710614 -0.014750717 0.038805485 -0.114112325 -0.053607315 -0.13045157

16.bias f4 [50]
00000000: e2c0 a2bd 9e2c b9bd d0b3 57bc 46af 11bd
00000010: d5a3 d3bd 4d53 f3bd e62a f23c 7347 9f3c
00000020: aeaa e2bd 7e15 0fbe ba55 76bb 00e4 faba
00000030: a477 b5bd aafc 2ebd 362e 7a3d b886 2ebd
00000040: aac5 87bc f1f2 a03d 2af5 013c 3478 a2bc
00000050: 5066 e53c c7fb 31bd 300b 213e 1971 f4bd
00000060: 0e82 edbd 6200 69bc 1056 25bc dd0a 1d3d
00000070: 658d c6bd b45c 9e3d e1e4 e5ba 08a2 e9bd
00000080: 1656 b13d 7690 99bd d98e b43d 8779 01be
00000090: 14ee 793d 0474 a0bc f4e5 15bd e2da 75bd
000000a0: cd51 7d3d 3969 05be c823 bebd f25c 10be
000000b0: b528 04be cd7d efbd 78c2 663d 2c0b 4dbc
000000c0: e446 b33d 730e fdbc
-0.07946946 -0.09041713 -0.013165429 -0.035567544 -0.10333983 -0.11881123 0.029561471 0.01944325
-0.11067711 -0.13973042 -0.0037587718 -0.0019141436 -0.0886071 -0.042721428 0.061079226 -0.042608947
-0.016573746 0.078588374 0.007931987 -0.019832708 0.028002888 -0.043453004 0.15726924 -0.11935634
-0.115970716 -0.014221283 -0.01009132 0.03834044 -0.096949376 0.077325255 -0.0017539525 -0.11407858
0.08658998 -0.07498257 0.088163085 -0.12644015 0.061018065 -0.01958657 -0.036596254 -0.060023196
0.06184559 -0.1302842 -0.092841685 -0.14097956 -0.12906154 -0.116939165 0.056337804 -0.012514871
0.08753756 -0.030890679

16.weight f4 [50, 50]
00000000: 5788 0dbe 7e4c b63d a4fe acbb 06ff a73d
00000010: 716c b03d ac0e 583c 22d3 c23d 2b5e 173e
00000020: a9ae 5a3d aa90 b83d 2d01 cf3d 4c29 ed3c
00000030: 4609 dabd 4759 093e 865d c1bd 459d 463d
00000040: de77 d63d 1725 913d e2e6 263d 1f98 3b3d
00000050: 3a4c ee3d 8f03 5cbb ca63 5cbc d95f f0bd
00000060: f703 0a3e 5795 143e 8e54 013b 1324 fbbd
00000070: fe2a ccbd 9747 18be 4a07 26bd 3899 1d3d
00000080: 2b29 b4bd ae28 513d 14e9 ab3d 2287 cebd
00000090: 2782 b13d f4f8 0abe 5f74 b53d da46 283d
000000a0: 5a6d 8f3c 72be 173d 8b58 f3bd 6409 e03c
000000b0: 83f2 7b3d 2929 d33d 7061 323d 0b2f b33d
000000c0: 288a dd3b d0d2 56bd 681d b93c 11d2 94bb
000000d0: 02b2 953d 3042 a03c 8bd5 943d 3867 d2bd
000000e0: cf17 013e 40f7 fbbc cda8 23bd 300c 5b3d
000000f0: af51 fbbd 91eb de3b 2287 ffbc 3db6 063e
00000100: 4a7f 48bd 5097 013d 4c07 423d 225f 27be
00000110: 8d17 78bc a59e 843d 02fc 7bbd 29b8 bcbd
00000120: fb3c c13d c4df ee3c e024 503c ecbb 1a3e
00000130: cb6b 4fbd 9a1b 0f3e 00fb 7f3a 403c dc3c
00000140: f238 ddbd 5450 333d 1a41 453d b9c5 95bc
00000150: 1a15 6f3b c750 153e 1503 f9bd 577c cbbd
00000160: 0f26 9c3d 9601 f13d 7633 26bd 84de 85bd
00000170: c113 c9bd b821 ed3d f4b3 573d 12b1 bdbd
00000180: 40f4 3f3b 6c73 c43d e9ac 9d3c 6de2 81bd
00000190: 863d 2abd 403c dc3c 68d8 9ebd d4e8 b6bc
000001a0: 5433 afbd 4671 f7bd b013 933d 1031 9c3d
000001b0: 0476 f7bd e481 b63d bc11 413d 0fc7 083e
000001c0: 90d2 f6bd e69e 953d 5089 263d ec10 a13d
000001d0: 04b8 d83d 2e43 45bd 00b6 ddba 404b 1abc
000001e0: 44dd 693d a8af 19bd ea99 fc3d c470 8bbd
000001f0: 3245 ddbd 4e75 c43d 985d 313d a4ba b5bc
00000200: 9c1e 5d3d 566c eb3d e0ee db3b 2c0e acbd
00000210: 1885 8ebd 60bf b73b dc2c ca3d e4bb 3a3d
00000220: 904b 7b3d b06f c2bc 0e80 f73d 542f 19bd
00000230: 0011 ad3d 3cf1 9d3d fc1d d8bc 6625 98bd
00000240: f3f5 8ebd 80e8 f13a da62 a83d 1490 6b3d
00000250: 3081 44bc 7ce3 d7bd 7a4e 823d 405c cb3d
00000260: 3654 f4bd d059 083d cabd aebd 28fc a53c
00000270: c02a 4f3d f013 913d 7ec3 6bbd bde3 093e
00000280: 686c b93d 7e2f de3d aaf5 f2bd 90e6 483c
00000290: 3076 713d ac83 a03d 40c6 933c 726f 0fbe
000002a0: ccb2 c6bc a08a af3c 6c26 6d3d e426 113d
000002b0: 506a 53bd acbd fabd 2857 043d 0c11 3f3d
000002c0: 5a40 a03d 169c a3bd 5d76 ecbd 30cc 033c
000002d0: 7d74 d7bd f08f ddbc 2804 1fbd cc20 103d
000002e0: fec7 eb3d 3ab3 09be aa8e 903d 7996 01be
000002f0: 7281 10bd 980b fa3c bcb5 dc3d f08a 773c
00000300: 1760 0a3e 7eff d4bd 8063 c0bb d7b7 06be
00000310: 800b 80bb 24c6 8abd 4057 bdbd 4e39 1ebd
00000320: fcf2 d6bd 544f 2b3d 8ce1 a4bc 88bb d53d
00000330: 3ef0 f4bd 59a8 ebbd 37e6 8fbd 12da c73d
00000340: 6486 6d3d 7069 663c 58b6 fcbd 00c3 163c
00000350: 58a6 bfbd 5a21 acbd db61 a1bd d2fb cd3d
00000360: ba2f b4bd 90e0 50bd dc83 aabc 6e1b 80bd
00000370: b218 d6bd 94b7 34bd 5081 843d ba38 04be
00000380: 1827 83bc e870 973d 22c1 2abd 4038 5e3c
00000390: c8d7 ddbd 7011 c5bd a283 bdbd f896 ddbc
000003a0: 4458 4e3d 2217 c4bd 7802 0bbe d49e 34bd
000003b0: 6033 95bb 56a1 cebd 26ef 68bd 0874 5d3d
000003c0: ea2a 4abd 4c27 953d 5ca1 833d 6c6e f3bc
000003d0: 4031 023d 13da eabd 5e77 d7bd 6aac 2fbd
000003e0: a8ea dd3d dead f63d acfc 383d 3850 ac3d
000003f0: 65cf acbd c471 c6bc cb8a c6bd 1095 31bd
-0.13821541 0.089013085 -0.005279379 0.08202939 0.086144336 0.013187092 0.09512927 0.14782016
0.053389225 0.090119675 0.10107646 0.028950356 -0.106463 0.13412963 -0.09441666 0.048489828
0.104720816 0.070871525 0.04074753 0.04579937 0.11635633 -0.0033571457 -0.013451526 -0.117370315
0.13478075 0.14510094 0.0019734236 -0.1226274 -0.099691376 -0.1487106 -0.040534295 0.0384762
-0.08796915 0.051064186 0.083940655 -0.10084368 0.08667403 -0.1357153 0.08860087 0.041083194
0.017508198 0.037046857 -0.118821226 0.027348228 0.061510574 0.10310585 0.043549955 0.08749207
0.0067608543 -0.05244714 0.02259703 -0.0045416434 0.07309343 0.01956281 0.072672926 -0.10273594
0.12606739 -0.030757546 -0.039955903 0.05347842 -0.12271439 0.006802984 -0.031192366 0.13155456
-0.048949517 0.031638443 0.04737024 -0.16344884 -0.015142334 0.064755715 -0.06151963 -0.09214813
0.09435459 0.029159434 0.012704104 0.15110749 -0.05063991 0.13975373 0.000976488 0.026884198
-0.10801877 0.04377778 0.04815779 -0.018282758 0.0036481083 0.14581595 -0.12158791 -0.09935825
0.076244466 0.117678806 -0.04057642 -0.06536582 -0.09818221 0.11578697 0.05266185 -0.09262289
0.0029289871 0.095923275 0.019247489 -0.063420154 -0.04156258 0.026884198 -0.0775612 -0.022327818
-0.08554712 -0.12082152 0.071814895 0.076265454 -0.120830566 0.089114934 0.047136053 0.13357185
-0.1205188 0.07305698 0.040658295 0.07864556 0.10581973 -0.04815977 -0.0016915202 -0.009417355
0.05709578 -0.037521034 0.12334044 -0.06808618 -0.108042136 0.095926866 0.04330215 -0.022183724
0.05398427 0.11495273 0.0067118257 -0.084011406 -0.06958979 0.0056075305 0.098718375 0.045589343
0.06135136 -0.023734897 0.12084971 -0.03739865 0.08450508 0.077120274 -0.026381485 -0.07429008
-0.06980505 0.0018456131 0.082219794 0.05751045 -0.011993691 -0.10541436 0.063626245 0.09929705
-0.119301245 0.033288777 -0.08532293 0.020261839 0.05057788 0.07083881 -0.057559483 0.13465782
0.0905388 0.10848902 -0.11863263 0.012262002 0.058950603 0.078376144 0.018038869 -0.14007357
-0.024255179 0.021428406 0.05789797 0.03543748 -0.05161506 -0.12243208 0.03230968 0.046647117
0.07824774 -0.079887554 -0.115460135 0.008044288 -0.10520265 -0.027046174 -0.038822323 0.035187528
0.11512755 -0.13447276 0.07058461 -0.12655057 -0.0352797 0.030523106 0.107768506 0.015108809
0.13513218 -0.10400294 -0.0058712363 -0.13156067 -0.003907621 -0.067760736 -0.09245157 -0.03862887
-0.10495564 0.0418237 -0.02012708 0.10436159 -0.11959885 -0.11506719 -0.07026332 0.097583905
0.057989493 0.014063224 -0.12339467 0.009201765 -0.093578994 -0.08404799 -0.078799926 0.100577965
-0.087981656 -0.05099541 -0.020814829 -0.06255232 -0.10453929 -0.044120386 0.06469977 -0.12912264
-0.016009852 0.07394582 -0.041688092 0.013563216 -0.10832173 -0.096224666 -0.092536226 -0.027049527
0.050377145 -0.09574725 -0.1357516 -0.044096783 -0.0045532435 -0.10089366 -0.056868695 0.054065734
-0.049357332 0.07282886 0.06427261 -0.02971574 0.03178525 -0.114673756 -0.10520814 -0.042889036
0.10835773 0.12044881 0.04516284 0.08413738 -0.08437995 -0.02422417 -0.096944414 -0.043355048

18.bias f4 [10]
00000000: e7e2 853d 6460 da3d 13ec 083e 12d1 f7bd
00000010: 623e 853d a370 913c 594b 3d3e 9fe9 87bb
00000020: ba2d b1bd f15a 8cbd
0.06537419 0.10662916 0.13371305 -0.12100424 0.06506039 0.017753905 0.18485774 -0.004147723
-0.086513 -0.06853283

18.weight f4 [10, 50]
00000000: 76e7 223e 6228 58bb c1d9 adbd acc5 fbbd
00000010: f08b 37bd 3ea5 0dbe b8c0 f8bc 3376 2d3e
00000020: a2ea 0cbe 478d 1a3e d3ab 8abd 04a8 7d3d
00000030: f2f3 a63c 7846 ca3d 810a fd3c 76d7 d93d
00000040: df29 163e 756f 95bc fb75 203d e657 0ebd
00000050: 6c2d ad3d e930 adbd df6c 1a3d 3ad9 bfbd
00000060: 6e7e fb3c f90e 213e 9054 0abd a2a2 f73d
00000070: a886 e43d e871 8bbd bba4 99bd cd11 b43d
00000080: 02d1 c3bd 0e2c 64bd b453 fabd 27a4 1b3d
00000090: 73bb 3bbd 4079 a83c 0f34 47bd 2b53 babd
000000a0: aa09 05be b2c3 a93d 68d7 d2bc a0fa de3c
000000b0: e30c aebd de50 23bc 9e46 67bd 2091 6d3d
000000c0: bdd4 3fbd 5ba9 00be 3218 fcbd d9f7 e0bc
000000d0: 9803 6f3d 66e3 843d 7c27 71bd f214 973d
000000e0: 114c 853d 460e ad3c 4fdd 053e 165f 2bbd
000000f0: 5c25 ee3d 7027 f13c 0cba 943d 6ebf f13d
00000100: 7c8d 863d c477 bbbd 8bcf 03bd 8ecb 243d
00000110: 029d c53d 4d81 90bd 4e7a 78bd 048b ffbd
00000120: c512 79bc e251 f63d c527 29bd cb77 793d
00000130: 1a08 b9bd 7ab6 ffb9 9f0a 4ebd f44d 1abd
00000140: 866a 91bd a44e 32be 8f7d d13d a5a8 abbd
00000150: 4708 ac3d b5bc d43c aa4a 8f3d 986b e83c
00000160: 971f 303e 1f76 eb3d ecfa a43d 408b ec3c
00000170: b61e ddbd 75cc f7bd d7cf 12bd ee41 003c
00000180: 1928 033e 0df5 d8bd 1ede 133d 705a 10bc
00000190: 0f0c 553c a30c bf3d 600e 3ebc 5efc cc3d
000001a0: 5027 743d 84b8 44bd d338 1b3d a395 9fbd
000001b0: 4da2 f63d 5675 0ebe bfc0 f1bd a8b4 b23d
000001c0: 4f4a 3dbe 9f26 e8bd 8aeb cbbd f8de a13d
000001d0: 559c a33d 7d7c afbd 9649 bebd eee7 f83d
000001e0: 2ab3 d6bd a4c6 d23d 02f6 c13c 381a febc
000001f0: 091a 183d f278 9fbd 3bfd 073e f32d bc3d
00000200: 4804 cd3c 21ec 5a3d 89d7 953b da21 7ebd
00000210: 088d be3d d917 6abd c6e1 3abd e1e1 24be
00000220: 08ba febc 4cf2 c23d fbd7 a63d 8c91 77bc
00000230: 3916 0cbd f423 443d 3554 eebd 9c9c c9bd
00000240: 8557 bfbd af46 1e3d 40f3 99bd 4936 0bbe
00000250: e0eb 85bd 3eb4 cabd cdc6 c13d 3ec7 e6bd
00000260: bc40 633d 9c9f 413d 7498 d5bd 1cdc 133d
00000270: c976 bc3d 6207 933d 7977 063e 733d ad3c
00000280: 7e17 fb3d 2e6f a93d 5a61 01be a2d3 0ebe
00000290: 8928 d4bd b809 e23c f6c2 9bbd 1263 903d
000002a0: d314 1cbb d405 2f3d 248d 743d 46fb a8bd
000002b0: e70e 953d c0a6 1a3c 389c 80bd c38c 043e
000002c0: c8a8 b13c 1cdd 443d 1f6d 173d 44be e6bd
000002d0: d688 1c3d 8660 8a3d da29 09be c5da 2f3c
000002e0: a268 63bc 7864 1ebc c331 17be f0e9 de3c
000002f0: 9025 163e 87d8 5bbc 54bc f3bd c288 fa3d
00000300: a6d8 ff3d e54c 713d 768d 93bd 05cd fb3d
00000310: ffc6 dc3d 1409 fd3c f2ec d2bd c648 293d
00000320: 3c27 163e d7df e2bd d09e 9a3d d0c5 abbd
00000330: a014 603d 9b9c 8cbd 533e cfbd 28b5 1dbe
00000340: 31f5 ebbd abf5 e93d 6276 e53d 6836 88bc
00000350: 68a7 0abd c781 f1bd c6ec 093e d4d3 ffbd
00000360: 4d2a 0d3e 7a08 9d3d a0f5 e5bd 477f bbbd
00000370: e6ec 2fbb b628 05be 48e0 9dbd d1e8 0ebe
00000380: da41 e2bd 67c5 703d 226e 2cbd 5cd8 78bc
00000390: 58c8 81bc a260 913d d1db a93d 0d35 21bd
000003a0: 6dd9 f43d 3cfc 143e 56e6 05be 8c9f 043e
000003b0: 80d6 1b3b e0cb 2b3c 9f1b ddbd 07ab da3d
000003c0: d7fb 3abb e19c b0bd e895 0cbe a4cb f33d
000003d0: 5507 acbc 1af6 44bd fab0 0aba 744e 893c
000003e0: 4003 2a3d ea54 ab3d 6f41 8dbd 3e0c 2d3d
000003f0: c7a6 9bbd c2a9 c1bd 55d2 023e 7825 5a3d
0.15908608 -0.0032983054 -0.08488799 -0.12293562 -0.04481119 -0.13832566 -0.030365333 0.1693962
-0.1376138 0.15092956 -0.06771054 0.06192781 0.020379994 0.09876722 0.030888798 0.10636799
0.1466441 -0.018241623 0.039175015 -0.034751795 0.08455929 -0.084565945 0.037701484 -0.093676046
0.030699935 0.15728368 -0.03377205 0.120915666 0.11158496 -0.06808835 -0.07502123 0.08792458
-0.095613495 -0.055706076 -0.12222996 0.037998345 -0.045833062 0.020565629 -0.04863363 -0.09097894
-0.12991968 0.08289279 -0.02573748 0.027219117 -0.08498552 -0.009968011 -0.05646383 0.05799973
-0.046833742 -0.12564604 -0.123093024 -0.027461933 0.058353037 0.06488685 -0.058875546 0.07377042
0.06508649 0.02112497 0.13072704 -0.041838728 0.116282195 0.02943775 0.07262048 0.118040904
0.06569955 -0.09153703 -0.03218035 0.040233187 0.096490875 -0.07055912 -0.060663514 -0.12477687
-0.015202229 0.12027337 -0.041297693 0.06090526 -0.090347484 -0.00048773346 -0.050303098 -0.037672
-0.07100396 -0.17412812 0.102290265 -0.08381776 0.08400016 0.025968889 0.06996663 0.028371617
0.1719955 0.11497139 0.08055672 0.028874993 -0.10796873 -0.12099544 -0.035842743 0.007828219
0.12808265 -0.10593615 0.0361005 -0.0088106245 0.013003363 0.09328582 -0.011600107 0.10009073
0.059607804 -0.04802753 0.03789599 -0.07792213 0.12042675 -0.13911948 -0.118043415 0.08725864
-0.18485378 -0.113354914 -0.09957035 0.07903856 0.07988802 -0.08568666 -0.09291379 0.12153612
-0.104833916 0.10291794 0.023676876 -0.031018361 0.037134204 -0.0778674 0.13280194 0.091884516
0.025026456 0.053447846 0.004572813 -0.062044002 0.09304243 -0.05715165 -0.04562547 -0.16101791
-0.031094566 0.09518871 0.08146664 -0.015110385 -0.03420088 0.04788585 -0.11637155 -0.09844324
-0.09342865 0.038641628 -0.075170994 -0.13594927 -0.0653913 -0.0989766 0.09461746 -0.11268471
0.055481657 0.047271356 -0.10429469 0.036098585 0.09202344 0.071791425 0.13131513 0.021147465
0.1226034 0.08273159 -0.12634793 -0.13947919 -0.10359294 0.027592525 -0.07605545 0.07050146
-0.0023816123 0.042730168 0.059704915 -0.082510516 0.07278233 0.00943917 -0.06279796 0.12944321
0.021686926 0.04806243 0.0369693 -0.11266759 0.038216434 0.06756692 -0.13394871 0.010733311
-0.013879927 -0.009667508 -0.14765076 0.02721116 0.14662766 -0.013418323 -0.11901155 0.12233116
0.12492494 0.058911223 -0.07204716 0.12294964 0.10780143 0.030888118 -0.102991 0.041329168
0.14663404 -0.1107785 0.07549822 -0.08387339 0.05470717 -0.068658076 -0.10119309 -0.15401137
-0.11521376 0.114238106 0.1120422 -0.016627505 -0.033851057 -0.11792331 0.13469228 -0.12491575
0.13785668 0.076676324 -0.1122849 -0.091551356 -0.0026844083 -0.13003811 -0.07708794 -0.13956
-0.110477164 0.058782008 -0.04209722 -0.015188303 -0.015842602 0.07098509 0.0829388 -0.039357234
0.11955533 0.14549345 -0.13076147 0.12951487 0.0023778975 0.010485619 -0.10796284 0.10677152
-0.0028531456 -0.08623672 -0.1372906 0.11904076 -0.02099959 -0.048086263 -0.0005290654 0.016761042
0.041507006 0.083658054 -0.06897246 0.042248003 -0.0760017 -0.09456207 0.12775548 0.05325839

2.bias f4 [50]
00000000: 472d 9a3d 6138 afbd facd c93d 623b 153c
00000010: eb53 f93d 9d1a ce3d ef97 863d f73d 9fbd
00000020: 0108 6ebd 2a72 0a3d 7173 2c3e 861e 1ebd
00000030: 30c0 c7bc 6497 0bbd a107 123e 2ce8 f13d
00000040: 2bde 8cbd bbb2 b8bd 18d6 423d 2099 f63d
00000050: b868 c63d 3f73 3ebd 69e5 a7bb fe69 98bc
00000060: f0e3 5b3c 9156 96bc 32c1 f83d 1cd5 543d
00000070: 64ed a03d 5b54 173c 0c3c ddbd b820 e73d
00000080: b428 213e 297f 013e 6d18 2b3e 3b07 1e3e
00000090: c862 4e3c 041a 22bd 35d5 40bd 928a 92bd
000000a0: 7a11 bbbd adde 19bd df05 d73d ff4c db3d
000000b0: 18dd a5bd 05c3 47bc cc62 2e3c 9724 41bd
000000c0: 3afb b5bc 4bc7 213e
0.07528167 -0.08555675 0.0985374 0.009108396 0.12174209 0.1006367 0.06571948 -0.07775491
-0.058113102 0.03380028 0.16840912 -0.03860333 -0.024383634 -0.034079924 0.14260723 0.118118614
-0.06878313 -0.09018465 0.047567457 0.12040925 0.09687942 -0.046496626 -0.0051237834 -0.018605229
0.013421044 -0.018351825 0.12146224 0.05196105 0.07857779 0.0092364205 -0.10802469 0.112855375
0.15738183 0.12646164 0.16708536 0.15432446 0.0125967935 -0.03957559 -0.04707833 -0.071553364
-0.09134193 -0.037565876 0.10499167 0.10708045 -0.08098811 -0.012192492 0.010643672 -0.047154035
-0.02221452 0.1579868
