Linear_8.onnx (onnx, 105481 bytes, 20 tensors)

0.bias f4 [50]
0	0x3deca20b	0.11554345
1	0x3cce8a03	0.025212293
2	0xbc33e4dd	-0.010979858
3	0x3e06eb58	0.13175714
4	0xbc132e08	-0.008983143
5	0x3e1c8b90	0.15287614
6	0xbc51f27a	-0.012814159
7	0x3de5a365	0.11212806
8	0x3cfa3eb3	0.030547475
9	0x3e01e8eb	0.12686507
10	0x3e1238be	0.14279458
11	0x3b5b98c5	0.0033507806
12	0x3d4353cd	0.04768734
13	0xbdb6d0ab	-0.08926519
14	0x3c99ef07	0.018790735
15	0x3dfbcdf0	0.12295139
16	0x3d5e29f1	0.054239217
17	0xbb90b5a5	-0.004416185
18	0x3c95609a	0.01823454
19	0x3d5981b3	0.053102206
20	0xbda3178d	-0.07963476
21	0xbda9096d	-0.08253751
22	0xbcca7609	-0.024714487
23	0x3d283121	0.041062478
24	0x3d84c579	0.064829774
25	0xbd0c4a36	-0.03425046
26	0x3e2990f9	0.16559209
27	0xbca95f68	-0.020675376
28	0x3d8a38e9	0.06749136
29	0x3dfd1dcb	0.12359198
30	0x3d656c36	0.0560114
31	0x3e16175c	0.14657348
32	0x3ded026c	0.115727276
33	0x3d96fd80	0.0737257
34	0x3e16ee90	0.14739442
35	0x3e0c1948	0.13681519
36	0x3e0dff82	0.13867
37	0x3d8a8cd1	0.0676514
38	0x3c763704	0.015027765
39	0x3dd4ae4a	0.103848055
40	0x3e0e6132	0.13904265
41	0x3b9111ba	0.004427162
42	0xbcdcdaf6	-0.026959877
43	0xbbbfc728	-0.0058525987
44	0x3c93a3e5	0.018022487
45	0x3e054cce	0.1301758
46	0x3df3e914	0.119096905
47	0x3cf84619	0.030306863
48	0x3d9bb223	0.07602336
49	0x3dafe0b6	0.08587782

0.weight f4 [50, 100]
0	0x3d9a31cc	0.07529029
1	0xbd90da33	-0.07072868
2	0xbdf1f147	-0.11813598
3	0xbe0e7eb9	-0.13915528
4	0x3d9f9178	0.07791418
5	0xbd26b084	-0.040695682
6	0xbd861c0d	-0.06548319
7	0x3da76c4e	0.08174954
8	0x3be4f894	0.0069876406
9	0xbe0c4a6c	-0.13700265
10	0x3d1688cb	0.03675155
11	0xbe0f37d7	-0.13986145
12	0x3cf42ec7	0.029807461
13	0x3e021311	0.12702586
14	0xbe012ed2	-0.12615517
15	0xbdbe7b12	-0.093008175
16	0xbc59b4b3	-0.013287711
17	0x3d630b21	0.055430535
18	0x3c917c91	0.017759593
19	0xbdfc3ec0	-0.12316656
20	0x3dba25a2	0.09089209
21	0xbd8291d5	-0.063754715
22	0x3e06ee65	0.13176878
23	0x3de72114	0.11285606
24	0xbe050e0b	-0.12993638
25	0x3dc0d0a3	0.09414794
26	0xbd523f4b	-0.051329892
27	0x3e164cad	0.14677687
28	0x3c81b179	0.015831696
29	0x3d83d19f	0.064364664
30	0xbd362f27	-0.04447856
31	0x3e108285	0.14112289
32	0x3ca7e3f1	0.020494433
33	0x3db48371	0.08814133
34	0x3c8e34a1	0.01735908
35	0xbe06751d	-0.13130613
36	0x3e05e74c	0.13076514
37	0xbca0676c	-0.019580565
38	0xbd9e1377	-0.077185564
39	0x3b3c11ca	0.0028697127
40	0x3e0c7e13	0.13719968
41	0x3dec2a26	0.11531477
42	0x3dd45cfe	0.10369299
43	0xbe05ba9f	-0.13059472
44	0x3c223a54	0.009901602
45	0x3cce9b01	0.025220396
46	0x3b08c197	0.0020867342
47	0xbcd08571	-0.025454255
48	0x3e024703	0.12722401
49	0x3b9ef20c	0.0048506316
50	0x3c446248	0.011986323
51	0x3e03915f	0.12848423
52	0xbc112a4a	-0.00886018
53	0x3e188cc5	0.1489745
54	0x3d9f64be	0.07782887
55	0x3ddedb8a	0.108817175
56	0xbca84e48	-0.02054514
57	0xbd47bb20	-0.04876244
58	0x3dddd907	0.1083241
59	0xbe0df354	-0.13862354
60	0x3d57298b	0.052529853
61	0xbd0ae47f	-0.033909317
62	0x3d698d14	0.05701931
63	0x3dac7687	0.08421045
64	0x3cd23223	0.025658673
65	0xbd229507	-0.039692905
66	0x3ca4d86f	0.020122735
67	0xbc91748f	-0.017755775
68	0xbe0888bd	-0.13333412
69	0x3c1dee5e	0.009639351
70	0xbd25c453	-0.040470432
71	0x3d569c81	0.052395348
72	0x3df23ec2	0.11828376
73	0xbda547e7	-0.08070355
74	0xbce2da56	-0.027692001
75	0x3d9cae3c	0.0765042
76	0xbdaaa28d	-0.08331785
77	0xbe0c3f8f	-0.1369612
78	0xbc8c50cc	-0.01712837
79	0xbe1629c4	-0.1466437
80	0xbd8b37d5	-0.067977585
81	0xbcace453	-0.021104967
82	0xbd97de8d	-0.07415495
83	0xbd1c71c1	-0.03819442
84	0xbd24290e	-0.040078215
85	0x3d238a2d	0.039926697
86	0xbd86f672	-0.065899745
87	0x3e0cbbff	0.1374359
88	0xbc505b7e	-0.012717126
89	0xbcaa885a	-0.02081697
90	0xbcf01436	-0.029306512
91	0x3de42454	0.111397415
92	0x3dd546f3	0.10413923
93	0xbca9a548	-0.020708695
94	0xbe0a65fa	-0.13515463
95	0x3de1049a	0.10987206
96	0x3d0ef24b	0.034899037
97	0x3db4e89c	0.08833429
98	0x3c9f4644	0.019442685
99	0x3b57e6c6	0.0032943948
100	0xb9d2e472	-0.00040224526
101	0xbe1a60ee	-0.15076038
102	0xbe1fd7c7	-0.15609656
103	0x3d34aaaa	0.04410807
104	0xbe1c6a22	-0.15274861
105	0x3d9c5c63	0.07634809
106	0x3d4178af	0.047234233
107	0xbd20e529	-0.039281044
108	0x3d73d2f4	0.059527352
109	0x3d507e7d	0.05090188
110	0xbd810cce	-0.063012704
111	0xbae9f6d3	-0.0017850049
112	0x3de86e8c	0.1134921
113	0xbcb1a675	-0.021685818
114	0xbbfed675	-0.00777703
115	0x3ca11c7b	0.0196669
116	0x3d0d48b4	0.034493163
117	0x3d74328f	0.05961853
118	0xbd537820	-0.051628232
119	0x3d2405dd	0.040044654
120	0xbda56445	-0.080757655
121	0x3ccfb377	0.02535413
122	0x3c23568a	0.009969363
123	0xbde18e3b	-0.110134564
124	0x3b5e3869	0.0033908135
125	0xbe1f7029	-0.1557013
126	0xbe0dac3c	-0.13835233
127	0xbe1a6e14	-0.15081054
128	0xbd96702a	-0.07345612
129	0xbc8444eb	-0.016146144
130	0x3cc3577d	0.023845429
131	0xbd768896	-0.060188852
132	0x3c99841c	0.018739752
133	0x3d10298f	0.035195883
134	0xbd0784b1	-0.03308553
135	0xbbee4292	-0.0072711194
136	0x3de6f38c	0.11276922
137	0x3d1b9142	0.037980326
138	0xbcc2d18a	-0.023781557
139	0xbd6d3f2f	-0.057921585
140	0x3dfadfad	0.12249694
141	0xbd3a07b5	-0.045417506
142	0xbdfbdceb	-0.12297996
143	0xbcb0c583	-0.021578556
144	0x3d1044c9	0.03522185
145	0x3d625bd9	0.055263374
146	0x3b884d49	0.0041596037
147	0xbbad4789	-0.0052880687
148	0xbcad1798	-0.021129414
149	0x3dc9962f	0.09843098
150	0xbcd18a05	-0.025578508
151	0x3d3b0b1a	0.045664884
152	0x3ddb34ac	0.10703406
153	0x3d4df637	0.050283637
154	0x3ba95d35	0.005168582
155	0xbd35a276	-0.044344388
156	0xbdd3fd6b	-0.1035107
157	0x3d97acd1	0.07406009
158	0x3e29c386	0.16578493
159	0x3e21b113	0.15790205
160	0xbc2564dc	-0.0100948475
161	0x3d926403	0.07147982
162	0xbe119377	-0.1421641
163	0x3d2d76bc	0.042349562
164	0xbd00af79	-0.031417344
165	0xbdad8e2b	-0.08474382
166	0x3d559ff3	0.052154493
167	0xbe1c0aed	-0.15238543
168	0x3d95c515	0.07312981
169	0x3c1b0315	0.009461184
170	0x3d6aa500	0.057286263
171	0x3e14cf05	0.14532097
172	0xbc7a0928	-0.015260972
173	0xb965b7e0	-0.0002190764
174	0xbd73d735	-0.05953141
175	0xbe209067	-0.15680085
176	0xbdff5eef	-0.12469279
177	0xbcdde886	-0.027088415
178	0x3c5f5cf3	0.013633001
179	0x3da944b3	0.082650565
180	0x3de579ae	0.11204849
181	0x3deac452	0.114632264
182	0xbdeff0ce	-0.11715852
183	0x3ddc1099	0.10745353
184	0x3dd38bff	0.103294365
185	0xbdd1e5ba	-0.10248895
186	0xbc38ffb6	-0.011291435
187	0xba80a693	-0.0009815268
188	0xbbbb5609	-0.0057170433
189	0x3d5ccae1	0.053904418
190	0x3cd952f2	0.02652881
191	0xbd0897cf	-0.0333479
192	0x3c2029af	0.009775563
193	0xbe0da39e	-0.13831946
194	0xbd7ad05c	-0.061233863
195	0x3d9c033c	0.076178044
196	0xbc49898e	-0.012300862
197	0xbdbb954e	-0.09159337
198	0xbd318f0f	-0.043349322
199	0x3bab7e07	0.0052335295
200	0xbba3e615	-0.005001793
201	0x3c74cad0	0.014940932
202	0x3d2720fe	0.04080295
203	0xbe106348	-0.14100373
204	0xbd3e8ef3	-0.046523046
205	0x3d29f27c	0.041491017
206	0xbdf240a4	-0.118287355
207	0xbcc8ebdb	-0.024526527
208	0x3cf38501	0.029726507
209	0x3e0d29ba	0.13785449
210	0x3d8f8d72	0.070094004
211	0xbe072450	-0.13197446
212	0xbe04ea31	-0.12979962
213	0xbc99d670	-0.01877901
214	0x3c0127f9	0.007883065
215	0xbba556ab	-0.005045732
216	0xbd077421	-0.033069734
217	0xbd349867	-0.044090655
218	0x3dd024e8	0.10163289
219	0x3d441316	0.047869764
220	0xbcf808c4	-0.030277617
221	0x3d9df644	0.07712987
222	0xbdbf170c	-0.09330568
223	0x3d93a49c	0.07209131
224	0x3d567219	0.052354906
225	0xbcd33ffe	-0.02578735
226	0xbdaca2cb	-0.08429488
227	0xbe11c761	-0.14236213
228	0x3c9661d4	0.018357195
229	0xbdcb3cc7	-0.09923702
230	0xbd85c603	-0.06531908
231	0x3babf2f7	0.0052474695
232	0xbc2b3d85	-0.010451679
233	0x3b537d72	0.0032270816
234	0x3c8d1dcb	0.01722612
235	0x3d1c060f	0.038091715
236	0x3dd1f85a	0.102524474
237	0x3d4c6d45	0.049908895
238	0xbdb07657	-0.086163215
239	0x3d4788ef	0.048714574
240	0x3b308e80	0.0026940405
241	0xbcb73f4f	-0.022369055
242	0xbcad422b	-0.021149715
243	0x3df0b3c6	0.11753039
244	0xbcb47838	-0.022029981
245	0xbdce78bd	-0.10081623
246	0x3cf8ddaf	0.030379144
247	0x3d0399b5	0.03212901
248	0xbd7bed24	-0.06150545
249	0xbda7d0e3	-0.08194139
250	0x3dfcf196	0.12350766
251	0x3dfb7715	0.122785725
252	0xbd9598aa	-0.07304509
253	0x3d0b4cb2	0.03400869
254	0x3dae88f9	0.08522219
255	0x3b525e50	0.0032099672

10.bias f4 [50]
0	0x3db705d8	0.089366615
1	0x3ba9a087	0.005176607
2	0x3de02abc	0.10945651
3	0xbe05d034	-0.13067704
4	0xbd80f8c0	-0.06297445
5	0x3e01ed67	0.12688218
6	0x3d55ea0d	0.05222516
7	0xbd27a515	-0.04092892
8	0xbe0935ee	-0.13399479
9	0xbd107934	-0.03527184
10	0x3d738944	0.05945708
11	0x3b850696	0.004059623
12	0x3deff889	0.11717326
13	0x3ce7f158	0.028313324
14	0x3e07c828	0.13259947
15	0x3e0a0084	0.13476759
16	0x3d08de2c	0.033415005
17	0xbd819d67	-0.0632885
18	0xbdeef774	-0.11668292
19	0x3e06b430	0.13154674
20	0x3de0b53f	0.1097207
21	0xbde613fa	-0.11234279
22	0x3dacb734	0.08433381
23	0xbd852b32	-0.065023795
24	0x3dcb1c5c	0.099175185
25	0x3dcf2f95	0.101164974
26	0x3e2139c5	0.15744694
27	0x3cb41473	0.021982407
28	0x3e0d3587	0.1378995
29	0xbda3e13e	-0.08001946
30	0x3e0eadca	0.13933483
31	0xbe0c7047	-0.13714705
32	0x3c18a7d2	0.009317355
33	0xbde7f1fd	-0.113254525
34	0x3b39de87	0.0028361396
35	0x3e0acf07	0.13555537
36	0x3db1c238	0.086796224
37	0x3de9a3b8	0.1140818
38	0x3dadf24b	0.08493479
39	0x3e124848	0.14285386
40	0xbb79978f	-0.003808472
41	0x3dbed183	0.09317305
42	0xbdac4708	-0.08411986
43	0xbd124c20	-0.03571713
44	0x3d2a1f03	0.04153348
45	0x3e276076	0.1634539
46	0xbdb9371c	-0.090437144
47	0xbc5cdc2f	-0.01348023
48	0xbc908e9f	-0.017646132
49	0x3dbf8985	0.09352402

10.weight f4 [50, 50]
0	0x3d8f60ff	0.070009224
1	0x3db74454	0.089485794
2	0xbdc6509f	-0.09683346
3	0xbe14f8f1	-0.14548089
4	0xbd9118e7	-0.07084828
5	0xbd9752d7	-0.07388847
6	0xbd6ad9e2	-0.057336695
7	0x3ba852ce	0.005136824
8	0x3dd14cb4	0.10219708
9	0x3b02ac43	0.0019939102
10	0x3da6f732	0.081526175
11	0x3e529936	0.20566258
12	0x3df2a4c0	0.1184783
13	0x3df6528e	0.12027465
14	0x3d81383a	0.063095525
15	0xbd0a3ace	-0.033747487
16	0xbd4fd052	-0.05073578
17	0x3d852123	0.06500461
18	0x3dd3a0f3	0.10333433
19	0xbd9159ee	-0.07097231
20	0xbd8b7f85	-0.06811432
21	0xbd164906	-0.036690734
22	0xbc528aaf	-0.012850448
23	0x3dc555e2	0.096355215
24	0xbcee0c08	-0.029058471
25	0x3e1b36d9	0.15157641
26	0x3db685e2	0.08912255
27	0x3e163c77	0.14671503
28	0xbd62855a	-0.055302955
29	0x3d792a30	0.06083125
30	0x3d579717	0.052634325
31	0x3d73b7a5	0.05950131
32	0xbe1046c8	-0.14089501
33	0x3d76e24e	0.060274415
34	0xbb3e968e	-0.0029081437
35	0xbb93ca5d	-0.0045102076
36	0xbdb0b45f	-0.08628153
37	0xbb98cbe3	-0.004662977
38	0x3deef954	0.11668649
39	0x3cfd4b30	0.030919641
40	0x3dd9f95d	0.106432654
41	0xbd1a98f9	-0.037743542
42	0xbe1d06dd	-0.1533465
43	0xbd869257	-0.06570881
44	0xbbb5fbf7	-0.005553718
45	0xbddb5425	-0.10709409
46	0x3dcc7c7c	0.09984681
47	0x3e105619	0.14095344
48	0xbca80b75	-0.020513276
49	0xbdbe1632	-0.09281577
50	0x3bcec6cd	0.00631032
51	0xbc917c40	-0.017759442
52	0x3d2840a0	0.041077256
53	0xbd8601da	-0.06543322
54	0x3da1becf	0.07897722
55	0xbdc7d28c	-0.097569555
56	0xbd008094	-0.03137262
57	0x3e10bdaf	0.14134859
58	0x3e02f3ff	0.1278839
59	0x3da7a3a2	0.08185507
60	0xbe050426	-0.12989864
61	0xbe06081c	-0.13089031
62	0x3de2577e	0.11051844
63	0xbdb7879b	-0.089614116
64	0xbe0245f4	-0.12721997
65	0xbdad7f21	-0.084715135
66	0x3df4780b	0.11936959
67	0xbe0ee04b	-0.13952748
68	0xbe1878ff	-0.14889906
69	0x3e01ea91	0.12687136
70	0x3daae670	0.08344734
71	0xbda1e39e	-0.07904743
72	0xbe16ce92	-0.14727238
73	0x3d57b6b4	0.052664474
74	0x3dc96e88	0.09835535
75	0xbde73c2f	-0.11290776
76	0x3d932d78	0.07186407
77	0xbd80fdb3	-0.06298389
78	0x3d902527	0.07038336
79	0xbdce13c3	-0.10062363
80	0x3cbb90ce	0.022896197
81	0x3e0753e7	0.132156
82	0x3e02a786	0.12759218
83	0x3e007f5f	0.12548588
84	0xbd87678d	-0.066115476
85	0xbddf598f	-0.10905754
86	0xbd9a4d5f	-0.075342886
87	0x3d014a72	0.031565137
88	0xbd3409d2	-0.043954678
89	0x3d687588	0.05675271
90	0x3cea8cab	0.028631529
91	0x3e0e1c4c	0.13877982
92	0xbd32c461	-0.043644313
93	0xbda9c34e	-0.082892045
94	0xbc8a90e6	-0.016914796
95	0xbe00baf7	-0.12571321
96	0x3cdfc97e	0.027317759
97	0x3dbed40e	0.0931779
98	0x3e051778	0.12997234
99	0xbd13a004	-0.036041275
100	0xbb572e71	-0.0032834078
101	0xbd02a6e3	-0.031897437
102	0x3d91cc65	0.07119063
103	0xbe1c1863	-0.15243678
104	0xbcaf1d49	-0.021376269
105	0xbd99053b	-0.07471701
106	0xbdd8c8aa	-0.10585149
107	0xbce81927	-0.028332306
108	0xbdd51aab	-0.10405477
109	0xbd8e0781	-0.06935025
110	0xbdb09f44	-0.086241275
111	0xbb2a4252	-0.0025979471
112	0xbd13f940	-0.036126375
113	0x3d2c5f4c	0.04208307
114	0x3c8b4f68	0.017005637
115	0x3d8fe6a4	0.07026413
116	0xbc9785fc	-0.018496506
117	0xbd8a7266	-0.06760101
118	0xbdd2e557	-0.10297649
119	0x3d4cedf6	0.050031625
120	0xbd0df8c8	-0.034661084
121	0x3e1fbb7d	0.15598865
122	0x3d09e56e	0.033666067
123	0x3c8e8e2c	0.017401777
124	0x3de01438	0.109413564
125	0xbd3f3111	-0.046677653
126	0xbe18c4f0	-0.14918876
127	0xbe09a048	-0.13440049
128	0xbd54a323	-0.05191339
129	0x3ddb4915	0.10707299
130	0x3d1fc72c	0.039008304
131	0x3d7fa0de	0.062409274
132	0xbda3de1b	-0.08001348
133	0x3e1db37b	0.15400498
134	0x3d89ebe4	0.06734446
135	0xbd3c967b	-0.046041947
136	0x3e186071	0.1488054
137	0xbdee8624	-0.11646679
138	0x3d86caf7	0.06581681
139	0x3d0658a8	0.032799393
140	0x3e2dd990	0.16977525
141	0x3e187a6b	0.14890449
142	0xbe0f13ef	-0.13972448
143	0x3d4e1f04	0.050322548
144	0x3dd7bca5	0.10534028
145	0xbcaeebb5	-0.021352628
146	0x3be783f7	0.007065292
147	0xbbb675d5	-0.005568246
148	0x3d5c9cd7	0.05386051
149	0xbd248c86	-0.040173076
150	0x3ce9bbff	0.028532026
151	0xbdc936ba	-0.098248914
152	0x3e0ec71a	0.13943139
153	0xbc82d6ad	-0.015971506
154	0xbde3d675	-0.11124889
155	0x3da42a02	0.08015825
156	0xbca361ee	-0.019944157
157	0xbda16af1	-0.078817256
158	0xbd1db87d	-0.03850602
159	0x3ddc6be0	0.10762763
160	0xbdb35372	-0.0875615
161	0x3ca55bf2	0.020185445
162	0xbd89750b	-0.06711777
163	0x3d6bfbbc	0.05761312
164	0x3de4b22e	0.111667976
165	0xbd27fe58	-0.041014045
166	0x3dc345b7	0.095347814
167	0x3e099e2e	0.13439247
168	0xbda09d23	-0.078424715
169	0x3bca85fc	0.006180523
170	0x3ce7f880	0.028316736
171	0xbd617757	-0.055045452
172	0x3dfd13d5	0.12357298
173	0xbc8da6a9	-0.017291384
174	0x3da6e22a	0.08148606
175	0x3e02eaa4	0.12784821
176	0xbdf9e8c4	-0.122026
177	0xbded709a	-0.11593743
178	0xbd9dc79a	-0.077040866
179	0xbe0cc7dd	-0.13748117
180	0xbd8aa6d2	-0.067701
181	0x3ce5bc0b	0.028043767
182	0x3d8bfb92	0.068350926
183	0xbdae3954	-0.08507028
184	0x3ca0ebdb	0.019643715
185	0xbd984e84	-0.07436851
186	0x3deb83f5	0.11499778
187	0x3dee77f0	0.1164397
188	0xbde39928	-0.111131966
189	0x3d66a8dc	0.05631338
190	0xbdcc2faf	-0.099700324
191	0x3e0ffbda	0.14060917
192	0xbdd9f0a8	-0.10641605
193	0x3df38842	0.118912235
194	0xbda02666	-0.07819824
195	0xbcb37be0	-0.021909654
196	0xbdcdad78	-0.10042852
197	0xbdfbb55f	-0.12290453
198	0xbe03088a	-0.12796226
199	0x3da41096	0.08010976
200	0x3d823895	0.063584484
201	0xbe23daa2	-0.1600137
202	0xbdd65714	-0.104658276
203	0x3d29c3a9	0.04144636
204	0xbb9f84ed	-0.004868141
205	0x3d138225	0.036012787
206	0x3d759307	0.05995467
207	0xbd3c909f	-0.04603636
208	0x3de0caf6	0.10976212
209	0x3ce3d437	0.027811153
210	0xbd969efa	-0.07354541
211	0x3d8e78a1	0.06956602
212	0xbcc32966	-0.023823451
213	0x3db1b1be	0.0867648
214	0x3bacac40	0.0052695572
215	0xbc5169f0	-0.012781605
216	0x3dfdd4ce	0.12394105
217	0x3e340fce	0.17584154
218	0x3dc26625	0.09492139
219	0xbdb5149a	-0.0884182
220	0xbdc77a7e	-0.097401604
221	0x3c818030	0.015808195
222	0x3d2707aa	0.040778793
223	0x3e4e1cc5	0.20128162
224	0x3defbc46	0.11705832
225	0x3e19ab73	0.15006809
226	0xbd4009d2	-0.046884365
227	0xbde599ca	-0.112109736
228	0xbcc86370	-0.024461478
229	0xbe288cac	-0.16459912
230	0x3da145ad	0.07874618
231	0x3d15117d	0.03639363
232	0x3de47161	0.11154438
233	0x3e3b2b60	0.18278265
234	0x3d5a26f5	0.05325981
235	0xbc9ff614	-0.019526519
236	0xbcc00a9d	-0.02344256
237	0x3e2cf7e4	0.16891438
238	0x3ce6415e	0.028107341
239	0x3d1cc378	0.03827235
240	0xbda95193	-0.08267512
241	0x3d544a20	0.051828504
242	0xbc010ff7	-0.0078773415
243	0xbe000a8c	-0.12504023
244	0x3e0bc8dc	0.1365084
245	0xbe1c0d32	-0.15239409
246	0xbaa010db	-0.0012212055
247	0xbd8d461f	-0.0689814
248	0xbc33e04d	-0.01097877
249	0x3db2ab52	0.08724083
250	0xbc520ab7	-0.012819937
251	0x3e0a5f2d	0.13512869
252	0x3d4fc548	0.05072525
253	0x3e3c1e37	0.18370901
254	0x3d07eb34	0.03318329
255	0xbd822c43	-0.063560985

12.bias f4 [50]
0	0x3dd43da4	0.103633195
1	0xbe22eea3	-0.15911345
2	0x3d2fa526	0.042882107
3	0x3cf05480	0.029337168
4	0x3df25caf	0.11834084
5	0x3dce8cca	0.10085447
6	0xbd03da05	-0.03219034
7	0x3db342dd	0.087529875
8	0x3dd62091	0.1045543
9	0xbd3248ae	-0.043526344
10	0xbdae6181	-0.08514691
11	0x3e163f57	0.146726
12	0xbddc3d82	-0.10753919
13	0xbdfddf81	-0.123961456
14	0xbc84414a	-0.016144414
15	0xbdff64eb	-0.124704204
16	0x3d8bc27c	0.06824204
17	0x3df392fd	0.1189327
18	0xbb946b79	-0.0045294133
19	0x3c27b87f	0.010236858
20	0x3e01e24d	0.12683983
21	0xbdc64fe7	-0.09683209
22	0x3ccce1aa	0.025009949
23	0x3e05c053	0.13061647
24	0xbdb4dc8b	-0.08831128
25	0x3d88d0ae	0.066804275
26	0x3e1d4eb7	0.15362059
27	0x3d8e2917	0.06941431
28	0x3e0ec10b	0.13940828
29	0x3da2c652	0.07947983
30	0x3e0e495d	0.13895173
31	0xbc6cb543	-0.014447513
32	0xbde5d252	-0.11221756
33	0xbdc16b72	-0.09444322
34	0x3e0a9b3e	0.13535783
35	0x3d03e90d	0.032204676
36	0x3d9d3e4b	0.07677897
37	0xbbc92e29	-0.006139536
38	0x3b22b6c7	0.0024828182
39	0xbd7ed78a	-0.062217273
40	0x3da4cc58	0.08046788
41	0x3e1f0c52	0.15532044
42	0xbdcdab28	-0.10042411
43	0x3e0e6912	0.13907269
44	0x3d47c7cd	0.04877453
45	0xbd9dbfc9	-0.07702596
46	0x3deb01a3	0.114749216
47	0x3dd7b470	0.105324626
48	0xbde3caf0	-0.11122692
49	0x3de6841f	0.11255669

12.weight f4 [50, 50]
0	0x3df75c0a	0.12078102
1	0x3d97deb8	0.07415527
2	0x3d584638	0.05280134
3	0x3dae3706	0.08506589
4	0xbd2ad319	-0.041705225
5	0x3d5bfdf8	0.053709
6	0xbdd7c7fb	-0.1053619
7	0x3db82c8a	0.0899287
8	0xbdaf6526	-0.085642144
9	0xbd207c60	-0.039181113
10	0xbdd7dd7b	-0.10540291
11	0xbd9d6533	-0.07685318
12	0x3d299985	0.041406173
13	0xbde6fe94	-0.11279026
14	0xbe03c6e0	-0.12868834
15	0x3c0f8579	0.00875985
16	0xbe126bbf	-0.14298914
17	0xbdd7e584	-0.105418235
18	0x3d1c0e60	0.038099647
19	0xbc37617b	-0.011192675
20	0x3dda62bb	0.106633626
21	0x3bedf3e0	0.007261738
22	0xbd38e25e	-0.045137756
23	0x3d312588	0.043248683
24	0x3d56f451	0.052479092
25	0xbdfaa46d	-0.12238393
26	0x3cb524a6	0.022112202
27	0x3dd47f9a	0.103759006
28	0xbe1b0e57	-0.15142189
29	0xbb764080	-0.0037575066
30	0x3ba1ecbd	0.0049415515
31	0x3bf1dd60	0.0073811263
32	0xbd95d9d2	-0.073169366
33	0xbe0b9ba7	-0.13633595
34	0xbd1a17e1	-0.03762043
35	0x3dd4fe85	0.10400108
36	0xbdb7c922	-0.0897391
37	0x3d822e23	0.06356456
38	0xbe174269	-0.14771427
39	0x3d81e7e9	0.063430615
40	0x3d55f6ea	0.05223743
41	0x3da6e448	0.0814901
42	0xbc36cd50	-0.011157349
43	0xbd962783	-0.07331755
44	0xbde5cd33	-0.11220779
45	0x3ddfe6e9	0.109327145
46	0xbd01ab66	-0.0316576
47	0xbe021f4c	-0.12707251
48	0x3d989a8b	0.07451352
49	0xbdb0ea0b	-0.0863839
50	0xbca89d27	-0.020582749
51	0xbdeaec19	-0.11470813
52	0xbe31d0ae	-0.17364761
53	0x3dbeaa14	0.093097836
54	0x3d19fd45	0.037595052
55	0x3d48790d	0.048943568
56	0xbdbfa32a	-0.09357293
57	0xbc8a0c01	-0.016851427
58	0xbddbb1fe	-0.10727309
59	0x3deac0ba	0.11462541
60	0xbdb0f02b	-0.086395584
61	0x3d45d473	0.04829831
62	0x3c859a0e	0.01630881
63	0xbd81d567	-0.063395314
64	0xbcbafa6d	-0.02282449
65	0xbd84b3df	-0.0647962
66	0xbbf1e8a0	-0.0073824674
67	0x3da426ad	0.08015189
68	0x3e069f28	0.13146651
69	0x3ddbd5db	0.10734149
70	0x3c65a851	0.014017181
71	0x3da7aa4d	0.08186779
72	0x3d284312	0.04107959
73	0xbe09e32d	-0.13465567
74	0x3df31898	0.11869925
75	0xbd355e20	-0.044279218
76	0x3c523001	0.012828828
77	0xbdac5122	-0.08413912
78	0xbcd2e2b2	-0.025742862
79	0xbdf4ff11	-0.119627126
80	0x3dd22cfe	0.10262488
81	0xbe0aa17c	-0.13538164
82	0xbda875f3	-0.08225622
83	0x3d6c7847	0.057731893
84	0x3c876c87	0.016531242
85	0x3dabab0f	0.08382236
86	0xbc4dbbf0	-0.012557015
87	0x3d024966	0.03180828
88	0xbcc89f00	-0.02448988
89	0xbd29e5d8	-0.04147896
90	0x3e1535ca	0.145713
91	0xbe201523	-0.15633063
92	0xbcaab280	-0.020837069
93	0xbcf3a718	-0.029742762
94	0x3bbe2a4c	0.005803382
95	0xbb89db91	-0.0042070826
96	0xbd9ae25f	-0.07562708
97	0xbc71e870	-0.01476489
98	0x3e007360	0.12544012
99	0xbdd79a66	-0.10527496
100	0xbd5fed57	-0.054669704
101	0x3d947fc4	0.07250932
102	0x3dc63302	0.09677698
103	0x3d699065	0.05702247
104	0xbde181ce	-0.110110864
105	0x3d2e5e1f	0.04257023
106	0x3e1db2f5	0.15400298
107	0x3bf76781	0.0075501804
108	0xbc4c82a0	-0.012482315
109	0xbd0dfb80	-0.034663677
110	0x3dc9d482	0.09854986
111	0xbded8068	-0.11596757
112	0xbd06f2af	-0.032946285
113	0x3e0dbb98	0.13841093
114	0xbe0cb16f	-0.1373956
115	0x3df4ab09	0.11946685
116	0x3dbcef81	0.09225369
117	0x3d1ea909	0.038735423
118	0x3dba862d	0.09107623
119	0x3dde7437	0.1086201
120	0xbd0a6351	-0.03378612
121	0x3d143275	0.036180932
122	0x3e31a09e	0.17346427
123	0x3d993131	0.07480086
124	0x3e0af4ea	0.1356999
125	0x3dc13d8f	0.094355695
126	0x3b89447c	0.004189072
127	0xbcc7bec3	-0.024382954
128	0x3c5350b3	0.012897658
129	0x3df2f832	0.11863746
130	0x3d909b99	0.07060928
131	0xbd6e8d0c	-0.05823998
132	0xbd03fc13	-0.03222282
133	0x3d67453d	0.056462515
134	0xbe2e5507	-0.17024623
135	0xbd73a351	-0.059481923
136	0x3dc7d774	0.09757891
137	0xbd3b54b1	-0.045735065
138	0x3e13d381	0.14436151
139	0x3ac626c9	0.001511776
140	0xbd8f4ca3	-0.06997039
141	0xbd8030d1	-0.06259311
142	0xbde4bd7a	-0.11168952
143	0xbdd30fe8	-0.10305768
144	0x3def4a93	0.11684146
145	0xbd9e8644	-0.07740453
146	0x3d728894	0.059212282
147	0xbcbc5c47	-0.02299322
148	0x3ac40b57	0.0014956993
149	0xbe3489b3	-0.17630653
150	0x3d998384	0.07495788
151	0x3c54bff0	0.012985215
152	0xbdd304bc	-0.103036374
153	0xbdc2dd14	-0.095148236
154	0x3dfa4f5a	0.12222166
155	0x3e07184d	0.13192864
156	0xbe038c54	-0.128465
157	0x3c525630	0.0128379315
158	0xbd1a6260	-0.037691474
159	0x3d4d5578	0.050130337
160	0xbbc8eac0	-0.0061315
161	0x3bdd3160	0.0067502707
162	0x3d84eff0	0.06491077
163	0xbacac080	-0.0015468746
164	0x3cfa8c68	0.030584529
165	0xbdf2a04c	-0.118469805
166	0x3e041d7d	0.12901874
167	0x3daa0ac2	0.08302833
168	0xbda7f66e	-0.082012996
169	0xbdb0ae54	-0.086270005
170	0xbcb88248	-0.02252306
171	0xbbb29d60	-0.0054508895
172	0xbc8e0a38	-0.017338857
173	0xbd2bc42a	-0.041935124
174	0x3deb8cb2	0.11501445
175	0xbd5d2e56	-0.053999268
176	0xbe0da1c4	-0.1383124
177	0x3db2365a	0.08701773
178	0xbcab1e80	-0.020888567
179	0x3e0d2ef1	0.13787438
180	0xbd67950a	-0.05653862
181	0xbd01d792	-0.031699724
182	0xbe08ca13	-0.13358335
183	0xbd0ffb72	-0.035151906
184	0xbe102da4	-0.1407991
185	0xbd37c6bc	-0.044867262
186	0x3dbf25e8	0.09333402
187	0x3d153854	0.03643067
188	0xbde51aaf	-0.1118673
189	0x3d285eb8	0.041105956
190	0xbda3a0c5	-0.07989649
191	0xbd970db6	-0.07375662
192	0x3e0e4a0b	0.13895433
193	0xbd459c28	-0.048244625
194	0x3d845580	0.0646162
195	0x3df9c496	0.12195699
196	0xbd2aca1c	-0.041696653
197	0xbe031180	-0.12799644
198	0x3c3df780	0.011594653
199	0xbdc8edb8	-0.09810966
200	0xbc45c385	-0.012070541
201	0xbd800f1d	-0.06252883
202	0x3cd33d94	0.025786199
203	0xbd06a6bc	-0.032873854
204	0xbe18cfcc	-0.14923018
205	0x3dd641ae	0.10461746
206	0xbd8fe184	-0.070254356
207	0x3c9c4cac	0.019079529
208	0xbdd1ac36	-0.10237925
209	0x3d81a3d2	0.06330074
210	0x3d9ff94a	0.0781122
211	0x3d7d9704	0.061911598
212	0xbe27013d	-0.16309066
213	0x3e1b3ea0	0.15160608
214	0x3e106439	0.14100732
215	0xbaac6bf6	-0.0013154733
216	0x3b8cf80a	0.0043020295
217	0xbbb0aa51	-0.005391397
218	0xbd935b40	-0.07195139
219	0x3dbf5d21	0.09343935
220	0xbdd1d369	-0.102454014
221	0x3bb26be0	0.0054449886
222	0x3d8728ce	0.0659958
223	0xbe1eeaaa	-0.15519205
224	0x3ccc7a9c	0.024960808
225	0xbd3571f5	-0.04429813
226	0x3e277ba8	0.16355765
227	0x3e20080b	0.15628068
228	0xbc97eaad	-0.01854452
229	0x3db6e8e8	0.08931142
230	0x3d9fd12c	0.07803568
231	0x3d7af4fc	0.06126879
232	0xbdc3f23d	-0.09567688
233	0xbce37416	-0.027765315
234	0xbdd225e9	-0.10261137
235	0x3df45dde	0.11931966
236	0xbdd2245b	-0.102608405
237	0x3df07b78	0.117423
238	0x3d33dbfd	0.04391097
239	0xbd8e5948	-0.06950623
240	0xbd3823ee	-0.04495614
241	0x3db3918f	0.087679975
242	0x3d91da3c	0.07121703
243	0x3e0ee4a7	0.13954411
244	0xbad4943c	-0.0016218494
245	0xbd9f93b8	-0.07791847
246	0xbd850ff4	-0.064971834
247	0x3d88a9b6	0.06672995
248	0xbda8baaa	-0.08238728
249	0x3d822382	0.06354429
250	0x3e00ad62	0.1256614
251	0x3dce766b	0.1008118
252	0xbd6b4072	-0.057434507
253	0xbd484804	-0.048896804
254	0x3dd904da	0.105966285
255	0x3d803e1e	0.06261848

14.bias f4 [50]
0	0xbbf4ca53	-0.007470408
1	0xbcb751f8	-0.022377953
2	0xbdb21f82	-0.08697416
3	0x3db08925	0.08619908
4	0xbcd827bb	-0.026386132
5	0xbc4bd373	-0.01244055
6	0x3e0417e1	0.12899734
7	0xbda60c10	-0.081077695
8	0x3dc5ae5d	0.09652398
9	0x3de5072e	0.1118301
10	0x3d5a6a87	0.05332425
11	0xbd31a480	-0.04336977
12	0xbd520636	-0.051275454
13	0xbd5d9d29	-0.054104958
14	0xbe088102	-0.13330463
15	0x3dd71785	0.10502533
16	0xbc0423e9	-0.008065202
17	0x3dc4fae6	0.096181676
18	0xbd9a446e	-0.07532583
19	0xbdbdfc02	-0.09276582
20	0x3daa337c	0.08310601
21	0x3d2000aa	0.039063133
22	0x3c668780	0.014070392
23	0x3e053000	0.13006592
24	0xbb8933c1	-0.0041870777
25	0x3d61d455	0.055134136
26	0x3d2f5e36	0.042814456
27	0xbe1b6ade	-0.15177485
28	0xbd3c5714	-0.04598148
29	0x3e0556f3	0.1302145
30	0x3b8117df	0.0039396132
31	0xbdee8e7e	-0.11648272
32	0x3d65814c	0.05603151
33	0x3d871c52	0.065971985
34	0xbde7e3a2	-0.113227144
35	0xbd2d03fa	-0.04224012
36	0x3d9e14d9	0.0771882
37	0x3dfb2f4d	0.12264881
38	0xbe19f017	-0.15032993
39	0xbdcb8d71	-0.09939087
40	0x3cafdcd9	0.021467613
41	0xbddb824d	-0.10718212
42	0x3db0e356	0.08637111
43	0x3deefcc7	0.11669307
44	0x3db35566	0.08756523
45	0x3d70111b	0.058610063
46	0xbe0d17ac	-0.13778561
47	0x3d2aca22	0.041696675
48	0x3d3066a0	0.04306662
49	0x3da1484d	0.078751184

14.weight f4 [50, 50]
0	0x3de6b361	0.112646826
1	0xbd785220	-0.060625196
2	0x3deb291b	0.114824496
3	0xbcb61fdc	-0.022231989
4	0x3dd6c253	0.10486283
5	0x3e057542	0.13033012
6	0x3d328b3f	0.043589827
7	0x3e0b4f12	0.13604382
8	0xbe04e9e1	-0.12979843
9	0xbcd6f568	-0.026240066
10	0xbd999e6e	-0.07500921
11	0x3d372f9c	0.04472314
12	0x3e0f3d67	0.13988267
13	0xbe0580e8	-0.13037455
14	0x3d34b3e5	0.044116873
15	0x3dd72077	0.10504239
16	0xbdc81f48	-0.097715914
17	0xbd7c694d	-0.06162386
18	0xbdb2a769	-0.08723337
19	0xbde2f185	-0.110812224
20	0xbd051bc1	-0.03249717
21	0x3d476acf	0.048685845
22	0xbde0bb7b	-0.10973259
23	0xbd2fd527	-0.042927887
24	0xbc835ad3	-0.01603452
25	0x3df7cb19	0.12099285
26	0x3d9b0463	0.07569196
27	0xbda59539	-0.080851026
28	0x3ded58b4	0.115891844
29	0x3e1abe02	0.15111545
30	0x3ddaf393	0.10690989
31	0x3dd724e4	0.10505083
32	0x3db4c0d2	0.0882584
33	0x3d725cd5	0.059170563
34	0x3d6b325f	0.057421084
35	0x3e1e8c60	0.15483236
36	0x3e26e2a0	0.16297388
37	0xbdecec08	-0.11568457
38	0x3d239a86	0.039942287
39	0xbdedba21	-0.11607767
40	0x3d0027db	0.03128801
41	0x3dc98ed7	0.09841698
42	0x3b08a900	0.0020852685
43	0x3b60930a	0.003426733
44	0xbd824fee	-0.06362902
45	0xbcfc2c3b	-0.03078281
46	0xbd7d68ac	-0.0618674
47	0x3d9060d5	0.07049719
48	0x3dc4c9e2	0.096088186
49	0x3e3c92f8	0.18415439
50	0xbdd2465d	-0.10267327
51	0xbcfd27e4	-0.03090281
52	0xbb2bdd00	-0.0026224256
53	0x3da63c10	0.08116925
54	0xbd3a7262	-0.04551924
55	0x3de83d16	0.11339776
56	0x3c49bce0	0.012313098
57	0x3dbb6ade	0.09151243
58	0xbd927f42	-0.07153179
59	0xbc0fb280	-0.008770585
60	0xbde0d974	-0.10978976
61	0xbdc73754	-0.0972735
62	0xbd009c46	-0.031399034
63	0xbdd3299e	-0.10310672
64	0xbdb79ec4	-0.08965829
65	0x3d9a006a	0.0751961
66	0xbdf67766	-0.12034492
67	0x3bc5fb00	0.0060418844
68	0xbe075a0d	-0.13217945
69	0xbdd17e1c	-0.102291316
70	0xbccff624	-0.025385924
71	0x3d9ed902	0.07756235
72	0xbe0b9692	-0.13631657
73	0x3d66e98c	0.05637507
74	0xbd9753fd	-0.07389066
75	0xbaf5ff00	-0.0018768013
76	0x3dbfe7ce	0.09370385
77	0xbdc83c94	-0.09777179
78	0xbbe25460	-0.006907031
79	0x3dd4098a	0.10353382
80	0xbdf54486	-0.119759604
81	0xbc476140	-0.012169182
82	0x3db47eee	0.088132724
83	0x3dc14130	0.09436262
84	0x3d789de0	0.060697436
85	0xbdcd8b68	-0.10036355
86	0xbd7299f0	-0.059228837
87	0xbe0e56a3	-0.13900237
88	0xbde86a26	-0.11348371
89	0x3d20872c	0.03919141
90	0xbdba4a5a	-0.09096213
91	0xbd8e3100	-0.0694294
92	0xbd825832	-0.06364478
93	0xbd36cfba	-0.044631697
94	0x3d8ba48a	0.06818493
95	0x3d8ac992	0.06776728
96	0xbdf577b5	-0.11985723
97	0x3a93da80	0.0011280328
98	0x3cfa1e90	0.030532151
99	0x3db973a0	0.09055257
100	0xbdaf71de	-0.0856664
101	0xbd287775	-0.041129548
102	0xbe021030	-0.12701488
103	0x3cf8a420	0.030351698
104	0x3de6ace8	0.11263448
105	0xbdb4f1da	-0.08835192
106	0xbde3b5ad	-0.11118636
107	0x3d8233b5	0.063575186
108	0xbc380427	-0.011231459
109	0x3d7227c4	0.059119955
110	0x3db9cf82	0.09072782
111	0x3dbbcb7a	0.091696694
112	0x3d9c6a6e	0.07637487
113	0x3de2cb57	0.1107394
114	0x3d000886	0.03125813
115	0x3d839af2	0.06426038
116	0x3e064083	0.13110547
117	0x3c99c3a8	0.018770054
118	0x3e0727e3	0.1319881
119	0x3d60d4db	0.054890495
120	0xbc3828d5	-0.011240204
121	0xbd9814f7	-0.07425874
122	0x3c41abfa	0.011820788
123	0xbdd910dd	-0.105989195
124	0x3d4b2426	0.04959502
125	0xbdfea4a4	-0.124337465
126	0x3c2881de	0.010284869
127	0xbd7ca43c	-0.061680064
128	0xb98fccdd	-0.0002742772
129	0xbd8ed89a	-0.06974907
130	0x3d951608	0.07279593
131	0xbde3abbc	-0.1111674
132	0x3de393ba	0.11112161
133	0x3cbc4eb9	0.022986757
134	0xbdb1165a	-0.08646841
135	0x3d092ed9	0.033491943
136	0xbbd8ee79	-0.006620225
137	0xbdd93248	-0.106052935
138	0xbd839601	-0.06425095
139	0x3de8e80a	0.11372383
140	0x3e11e350	0.14246869
141	0xbda8cf4b	-0.08242663
142	0x3d5fbdcc	0.054624364
143	0x3dafc650	0.08582747
144	0x3e0c4d49	0.13701357
145	0x3d65067c	0.055914387
146	0x3db89121	0.09012056
147	0xbc0288e2	-0.007967206
148	0xbdf6616e	-0.12030302
149	0xbcd671b0	-0.026177257
150	0xbe0e1d34	-0.13878328
151	0x3dc57dc3	0.09643128
152	0xbdad64e5	-0.0846651
153	0xbd82b975	-0.06383029
154	0x3da973c1	0.082740314
155	0xbcbedc8d	-0.023298526
156	0xbda38d0e	-0.079858884
157	0x3d26116a	0.04054395
158	0x3e203c31	0.15647961
159	0x3db04c37	0.08608287
160	0x3e240a1f	0.16019486
161	0x3dea7404	0.114479095
162	0x3df1117a	0.117709115
163	0x3dff0a48	0.12453133
164	0x3e08a334	0.13343507
165	0xbc2834e5	-0.010266517
166	0xbdded5ac	-0.108805984
167	0x3d903ddf	0.07043051
168	0xbdc038a9	-0.09385807
169	0x3e24ff8b	0.16113107
170	0x3d2b1503	0.041768085
171	0x3df1e2ad	0.11810813
172	0x3d2bdb30	0.04195708
173	0xbc4be3ef	-0.01244448
174	0x3d2fa73a	0.04288409
175	0x3e0200af	0.12695573
176	0x3d92f0ea	0.07174857
177	0xbbc26a40	-0.005933076
178	0x3d97c18d	0.07409964
179	0xbb4ae0bb	-0.0030956704
180	0xbd52feb1	-0.051512424
181	0xbd331464	-0.043720618
182	0xbd517fee	-0.051147394
183	0xbdab70f9	-0.08371157
184	0x3e1b6d03	0.15178303
185	0xbc3d89b7	-0.011568478
186	0x3d0bc14b	0.034119885
187	0x3d8fc904	0.070207626
188	0xbcf3892c	-0.029728495
189	0x3d8a3717	0.06748789
190	0x3d9a3465	0.07529525
191	0xbc150dce	-0.00909753
192	0xbb1828c0	-0.0023217648
193	0xbbd31e5b	-0.0064428276
194	0xbdbac3d0	-0.091193795
195	0x3d7093d4	0.05873473
196	0x3e2c9397	0.16853176
197	0x3ddc8370	0.10767257
198	0xbd6f9503	-0.058491718
199	0xbd15749e	-0.036488168
200	0x3dc17f04	0.094480544
201	0x3dd6b640	0.1048398
202	0xbd6c3d62	-0.057675727
203	0x3d81fed8	0.06347436
204	0x3dc87c34	0.09789315
205	0x3cff344e	0.03115287
206	0x3e008148	0.12549317
207	0x3ceca234	0.028885938
208	0x3ca56f79	0.020194756
209	0xbdf53450	-0.119728684
210	0x3d801c9e	0.06255458
211	0x3c4ff9e1	0.012693853
212	0xbc6a0d90	-0.01428546
213	0xbc72ce8f	-0.014819755
214	0x3aa005d7	0.0012208772
215	0x3dbc4d5c	0.09194443
216	0xbca7ce7c	-0.020484202
217	0x3ddf221d	0.108951785
218	0x3df6ba5b	0.12047263
219	0x3cd03523	0.025415963
220	0xbde0c7c1	-0.109756
221	0x3d219f80	0.03945875
222	0x3dd74ae4	0.10512331
223	0x3d97f4ab	0.074197136
224	0x3da4eef2	0.08053388
225	0x3cf1af8a	0.029502649
226	0xbdd45128	-0.10367042
227	0xbafbe278	-0.0019217273
228	0xbdaadc98	-0.08342856
229	0x3c677c35	0.014128734
230	0xbe2157f4	-0.15756208
231	0x3dd8111b	0.105501376
232	0x3c8678f0	0.01641509
233	0x3c52c28e	0.012863768
234	0x3d4ecdb3	0.05048914
235	0x3da14fe9	0.0787657
236	0xbdae070f	-0.0849744
237	0xbd69c63c	-0.057073817
238	0x3d8c4460	0.06848979
239	0x3bfd7dc1	0.0077359383
240	0x3d56e9ec	0.05246918
241	0xbe16cae7	-0.14725839
242	0xbdd0191e	-0.10161041
243	0x3e04b678	0.12960231
244	0xbd474167	-0.048646357
245	0xbd0f77a1	-0.035026196
246	0x3c4c3589	0.012463936
247	0xbc43a999	-0.011942291
248	0xbe248b34	-0.16068727
249	0xbd96a510	-0.07355702
250	0xbabe366b	-0.0014512067
251	0xbd7197db	-0.05898271
252	0x3dbf8b05	0.09352688
253	0xbc8ab038	-0.01692973
254	0xbbcc05e2	-0.006226287
255	0x3de86380	0.11347103

16.bias f4 [50]
0	0xbccc0dbc	-0.024908893
1	0xbd61b226	-0.055101536
2	0xbc819223	-0.015816754
3	0xbcef7897	-0.029232306
4	0x3dbda8a4	0.09260681
5	0x3c471a53	0.012152272
6	0x3d6eda63	0.05831374
7	0xbe0b7354	-0.13618213
8	0xbdeb8f85	-0.115019836
9	0xbd1460f4	-0.036225274
10	0xbe24f15b	-0.16107695
11	0x3db5c1cc	0.088748544
12	0xbe03321e	-0.12812087
13	0xbe03fb10	-0.12888741
14	0x3c3cdecf	0.011527731
15	0x3e15f905	0.14645775
16	0xbdf79509	-0.12088973
17	0xbd9b025b	-0.07568809
18	0x3d1f7fdd	0.0389403
19	0xbd4b66ee	-0.04965871
20	0x3df0573e	0.1173539
21	0x3e26cb69	0.16288532
22	0xbdfc25b3	-0.12311878
23	0x3dd0a0a2	0.10186888
24	0x3bb17ee4	0.005416738
25	0x3ddd65ad	0.10810409
26	0x3ca02a7a	0.019551504
27	0x3d2743e7	0.04083624
28	0xbce252d9	-0.027627395
29	0x3cbf0d35	0.023321727
30	0x3e162b3b	0.14664929
31	0xbd9eae53	-0.077480935
32	0x3d4b32d3	0.049609017
33	0x3daf26a0	0.08552289
34	0x3e0a1fb5	0.13488658
35	0x3e057b18	0.13035238
36	0x3db24949	0.08705384
37	0x3d9894aa	0.074502304
38	0x3d1a044f	0.037601765
39	0x3e0421cc	0.12903517
40	0x3dae7bf6	0.085197374
41	0x3db771ab	0.08957227
42	0x3d7a092c	0.061043903
43	0x3b5d8b19	0.0033804832
44	0x3c9ebcf1	0.019377204
45	0x3bd2cb16	0.006432901
46	0xbdc18f2f	-0.09451138
47	0x3cd6c820	0.026218474
48	0xbda94fc1	-0.08267165
49	0x3d9d029b	0.076665126

16.weight f4 [50, 50]
0	0xbdc3e7e8	-0.09565717
1	0xbcdaf56c	-0.026728354
2	0xbcac22dc	-0.021012716
3	0xbdea383c	-0.11436507
4	0xbdaf58a9	-0.085618325
5	0xbd99136b	-0.07474407
6	0x3dda43f4	0.10657492
7	0x3d91dc4a	0.07122095
8	0xbd7804f2	-0.06055159
9	0xbc364ad0	-0.011126235
10	0xbdfe823c	-0.12427184
11	0x3dfa1a9a	0.12212105
12	0xbae23000	-0.0017256737
13	0x3c316b70	0.010828838
14	0x3da6ab34	0.08138123
15	0xbded6dc5	-0.115932025
16	0x3d56013c	0.05224727
17	0xbdfec368	-0.124396145
18	0xbe0d05a8	-0.13771689
19	0x3cb31530	0.021860689
20	0xbd017434	-0.03160496
21	0xbddda092	-0.10821642
22	0x3dc0eff4	0.094207674
23	0x3d014b04	0.03156568
24	0x3c1c15c0	0.00952667
25	0x3ddddf20	0.10833573
26	0xbdd84d2c	-0.10561594
27	0x3e05fdef	0.13085149
28	0xbde1c686	-0.110241935
29	0xbe07bec5	-0.13256367
30	0xbd9ed809	-0.07756049
31	0x3b622580	0.0034507215
32	0x3e086559	0.13319911
33	0xbe0d38c0	-0.1379118
34	0x3e0ade7f	0.13561438
35	0xbd661f3a	-0.056182124
36	0x3d60fa70	0.054926336
37	0xbc5598f0	-0.013036951
38	0x3dfe0036	0.12402384
39	0x3d7d8600	0.06189537
40	0xbdc2f3d8	-0.09519166
41	0xbdc28736	-0.09498446
42	0xbd296e56	-0.04136499
43	0xbe0e694e	-0.13907358
44	0xbc5653d0	-0.013081506
45	0x3d8230a2	0.06356932
46	0x3dbe2646	0.09284644
47	0xbdf695c9	-0.12040288
48	0x3df95a02	0.12175371
49	0xbbdee5e0	-0.0068023056
50	0x3cea91c3	0.028633958
51	0xbe0a4ceb	-0.13505904
52	0x3d8dc4a8	0.06922275
53	0x3cb643f8	0.022249207
54	0x3d868d97	0.06569975
55	0x3dc8223d	0.097721554
56	0x3ab426d7	0.0013744485
57	0xbdceccb8	-0.10097641
58	0xbe049da9	-0.12950768
59	0xbe3a7a4d	-0.18210717
60	0xbe172a23	-0.14762168
61	0x3c8ccf9e	0.017188843
62	0x3d979798	0.07401961
63	0x3d82c0dc	0.06384441
64	0x3d5b3a84	0.0535226
65	0xbd0914b2	-0.033467002
66	0x3da53b96	0.08068006
67	0x3d856a3d	0.06514404
68	0x3d8f6da2	0.07003333
69	0x3da03d46	0.07824187
70	0x3d85ab0c	0.06526765
71	0x3bac3b48	0.0052560903
72	0x3d519680	0.05116892
73	0xbdf5d447	-0.12003379
74	0x3d944193	0.0723907
75	0xbdd4cab9	-0.10390229
76	0xbd46626f	-0.048433717
77	0xbe0e0f4a	-0.1387302
78	0x3d229eb6	0.03970214
79	0x3d81d993	0.06340327
80	0x3dc462d1	0.0958916
81	0xbdf389d4	-0.11891523
82	0xbc45f797	-0.012082956
83	0x3d4d4ef8	0.05012414
84	0x3da19bc8	0.07891041
85	0x3ca8a32d	0.02058562
86	0x3dac8cee	0.08425318
87	0x3e12569b	0.1429085
88	0x3d8c5b37	0.06853335
89	0x3bcaf3fc	0.006193636
90	0xbd101174	-0.035172895
91	0xbd78e584	-0.06076576
92	0xbdb1de4a	-0.086849764
93	0x3c50e721	0.012750418
94	0x3ce4c26f	0.027924744
95	0xbd9714a6	-0.07376985
96	0x3db49f4e	0.088194475
97	0x3db6f849	0.089340754
98	0x3c20fb28	0.009825505
99	0xbd14f477	-0.036365952
100	0x3e01b6b1	0.12667347
101	0x3e105c37	0.14097677
102	0xbe04a7a2	-0.12954572
103	0x3d87f61f	0.06638741
104	0xbdca6766	-0.09883003
105	0xbd577616	-0.05260285
106	0x3dc5709f	0.096406214
107	0xbc2f8870	-0.010713682
108	0xbd985116	-0.07437341
109	0xbd5333d0	-0.051563084
110	0xbd5756ee	-0.052573137
111	0x3dbe2619	0.0928461
112	0x3dd7fe82	0.105465904
113	0x3d2ae968	0.0417265
114	0xbdae35c4	-0.08506349
115	0xbd732af4	-0.059367135
116	0x3d297968	0.041375548
117	0xbd3d30a7	-0.046188977
118	0xbcf5e300	-0.030015469
119	0x3e0a051d	0.13478513
120	0xbd6f860e	-0.058477454
121	0x3dc4a6cc	0.096021265
122	0x3dd3eff2	0.103485
123	0xbdce436e	-0.10071455
124	0xbccb6553	-0.024828589
125	0xbe0e88d6	-0.13919386
126	0x3a3852f5	0.00070314045
127	0xbd7e5ea2	-0.062101968
128	0x3dbc87c7	0.09205585
129	0x3caca460	0.021074474
130	0xbc95cef4	-0.01828716
131	0xbdcfa1e0	-0.10138297
132	0x3d88ab18	0.066732585
133	0x3dc05503	0.09391215
134	0xbda937ed	-0.0826262
135	0xbd7be4aa	-0.061497368
136	0x3de85302	0.113439575
137	0x3d8ed08d	0.06973372
138	0xbc31b11b	-0.010845448
139	0x3d9f4858	0.0777747
140	0xbe15d952	-0.14633682
141	0x3d099f28	0.03359905
142	0x3df735af	0.12070786
143	0xbdc3bbc8	-0.09557301
144	0xbe036d7d	-0.12834735
145	0x3de2921a	0.11063023
146	0x3c9022c0	0.017594695
147	0x3d3e9fbf	0.046539064
148	0xbd310e7c	-0.043226704
149	0xbde9a770	-0.11408889
150	0x3df89708	0.12138182
151	0x3d92a374	0.071600825
152	0x3ddce035	0.107849516
153	0x3dfef80a	0.124496534
154	0xbdc77fb0	-0.09741151
155	0xbd049e5a	-0.03237758
156	0x3d6ef86d	0.058342386
157	0xbde7efe9	-0.11325056
158	0xbd9bf00e	-0.07614146
159	0x3dbdfd54	0.09276834
160	0x3e0282e7	0.12745248
161	0x3d91e8ac	0.07124457
162	0x3cc9da40	0.024640203
163	0xbdf31aef	-0.118703716
164	0xbd76f8dc	-0.060295925
165	0x3e136802	0.14395145
166	0xbc0ffa78	-0.008787744
167	0x3dce32b3	0.10068264
168	0x3da3830d	0.0798398
169	0xbddbc5e6	-0.107311055
170	0x3c76fe0d	0.015075219
171	0x3d7c6455	0.06161912
172	0xbd9b2603	-0.075756095
173	0xbe16e164	-0.14734417
174	0xbc05ff45	-0.008178537
175	0xbc81d06f	-0.01584646
176	0xbdcfe4a8	-0.101510346
177	0x3d5bc2c3	0.053652536
178	0xbd814621	-0.06312204
179	0x3c2ab183	0.010418299
180	0xbd95141d	-0.07279227
181	0x3e02edcd	0.12786026
182	0x3db44efe	0.08804129
183	0x3dc204d5	0.09473578
184	0x3daef85f	0.08543467
185	0xbd16616d	-0.036714006
186	0xbdc80e71	-0.097683795
187	0xbb794e00	-0.0038040876
188	0x3e09be24	0.13451439
189	0xbc8d4b18	-0.017247722
190	0x3de194b7	0.11014693
191	0x3d0fb244	0.035082117
192	0x3db4ec03	0.08834078
193	0xbcf8c3bf	-0.030366777
194	0x3e26ec03	0.16300969
195	0xbe0ff7e8	-0.14059412
196	0xbd584d80	-0.052808285
197	0xbda587de	-0.08082555
198	0x3e08f40a	0.13374344
199	0x3b94c1d0	0.004539706
200	0xbdb4f9b2	-0.08836688
201	0xbd3510d0	-0.044205487
202	0xbdcaa433	-0.098946
203	0x3db75e50	0.089535356
204	0xbd8de9fe	-0.06929396
205	0x3cb2a683	0.021807915
206	0xbe1b1993	-0.15146475
207	0xbd83e5d2	-0.06440319
208	0x3dc50b66	0.09621315
209	0xbbcc8f4c	-0.0062426683
210	0xbe03f72e	-0.1288726
211	0x3d31d642	0.043417223
212	0x3d3f8a2b	0.046762627
213	0x3d404cd2	0.04694826
214	0x3dd46a20	0.10371804
215	0xbd852423	-0.06501033
216	0xbdc6a873	-0.09700098
217	0xbd8c4359	-0.06848783
218	0x3dd91503	0.10599711
219	0x3dd31500	0.1030674
220	0xbd885f18	-0.06658763
221	0x3e409d93	0.1881011
222	0xbcafca28	-0.0214587
223	0x3c3f4a5f	0.011675446
224	0xbe05479d	-0.130156
225	0xbdcfadd4	-0.10140577
226	0x3db29ee4	0.08721712
227	0x3dc723b7	0.09723609
228	0xbc673b7c	-0.014113303
229	0x3de630d5	0.11239783
230	0xbdac4925	-0.08412389
231	0xbd95fd89	-0.073237486
232	0xbdbe9bb4	-0.09307042
233	0x3d963cca	0.07335813
234	0x3d832fc5	0.06405596
235	0xbdf0d670	-0.11759651
236	0xbddbde3f	-0.107357495
237	0xbd1fe67c	-0.039038166
238	0xbe03d33f	-0.12873553
239	0x3e1d162d	0.1534049
240	0x3c5b2bad	0.013377112
241	0x3df7cd1e	0.1209967
242	0xbd97adaf	-0.074061744
243	0x3d2b3af8	0.041804284
244	0x3b6a7b6b	0.003577913
245	0xbe05521a	-0.130196
246	0xbde5b875	-0.11216823
247	0x3dfdd0cd	0.12393341
248	0xbe379c8f	-0.17930816
249	0x3e01eb7d	0.12687488
250	0x3d7c50df	0.061600562
251	0xbdeeef25	-0.11666707
252	0xbd401ac0	-0.04690051
253	0xbdae82e2	-0.08521058
254	0x3c2f6c7a	0.010707015
255	0x3cff8308	0.03119041

18.bias f4 [10]
0	0x3d6db61c	0.058035
1	0x3d752304	0.059847847
2	0xbd0788e6	-0.03308954
3	0x3d2b4d85	0.041821975
4	0x3c454cb8	0.012042217
5	0xbe13f4bd	-0.14448829
6	0x3de2c21b	0.11072179
7	0x3c95c9b5	0.018284658
8	0x3b61c916	0.0034452132
9	0x3dc7987a	0.097458795

18.weight f4 [10, 50]
0	0x3c2c2f40	0.010509312
1	0xbda5ec4b	-0.0810171
2	0xbd2812ef	-0.04103368
3	0xbd54f2c6	-0.05198934
4	0x3e1af9ca	0.1513435
5	0x3d917475	0.071022905
6	0x3d4d9a39	0.050195906
7	0xbc4988c7	-0.012300677
8	0xbe26785a	-0.16256848
9	0x3cc993c7	0.024606599
10	0xbe3176e8	-0.17330515
11	0x3da9bab8	0.08287567
12	0x3d4e4be3	0.05036534
13	0x3d7e18a7	0.06203523
14	0x3e0e5ab6	0.13901791
15	0x3c8995a1	0.016794981
16	0xbd705a5e	-0.05867993
17	0x3dd5051c	0.10401365
18	0xbd56c3d2	-0.052432843
19	0xbd9d6118	-0.07684535
20	0xbe07c1c3	-0.13257508
21	0x3d02b193	0.03190763
22	0xbd74e9f3	-0.059793424
23	0xbd4d2885	-0.05008747
24	0xbdd4d27e	-0.10391711
25	0x3cca1850	0.024669796
26	0x3db3c999	0.08778686
27	0x3dc97247	0.0983625
28	0x3e1884a4	0.14894348
29	0xbe1287a1	-0.14309551
30	0xbae91084	-0.0017781411
31	0x3e38d0dd	0.18048425
32	0x3d8c9a65	0.06865386
33	0xbdaded3c	-0.084925145
34	0xbdaa9fa3	-0.083312295
35	0x3d9f2798	0.07771224
36	0xbd361433	-0.044452857
37	0x3cf3e37a	0.029771555
38	0xbd17adff	-0.03703117
39	0x3df35d90	0.1188308
40	0x3d0f4a7c	0.034983143
41	0x3dbf218a	0.09332569
42	0x3d9c2c7d	0.07625673
43	0x3e05f4ae	0.13081619
44	0x3d39b27d	0.045336235
45	0x3c768d61	0.015048356
46	0xbd04e60f	-0.032445963
47	0xbd0cea2c	-0.03440301
48	0xbcee7e1c	-0.029112868
49	0x3db81348	0.089880526
50	0xbc8aef14	-0.016959704
51	0x3d7a1207	0.06105235
52	0xbd4544df	-0.048161384
53	0x3bb1ebaa	0.0054297047
54	0xbc818de1	-0.015814723
55	0xbe0c6937	-0.13712011
56	0x3af3d4de	0.0018602868
57	0xbdf84b7e	-0.12123774
58	0x3da2dcf4	0.079523
59	0x3dc6d9e6	0.097095296
60	0x3dcc5bde	0.0997846
61	0xbdef599a	-0.11687012
62	0xbdcc2f72	-0.09969987
63	0x3cb1bb00	0.021695614
64	0x3dc366d7	0.095410995
65	0x3d2dbec4	0.042418256
66	0x3e1c4d78	0.15263927
67	0x3c73d7b0	0.014882967
68	0xbcba2951	-0.02272478
69	0x3e04f6f4	0.1298483
70	0x3ce4ec7c	0.027944796
71	0xbdceee8b	-0.10104092
72	0x3e0415be	0.12898919
73	0xbe0f53cb	-0.13996808
74	0xbdebbaea	-0.115102604
75	0x3e470cac	0.19438428
76	0x3ddbb154	0.10727182
77	0xbd390864	-0.045174018
78	0x3cf673ad	0.030084455
79	0xbcc68992	-0.02423552
80	0x3d926248	0.07147652
81	0xbbe52ca2	-0.006993846
82	0xbcc8ca41	-0.024510505
83	0x3df46912	0.11934103
84	0x3e2d26dc	0.16909355
85	0x3d8a96bf	0.06767034
86	0xbded0010	-0.115722775
87	0xbd9e25f8	-0.07722086
88	0x3cbbd151	0.022926958
89	0xbca0102b	-0.01953896
90	0xbe0addb6	-0.13561139
91	0xbd83a513	-0.0642797
92	0x3ba83195	0.0051328638
93	0x3dd8cc66	0.10585861
94	0x3da68424	0.081306726
95	0xbd11cb60	-0.035594344
96	0xbe199914	-0.14999801
97	0x3e0d6c9b	0.13810961
98	0xbd8071f5	-0.062717356
99	0xbd278494	-0.04089792
100	0x3daf552c	0.08561167
101	0x3d81cd7e	0.06338023
102	0xbd137fba	-0.03601048
103	0xbe089eff	-0.13341902
104	0x3dd08035	0.101807036
105	0xbd956a28	-0.07295638
106	0x3c7843c1	0.015152873
107	0x3d6bd501	0.057576183
108	0x3d102f97	0.035201635
109	0x3dcdbb7e	0.10045527
110	0xbcfef3d2	-0.031122122
111	0x3da8a0ef	0.08233821
112	0xbdd32840	-0.103104115
113	0xbce046da	-0.027377535
114	0xbd5a4175	-0.05328508
115	0xbdc49a2b	-0.09599718
116	0xbe0d6b2f	-0.13810419
117	0x3d7a78dc	0.061150417
118	0xbd2eb3b8	-0.042651862
119	0x3d9f5a28	0.07780868
120	0x3ddf152f	0.10892712
121	0x3cb8000a	0.022460956
122	0x3cb0ecc9	0.021597283
123	0x3e1cf95f	0.15329503
124	0xbd89e908	-0.067339
125	0x3cbb766c	0.022883616
126	0xbc5c7631	-0.013455913
127	0x3de33b9a	0.110953525
128	0x3e03c447	0.12867843
129	0xbda6917a	-0.08133216
130	0xbd62545c	-0.055256233
131	0xbdcac5ad	-0.09900985
132	0x3dc391fc	0.09549329
133	0xbe088ba5	-0.1333452
134	0xbd0f29c1	-0.03495193
135	0xbe1172c1	-0.14203931
136	0x3d9795d6	0.07401626
137	0x3dd08bb1	0.10182894
138	0x3d634946	0.0554898
139	0xbdf01315	-0.117223896
140	0xbd8d7510	-0.069070935
141	0x3e26c86c	0.16287392
142	0x3c4f580f	0.012655272
143	0xbcac126b	-0.021004876
144	0x3dd8acd4	0.10579839
145	0xbd5151ef	-0.05110353
146	0x3e02fd41	0.12791921
147	0x3e00fd5a	0.12596646
148	0xbdf487a4	-0.11939934
149	0x3dcfce66	0.10146789
150	0x3d86c320	0.06580186
151	0x3de003cd	0.10938225
152	0x3c2e9868	0.010656454
153	0x3d42a703	0.047522556
154	0xbdf8a717	-0.12141245
155	0xbc9a76f6	-0.018855553
156	0x3dda4a1e	0.10658668
157	0x3e09cf3e	0.13457963
158	0x3d77dcbe	0.06051325
159	0x3d620733	0.055182647
160	0xbd98b8de	-0.074571356
161	0x3c8113e4	0.015756555
162	0x3dd4535c	0.10367462
163	0xbddb1047	-0.10696464
164	0x3e047054	0.12933475
165	0x3dc9e022	0.09857203
166	0xbde6615d	-0.11249039
167	0xbdf76d9f	-0.120814554
168	0xbdfe2212	-0.12408842
169	0x3c07d669	0.008290865
170	0x3dec48f0	0.11537349
171	0xbb33c400	-0.0027430058
172	0x3db6d739	0.08927769
173	0x3dafb521	0.085794695
174	0xbe0fd1f7	-0.14044939
175	0xb99ff004	-0.0003050567
176	0x3d2ff8e6	0.042961977
177	0x3d2507e3	0.040290724
178	0x3cd227be	0.025653716
179	0x3be643e4	0.007027136
180	0xbe0c560d	-0.13704701
181	0xbd9bba8f	-0.076039426
182	0xbd7f2405	-0.06229021
183	0x3dfad976	0.12248509
184	0xbe0d85b1	-0.1382053
185	0xbd1a7c98	-0.037716478
186	0xbd91e88f	-0.07124435
187	0x3d47e319	0.04880056
188	0xbdafb516	-0.08579461
189	0x3cb4bd2e	0.022062864
190	0x3d9e7267	0.07736664
191	0x3dcded45	0.10055021
192	0x3d813d51	0.06310523
193	0x3dcb66e4	0.09931734
194	0x3dc54e12	0.09634031
195	0x3dfc5e66	0.123226926
196	0xbe176ba3	-0.14787154
197	0xbde7c327	-0.11316519
198	0x3db22bf4	0.0869979
199	0xbcc4dc29	-0.024030762
200	0x3e0f4c21	0.13993885
201	0x3ddfed12	0.109338894
202	0xbd085121	-0.033280496
203	0xbe0e63db	-0.1390528
204	0x3e27dae6	0.16392097
205	0x3d8fda0d	0.07024012
206	0xbdf9bf19	-0.12194652
207	0xbd152298	-0.036409944
208	0x3db1e7d6	0.08686797
209	0xbc1a7c19	-0.009429001
210	0xbe1ca585	-0.15297516
211	0xbda920db	-0.0825822
212	0xbda1c6f4	-0.078992754
213	0x3ce1eb72	0.02757809
214	0x3cdd33ae	0.027002182
215	0xbda9a556	-0.082834885
216	0x3e177f16	0.14794573
217	0xbc52ae90	-0.012859002
218	0xbdaf6b31	-0.08565367
219	0x3dea2f3f	0.11434793
220	0xbd8595b6	-0.06522696
221	0x3daa2958	0.08308667
222	0xbdcb9a3f	-0.099415295
223	0x3c9e21b7	0.019303186
224	0x3e0f3575	0.13985236
225	0x3e01d697	0.12679516
226	0xbe0fe1ce	-0.14050981
227	0xbd231bea	-0.039821543
228	0x3c249ba1	0.01004687
229	0x3dace868	0.084427655
230	0x3e22101b	0.15826456
231	0xbdbf70c5	-0.09347681
232	0xbd08b1f9	-0.033372853
233	0x3bc88c6c	0.006120255
234	0x3de54db9	0.11196465
235	0x3e1489c2	0.14505675
236	0xbda30621	-0.07960153
237	0xbc130a60	-0.008974642
238	0xbdd7db8c	-0.10539922
239	0xbb6444e4	-0.00348311
240	0x3da49624	0.080364496
241	0xbc7cecae	-0.015437288
242	0xbbda3cec	-0.0066600945
243	0x3b6581d4	0.003502001
244	0xbd545a8a	-0.051844157
245	0x3cb3ddf1	0.021956416
246	0xbd6c68f2	-0.05771727
247	0xbcd4a85a	-0.025959183
248	0x3c47b241	0.012188495
249	0x3e261ba1	0.16221477
250	0x3df42cde	0.1192262
251	0xbe1ade25	-0.15123804
252	0x3c2e37fe	0.010633467
253	0xbd2d51f6	-0.042314492
254	0x3d6afdf4	0.057371095
255	0xbe02abb3	-0.1276081

2.bias f4 [50]
0	0x3e12ed78	0.143484
1	0x3dd28007	0.102783255
2	0x3e362c50	0.17790341
3	0x3d8fb2ff	0.07016563
4	0x3d27c287	0.040957
5	0x3c034064	0.008010957
6	0xbd31c067	-0.04339638
7	0x3c46e260	0.012138933
8	0x3d0fffec	0.035156175
9	0xbc9ac85e	-0.01889437
10	0xbdadc037	-0.08483928
11	0xbc12b2b1	-0.008953736
12	0x3dd11be1	0.102103956
13	0x3e154d6f	0.1458032
14	0x3e04b5e8	0.12960017
15	0xbe11137c	-0.14167589
16	0x3e1a659d	0.15077825
17	0xbdaae1b4	-0.08343831
18	0x3d865fb1	0.065612204
19	0x3d194c34	0.03742619
20	0x3e11763b	0.14205258
21	0x3ba4848a	0.0050206827
22	0x3a8fc772	0.0010969474
23	0xbdb19551	-0.08671058
24	0xbb82f415	-0.003996382
25	0xbd5aa2f9	-0.05337808
26	0x3e41f033	0.18939285
27	0xbb552bff	-0.0032527444
28	0x3e10f540	0.14156055
29	0xbde66f18	-0.11251658
30	0xbd7145af	-0.058904346
31	0x3e32edc4	0.17473513
32	0x3de0d38b	0.109778486
33	0xbd81a151	-0.06329597
34	0x3c70e9e7	0.014704204
35	0xbdd34fc4	-0.103179485
36	0x3d2b8ee0	0.041884303
37	0xbb62f66e	-0.0034631747
38	0x3e119b6a	0.14219442
39	0xbd92daf0	-0.07170665
40	0xbda380fe	-0.07983588
41	0x3e2a6824	0.16641289
42	0x3d07be84	0.033140674
43	0xbdc235e3	-0.09482934
44	0xbd8cbf4d	-0.06872425
45	0xbd466927	-0.048440125
46	0xbc8a109b	-0.016853621
47	0xbddf6f0d	-0.10909853
48	0xbdb226e1	-0.08698822
49	0xbd151f34	-0.03640671
