Linear_2.onnx (onnx, 105481 bytes, 20 tensors)

0.bias f4 [50]
00000000: 5aad 363d b30e 22bd 76c7 7a3c cf0f 8b3d
00000010: ebe8 bfbb 62e2 a03d 40b0 00bb 6657 793d
00000020: 8424 a83d 0c8d d73b 6862 e0bc 2f11 9ebd
00000030: b3da bdbc 1b1c d4bd 770d 183c f595 003d
00000040: 30c6 aa3c d50d 79bc 6fcb 103d adc6 5abd
00000050: e8cc 223d 004c c43d 4a6f 3c3d 97ef 75bc
00000060: b3e6 a63d 9620 55bd 4ee4 3c3d b12b a03d
00000070: f82b 9bbd 0a18 67bd 7090 0e3d 51e6 813d
00000080: 94bb df3d 00cf 13ba 969a a3bd bace 83bc
00000090: dbea bb3d 171a a53d 6092 17bb 87db 0ebd
000000a0: 2101 c23d 984c d5bc ca74 7fbd 0276 12bd
000000b0: 1eeb a33d bbfb b43d d415 87bd e02a b93c
000000c0: ff78 e0bb dbf7 043d
0.044598915 -0.0395648 0.015306344 0.067901246 -0.0058566234 0.07855679 -0.0019636303 0.060874365
0.0821009 0.0065780934 -0.027390674 -0.07718121 -0.023175573 -0.10356923 0.009280554 0.03139301
0.020846456 -0.015201052 0.03535026 -0.05341213 0.039746195 0.09584808 0.04600457 -0.015010736
0.08149471 -0.05203303 0.046116166 0.078208335 -0.07576746 -0.05641941 0.034805715 0.063427575
0.109244496 -0.00056384504 -0.07988469 -0.016089786 0.091756545 0.08061617 -0.0023128018 -0.034877326
0.094728716 -0.0260375 -0.062367238 -0.035757072 0.080038294 0.08837076 -0.0659596 0.022603452
-0.0068503614 0.032462936

0.weight f4 [50, 100]
00000000: c613 a73c 2406 dc3c 4012 fc3c cc62 e0bd
00000010: b243 9bbd bab8 743d 9f01 5c3d 05e1 3c3d
00000020: 9fd7 7c3c 31df a53c 57f1 8fbc 2c74 403d
00000030: 12e7 803d baef e1bd 335f babc 3c71 d03d
00000040: ef27 e53b 8e93 10bd 3fd2 dabb f500 543d
00000050: 7f61 c03d 4bcc b83d ce8c a9bd 09f1 153d
00000060: 921a bbbd 5fc2 e2bc e530 7fbc a3b2 39bd
00000070: b55b babc c973 0fbd d910 063d aacf f5bc
00000080: 73fd 983d 318b 393c 4ad0 e5bd abc7 91bc
00000090: a269 1ebd a390 733d 8097 5b3d cfad f4bd
000000a0: 917c 0d3d 3d9e 77bd 0299 483d 45e0 233d
000000b0: 26ce e8bc 4308 56bc b27c 3fbd 3446 02be
000000c0: cb34 9b3b 10a7 823d 6255 4fbd d1e8 3e3d
000000d0: 90f4 833d 32dd 95bd 1919 a0bc 24f9 d03d
000000e0: 3ebf 983d 4e7e cabd 1ce7 aebc 0ec0 adbd
000000f0: 7be4 233d 2f91 a9bc 3a75 dd3d 4a18 d4bc
00000100: f75c 993b 5b15 a3bd a751 d9bc f442 40bc
00000110: 36bb c73d ea46 d2bd f36a f0bd b014 2dbd
00000120: 67ca 82bd 26c8 93bd 55c1 98bd 158c eebd
00000130: 6cc8 5ebb 7a36 573d 194e 61bd df04 1cbd
00000140: 77f5 bf3d 53b4 a03d 0c29 753c df89 debc
00000150: 9d32 d13c a4d0 923c a6a9 2a3d a80a 11bd
00000160: 37b0 81bd 4f67 783d d3b7 5d3d 0208 4fbd
00000170: 4be2 25bd b1ed 3bbb 8795 6c3d cc8d 5e3d
00000180: 0747 433c f0c7 b9bd 7519 023c 4765 30bd
00000190: e286 e2bd fe6c 9c3d 9db0 0d3d 80e0 e9bd
000001a0: 6897 e23d ba42 f43d 5cb3 01bd eb20 a43c
000001b0: 74a8 17bd 827e b93d 3e66 c5bd 662c e5bd
000001c0: f444 2b3b 3ae2 c43c 2dc4 aa3d bb36 3bbd
000001d0: 5214 153d 8903 523d 7db6 443c 245c 143d
000001e0: 0adb d13d 5c52 40bd fd9a a6bd 8c4f 05be
000001f0: 85a2 adbd d057 443d 1abd 7bbd 8c6a 46bd
00000200: 88a2 d83d 4974 373d bff7 f6bd 58ef f73d
00000210: 3f2d b3bc bfad 9f3c 92eb b7bc 3d95 c0bc
00000220: dbe9 e13d 7803 4e3d 6430 0c3c 14be f53d
00000230: 701a 95bd f00f c1bb 6206 fc3d 8e8a 7dbc
00000240: 7bfe c7bd 12de 6f3d 6208 2dbd 3c7d 1a3d
00000250: 8c6f cc3d 027e 4f3c 5ea8 f7bd dc60 bc3b
00000260: a8e2 87bd 6142 0fbc f504 393d 05d3 b63c
00000270: f9ad 59bd a0d2 05be 6d21 f4bd b657 0d3c
00000280: 5afc 65bc 55a5 b03c 4935 43bd 5a1b a83d
00000290: 5d9d 1abd df0a 843d 2b4e 06bd cc2c 5ebd
000002a0: 0268 243d 629c d33c 6066 6cbd 16f7 f1bb
000002b0: b338 b23c ea47 83bd 3b04 3f3d 6fbf 67bc
000002c0: 5a49 f43d 4a1f 0abc cf36 b93c 8aaf 563d
000002d0: 1cf6 8cbd 4498 4d3b a49c d3bc 0f54 803a
000002e0: aab9 d73d e891 e73d 4eac edbd 56b6 9bbd
000002f0: 75f7 08bd e87b 83bc e26a 563c 6b87 e03d
00000300: 2c65 043e 4758 e13d c270 26bc 80d1 203b
00000310: 82b4 843d d148 c7bc 9c76 03be d59a 873c
00000320: c116 e83c 35ad 703c 9376 8c3d b2ce cebd
00000330: 945a cc3c 643c 65bc 4a5f a83c 3b91 a5bd
00000340: 759c b3bd b371 cbbc 7752 913d 8466 9b3d
00000350: 8825 d03c be17 5e3d 1277 65bc bb04 42bd
00000360: 33b5 65bc a6e8 0abc b1f5 c8bd 93cb 823d
00000370: de5f cdbb c820 f43d 8169 d0bd 2285 cb3d
00000380: dec9 8abd ced9 7fbd bc52 353d 1bde 56bd
00000390: 36a2 03bd b48b a93d de8d bcbd 4d27 0c3d
000003a0: 119e ca3c 0a04 acbc 2b7b 1cbd a29d c73c
000003b0: dd0a 1f3d 04a2 26bd da36 123a 45a9 2abd
000003c0: 831b b63d 86c9 c1bd 0243 803d 0230 82bd
000003d0: dbd5 28ba 9469 8bbc 457c 4b3d f8a0 fa3c
000003e0: 28f9 44bd 4aaf 99bc fea1 acba c491 4f3d
000003f0: 8da2 df3c 138c 593c 5786 0b3c 65bf 563d
0.02039517 0.026858397 0.030770421 -0.10956344 -0.07581271 0.05974648 0.053712483 0.046113033
0.015432267 0.020248028 -0.017571134 0.04698579 0.06294073 -0.11032052 -0.022750473 0.10177848
0.006993286 -0.03529697 -0.0066778953 0.051758725 0.09393596 0.09023341 -0.082788095 0.036606822
-0.09135927 -0.027680574 -0.015575622 -0.045336377 -0.022748807 -0.03502253 0.03273091 -0.030006249
0.074702166 0.01132469 -0.112213686 -0.017795404 -0.038674958 0.05946411 0.05361128 -0.11947214
0.034542624 -0.060453642 0.048974045 0.040008802 -0.028418612 -0.013063493 -0.046749778 -0.12722093
0.004736518 0.06379521 -0.050618537 0.04660875 0.06443131 -0.0731758 -0.019543217 0.1020377
0.074583516 -0.09887372 -0.021350436 -0.08483897 0.040012818 -0.020699112 0.10813375 -0.025890488
0.0046802717 -0.079630576 -0.026528193 -0.011734713 0.097525045 -0.10267432 -0.11739149 -0.042256057
-0.063862614 -0.0721591 -0.0745875 -0.11647812 -0.0033993972 0.052542187 -0.05500612 -0.038090583
0.093729906 0.07846894 0.0149634 -0.027165351 0.02553683 0.017921753 0.041665696 -0.035410553
-0.063324384 0.060645398 0.054130387 -0.050544746 -0.040499013 -0.002867561 0.057759788 0.054334447
0.01191879 -0.09071338 0.00794064 -0.043065336 -0.11060883 0.07637976 0.03459226 -0.11419773
0.11064035 0.119267896 -0.03166519 0.020035228 -0.037025884 0.090573326 -0.09638642 -0.11190109
0.0026133629 0.024033654 0.08338199 -0.045706492 0.036396332 0.051272903 0.012006399 0.036220685
0.102468565 -0.046953544 -0.081350304 -0.13018626 -0.08478264 0.047935307 -0.06145964 -0.048441455
0.105778754 0.044788633 -0.120589726 0.12106198 -0.021872161 0.019492028 -0.022451196 -0.023508662
0.110309325 0.050296277 0.008556459 0.11999145 -0.07280433 -0.0058917925 0.12305905 -0.015474929
-0.09765335 0.058561392 -0.042244323 0.03771709 0.099822134 0.01266432 -0.1209266 0.005748851
-0.06635028 -0.008743853 0.045170743 0.022317419 -0.05314443 -0.13068628 -0.11920438 0.008626869
-0.014037216 0.021563211 -0.04765824 0.08208342 -0.03774773 0.06447386 -0.03278939 -0.05424194
0.040138252 0.025831405 -0.05771482 -0.0073841913 0.021755552 -0.06410201 0.046634894 -0.014144762
0.11928053 -0.008430311 0.022609143 0.0524135 -0.06882879 0.0031371275 -0.025831528 0.0009790676
0.105334595 0.11307126 -0.1160513 -0.07603137 -0.03343912 -0.016050294 0.013087006 0.10963329
0.12929219 0.11003166 -0.0101587195 0.0024538934 0.06479742 -0.024326714 -0.12838215 0.016553322
0.028331162 0.014689733 0.06858554 -0.10098018 0.024945535 -0.013991449 0.02055325 -0.08084341
-0.08770076 -0.02483449 0.07095807 0.07587913 0.025408521 0.05422186 -0.014005439 -0.047367793
-0.014020252 -0.008478319 -0.09812487 0.06386485 -0.006267532 0.11920315 -0.10176373 0.099375024
-0.06776784 -0.062463574 0.044268355 -0.05245791 -0.03213712 0.082785994 -0.092067465 0.034217168
0.024733575 -0.02099802 -0.0382034 0.024367157 0.03882872 -0.040681854 0.00055776315 -0.041665334
0.08891966 -0.09462266 0.06262781 -0.06356813 -0.00064405584 -0.017018117 0.04967906 0.030594334
-0.048089176 -0.018760342 -0.0013170836 0.050676122 0.02729919 0.013278025 0.008515916 0.05242862

10.bias f4 [50]
00000000: fd10 e73d adaf f5bd 7b61 f2bd f290 64bd
00000010: 821a 80bd 7e40 413d b20c b5bd 92b3 c43d
00000020: 9301 ef3d 54c8 e0bd 64e7 0ebd 9c6d e83d
00000030: 54a3 aabc 234d a13d d028 02bd 6eb6 d83d
00000040: 8f83 a83d 3c85 b1bd 4a79 143e 9a28 543b
00000050: 40d5 33bc e049 d1bb ef63 883d 84ab 253e
00000060: 4de8 0dbe e426 01be 2317 62bd 5846 e93c
00000070: ce3b 3f3b 0d9d c03d 2469 3bbd 6ae0 973d
00000080: 46d7 03be e3d7 64bd b3c0 b3bd ba09 b2bb
00000090: 3333 a13d 744f c2bd bdbd 863d 4fa3 13bd
000000a0: a219 cebd d03d 433d bb0c 123e 0448 e73c
000000b0: 3531 303e 3be3 c4bd 03b9 1a3d 1f10 cd3d
000000c0: 4a5f 64bd 29f0 833d
0.11282537 -0.11996398 -0.11834999 -0.055802293 -0.06255056 0.047180645 -0.08840312 0.09604563
0.11670222 -0.109757096 -0.03488864 0.11349031 -0.020829834 0.07876041 -0.031777203 0.10581671
0.08228218 -0.086679906 0.14499393 0.0032372833 -0.010976136 -0.0063869804 0.06659686 0.1617871
-0.13858147 -0.12612492 -0.055197846 0.028475925 0.0029179933 0.09404955 -0.045754567 0.074158505
-0.12875089 -0.055869948 -0.08776989 -0.0054332884 0.078710936 -0.09487811 0.065791585 -0.036044415
-0.10063483 0.04766637 0.14262669 0.028232582 0.17206271 -0.09613653 0.037774097 0.100128405
-0.055754937 0.06442291

10.weight f4 [50, 50]
00000000: 7d69 29bd b43e 0abe 8635 49bd af29 00bd
00000010: 2569 a93d 09f3 e93c a307 b73d 5209 fa3d
00000020: 7b92 413b 33e1 873b 2901 9d3d 73b5 a9bd
00000030: fd79 223d e15a 8d3d 348d b7bd 4c46 733d
00000040: 373f 1b3e 9597 0abe 9a4b ccbd 785d 0ebe
00000050: 9380 093e 469d 5ebd 1818 a8bd fd83 adbd
00000060: 75d0 85bd 8f85 e9bd 04cd adbd 18f2 883c
00000070: f308 dbbd 4e2c 173c b561 033e 562a 273e
00000080: d812 08be 6a1d 413d 3c8f adbc 0872 47bd
00000090: f57d 933c 32f3 203d 4be3 92bd 90be febd
000000a0: bbf5 ad3d 4a37 71bd 24fb 1ebd c2ce 883d
000000b0: bd1a ec3d a80f a23d d63e 323d 33d6 113e
000000c0: a495 3ebc 3427 89bd e55f 46bd a0ea f03c
000000d0: add8 cb3c 623e f83d a90f 163d 9336 0cbd
000000e0: c758 123e 4513 b8bd 76f5 883d 1c24 7e3d
000000f0: 89a9 0c3e 817d 9f3d 3052 163e 0656 053e
00000100: 9c4e 4a3d 9cb3 443d 8f95 b0bd acba a3bd
00000110: ad20 1cbd 42f2 f23c 453f 863c 8cd7 c93d
00000120: a4ef 853d 8728 9fbd 3fd6 0d3e e499 053d
00000130: e82e 003d fa7c b23d 1392 c0bd ca98 5fbd
00000140: 9509 103e 2bdc bebc a6b9 a6bd ab5a 0b3d
00000150: d935 913d bcaa 4d3d 7580 a5bc 85e6 1e3e
00000160: cbd1 f83c 7052 913c e2a3 dbbd bfef 503d
00000170: 7083 cb3d 66ad 483c 9df1 9e3d e6ee 20bd
00000180: 6a1b bb3c e48c 33bd 9cdb 413d 3a42 dfbd
00000190: 5026 573c 7aac e7bd 1254 ff3d e005 92bd
000001a0: 2a6f b7bd f2c2 b1bd eaf3 fe3d 3c67 9a3d
000001b0: 20f0 a6bc 2423 1ebd c086 733d b800 913d
000001c0: 4346 f8bd 5ce8 dbbd 06c5 f63d fe1f 08be
000001d0: 26f2 81bd 462c e5bd 7e39 f33d 8e6c e03d
000001e0: 803b 233b 8ef7 e53d ccfe ad3d e8fa d2bd
000001f0: 60b6 a73b 74e7 6ebd 70e9 963d fe2f 08be
00000200: d9ce d6bd b6d6 afbd e853 203d d3dc 0ebe
00000210: 81c2 023e 9adf fabd 10d3 f0bd c0fc 11bd
00000220: 780e ae3c f4fb b13d 9e6e 3cbd 2b16 06be
00000230: d0ef 58bc bc36 613d cd42 073e e89b 003d
00000240: 4834 543d 332b 95bd 3c29 b33d 6006 a7bb
00000250: 10d0 b83c 6092 4c3d 7274 f3bd edb8 8bbd
00000260: 9885 33bd 68c0 0bbd 26ac 7ebd bcc4 f7bd
00000270: 78d1 af3d fac8 06be eadc 3fbd d805 a1bd
00000280: dc9a be3d 18b4 c9bd 7a56 e4bd d239 e7bd
00000290: a62c 05be 5f41 fabd 9adb cabd 786a 3dbd
000002a0: f6c0 ebbd 88ff 6e3d af95 033e d288 f33d
000002b0: 2374 07be 0530 fabd 57c2 8ebd 8bb3 99bd
000002c0: a493 b13d 6a5d 91bd 1a04 abbd 8775 90bd
000002d0: 3c3c 603d 0624 df3d 6447 d73d 1cf5 20bd
000002e0: c030 a23c 58dc fd3c a216 f13d da3a e53d
000002f0: 00c2 babb 1e30 c63d 82e8 ff3d 3c9d f0bd
00000300: 9927 fabd f5e1 f6bd e0a5 9cbd ff5e 84bd
00000310: 7765 ffbd f083 923c 0a4f 97bd 9001 d83c
00000320: c810 bd3c 00f5 023a 4816 013d 562a f83d
00000330: a088 a93d 2c30 2a3d 0ef3 00be 5cdd 293d
00000340: 0cac 313d 18aa fb3c 7847 08bd 256d f6bd
00000350: e215 dd3d 111a 99bd ac3d 3f3d 806d 9dbd
00000360: c6ec 5abd ca4b 59bd 22bc b0bd e4d5 dfbc
00000370: d439 293d 001e 6b3d c03b 883b 3848 aa3c
00000380: bfc0 8ebd 6a14 f93d f01c d03d b860 35bd
00000390: 5e9b 04be db48 083e c073 10bc 4865 d3bc
000003a0: 786d 6bbd 422c 9ebd 1681 af3d 591a 99bd
000003b0: e191 0e3e 8016 fe3c 389d 83bc f6ba 0fbe
000003c0: b9c2 0b3e c64b 933d 30f4 e7bd 5f4c febd
000003d0: 00d3 98ba 00c0 1f3a f010 e2bc 164b f8bd
000003e0: 31c5 103e 2040 9b3b 06d1 9cbc 888d 9b3d
000003f0: 93a9 983d 5686 cbbc 3991 f7bc fdf7 1bbd
-0.041360367 -0.13500482 -0.04912331 -0.031289753 0.08272008 0.028558271 0.089370035 0.12208809
0.0029536772 0.004146719 0.07666237 -0.08286562 0.03966712 0.069020994 -0.08962479 0.059393212
0.15160833 -0.13534386 -0.09975357 -0.13902843 0.13427953 -0.054349206 -0.082077205 -0.084724404
-0.06533901 -0.114024274 -0.08486369 0.016717002 -0.10695066 0.009226872 0.12830241 0.16324744
-0.13288438 0.047147192 -0.021186464 -0.048692733 0.018004397 0.03929443 -0.07172259 -0.12438691
0.08494135 -0.05889062 -0.038813725 0.06680061 0.115285374 0.079131424 0.043516956 0.14241867
-0.011632357 -0.066969305 -0.048431296 0.029408753 0.024883593 0.121212736 0.03663603 -0.034231734
0.14291678 -0.0898805 0.06687443 0.062046155 0.13736548 0.0778761 0.1467979 0.13021097
0.049391374 0.04802285 -0.08622276 -0.07994589 -0.0381171 0.029656533 0.016387591 0.098555654
0.065398484 -0.07771402 0.1385126 0.032617465 0.031294733 0.08715244 -0.094028614 -0.05458907
0.14066155 -0.023298344 -0.081408784 0.034022015 0.07090349 0.050211653 -0.020202855 0.15517624
0.030373475 0.017739505 -0.107246175 0.05100989 0.09937179 0.012248373 0.07760928 -0.03929033
0.02284022 -0.043835536 0.047328576 -0.109013036 0.013131693 -0.11312194 0.12467207 -0.07130027
-0.0895675 -0.08679761 0.12448867 0.07539222 -0.020378172 -0.03860773 0.05945468 0.07080215
-0.12122776 -0.107376784 0.12049298 -0.13293454 -0.06345014 -0.11190085 0.118762 0.10958205
0.002490729 0.11228858 0.08495864 -0.10301763 0.0051181763 -0.0583262 0.073687434 -0.13299558
-0.10488672 -0.08585875 0.03914252 -0.13951425 0.1276951 -0.1224968 -0.11759007 -0.03564143
0.021247134 0.08690634 -0.04600393 -0.13094394 -0.0132407695 0.05498384 0.13209076 0.031398684
0.05180767 -0.0728363 0.08748099 -0.0050971955 0.02256015 0.04994428 -0.118874446 -0.06822381
-0.043828577 -0.03411904 -0.062175892 -0.12098071 0.08584875 -0.13162604 -0.04684154 -0.07862443
0.09306881 -0.09848803 -0.111493066 -0.11290325 -0.13005313 -0.122195 -0.09905167 -0.046244115
-0.11511414 0.058349162 0.12850069 0.11891331 -0.13227896 -0.1221619 -0.06970661 -0.07504948
0.08670738 -0.070978954 -0.08350392 -0.070536666 0.054744944 0.10895543 0.105116636 -0.039296255
0.019798636 0.030988857 0.11771895 0.11192866 -0.005699396 0.096771464 0.12495519 -0.1174874
-0.12214584 -0.12054817 -0.07648826 -0.064634316 -0.12470525 0.017885178 -0.073881224 0.026367933
0.023079291 0.0004995614 0.03151539 0.1211745 0.08278012 0.041549847 -0.12592718 0.04147087
0.043376967 0.030720755 -0.033271283 -0.120325364 0.107951894 -0.07475675 0.046689674 -0.07686901
-0.05344846 -0.053050794 -0.086296335 -0.02732367 0.041314915 0.057401657 0.0041575134 0.02078639
-0.06970357 0.12162097 0.101617694 -0.04428169 -0.12949893 0.13309042 -0.008816659 -0.02580513
-0.057477444 -0.07723285 0.08569543 -0.074757285 0.13922836 0.031016588 -0.016066179 -0.14036164
0.136485 0.07192187 -0.11325872 -0.124169104 -0.0011659563 0.0006093979 -0.027595967 -0.121236965
0.14137723 0.004737869 -0.019142639 0.07595354 0.07454219 -0.02484433 -0.030220615 -0.038078297

12.bias f4 [50]
00000000: 6008 0dbe c27e cabd 3016 fa3c 8f96 7e3d
00000010: c46f d1bc 13a7 3cbd 8e1b 3fbd 9803 a03d
00000020: 7502 ec3d 6407 c73d dc3e 04bd 76ca 9e3d
00000030: d453 94bd 3f52 be3c c290 423d 7251 18be
00000040: 8fba b1bd d5ec 82bd 59c3 d5bd 5869 453d
00000050: 53cd e93d 8b52 eb3d 04d4 453d fb69 9d3d
00000060: a86a 02be 90ba a73c a40b 8d3c 625f 43bd
00000070: 7043 f83d 032a 1cbe 4d20 88bd 76a6 f8bd
00000080: 0456 be3b 20bd fa3d 786c 273e 2377 783c
00000090: fec1 b8bd 8333 b03d 26fd f0bd 4403 fe3c
000000a0: b957 f0bc d788 aa3c 404e dfbb c805 25bd
000000b0: 563f f2bd 0afe 37bd e18f c83d 4867 bbbd
000000c0: d586 22bd ec5c b9bd
-0.13772726 -0.098874584 0.030528158 0.062155303 -0.02556599 -0.046057772 -0.046657138 0.078131855
0.11523906 0.097182065 -0.03228651 0.0775346 -0.072425514 0.023232577 0.047501333 -0.14874819
-0.08678161 -0.063928284 -0.1043765 0.048196167 0.114161156 0.11490353 0.048297897 0.0768623
-0.12735999 0.020474702 0.017217465 -0.047698386 0.12122238 -0.15250401 -0.06646786 -0.12141125
0.0058085937 0.12243104 0.16349971 0.015165123 -0.09021376 0.08603575 -0.11767034 0.031007417
-0.029338704 0.020817203 -0.006814748 -0.040288717 -0.118284866 -0.044920005 0.09793068 -0.09150559
-0.039679367 -0.090509266

12.weight f4 [50, 50]
00000000: 899d 093e 10de 5abc 16d7 cebd 9884 f83c
00000010: ea76 bfbd b68b 09be e4a0 dd3d d6fb bc3d
00000020: 4d64 0fbe b8f5 0f3d 5eea 1ebd 90a0 bb3c
00000030: 5274 efbd 40e9 423b fa1f 9b3d 52cd 43bd
00000040: f23b 813d 1e5d 04be b115 80bd 144c d7bd
00000050: da66 10bd cc1b c63d e776 01be a8f4 e7bd
00000060: 784e b1bd 991a 0e3e 808c 2fbc 1edb 8e3d
00000070: 363b 0cbd ce58 f53d 70e9 bc3c d4b7 b0bd
00000080: e8d8 cbbc 60bc 083c b106 97bd 82cb ee3d
00000090: a88b 09bd d458 d73d 90e6 cfbd f429 c83d
000000a0: 37ef 02be 8024 8cbb f6c0 02be 6088 1dbc
000000b0: ea1e fbbd 94fc 5e3d 58ae 28bd df67 033e
000000c0: 9ecf 8f3d 5a9c f83d 4896 183d 8d64 10be
000000d0: 9093 b33d 68e1 bcbc 5e27 67bd 405a 1f3d
000000e0: 4087 07bc d045 7bbc c532 07be dde6 043e
000000f0: 2483 9c3d 5226 abbd 2c3d 633d d035 bc3d
00000100: d06a e53c 0c6b 7abd e8c6 223d 24dd 2f3d
00000110: 6441 ab3d b897 d9bc 6827 d53d f6d0 e2bd
00000120: 460d 3dbd 24a9 993d 3974 0a3e 39c3 01be
00000130: 840b 7ebd 586c b63c f259 e1bd 0661 df3d
00000140: 6ef2 8b3d 7a13 cbbd 841c 8b3d 80a6 c7bd
00000150: 5687 91bd 09de e9bd e0fa dbbb d0c1 6b3c
00000160: 009c ddb9 a857 f03c be01 3fbd 08aa a73d
00000170: 78f3 533d 2e44 11bd 62fa 3bbd 9cea 09be
00000180: 455d 003e d08f 263c e822 6e3d 0c5e 61bd
00000190: a189 793d 600d bb3d 06b7 c53d fe68 c9bd
000001a0: 64c3 83bd 40f8 b1bd 228b 3fbd f4bb 0fbd
000001b0: 9534 013e 9e23 69bd 6b5c 003e 7422 a2bc
000001c0: 3050 033c 5c33 8a3c 4f3b 533d 26e3 af3d
000001d0: 13b7 dfbc 5c22 263d c44e b83c ed4d f7bd
000001e0: 08fe d4bc 6a70 82bd c9c1 c93d 6411 073e
000001f0: cda5 f5bd 8862 133c 3896 333d c6d6 c53c
00000200: 6068 0b3e c805 843d 0894 10be 48ba f63d
00000210: a025 23bc 2a39 ac3d 5448 a93d 909f c33d
00000220: 623a 173e b438 c3bd 356f ab3d e0e5 d73d
00000230: c024 80bc efca 2a3d 90f0 5b3d abe1 08be
00000240: a8f8 e43c 3191 75bd b0af c2bd fd59 cebd
00000250: 2836 a93c 3f66 9fbd 161f f93d e033 1e3e
00000260: 8e09 02be 0077 5d3b 8a6b b9bd 8752 88bd
00000270: 2c41 eabd 3b21 083e 019a 1f3d 34f6 28bd
00000280: 344e debd 817e 353d 8086 d13a 3298 afbc
00000290: e47b c23b 141b d6bd 29b5 f7bd ee81 9d3d
000002a0: b284 d1bc 9272 00bc b69b c03d c8c8 07be
000002b0: c4a6 cbbc 24f5 0a3d a581 00be 5a03 823c
000002c0: 949b dc3d 9a53 19bd 3561 c23d f65b 203e
000002d0: a4c6 4e3d bdb0 ecbc 2519 103e 5855 04bd
000002e0: cc2e aabd 0ea2 1c3e ca92 a23c 36c6 9e3d
000002f0: 3ab4 c2bd 4170 7a3c 572f 03be 9e1f 173e
00000300: 8fff 7a3d 7144 bc3d 67ce 82ba e895 d33d
00000310: d6b2 bebd 99f7 ffbd c078 5dbb eeb2 0fbd
00000320: 80de 4f3b 4c17 f2bc f0a9 c03c cc81 c2bc
00000330: 600b 633c 45b5 103e 3c1c 4dbd 5268 babd
00000340: f4b1 d53d 808b feba b020 6f3c a836 01be
00000350: 2a41 e6bd b265 86bd b0ec bf3c 4ab1 833d
00000360: 2050 993c 4cb5 d73d c297 b73d cecc 96bd
00000370: 000b 75ba 5054 dbbd 80aa 4bbd d0ab 933d
00000380: 9f9d 033e 84b5 883d 0809 d9bd 02ec 72bd
00000390: 80ac 2dbb aede b5bd 180b 9d3d 3762 dcbd
000003a0: 8305 88bd 313a 053e 3c7e 463d 865d f73d
000003b0: 2066 65bc 181a 35bd ec3f 32bd b015 b83c
000003c0: cca2 3cbd e29a 0cbe cdfc 0c3e bad7 af3d
000003d0: 2036 423c 60b9 8c3b 5fd2 efbd c862 c63c
000003e0: f454 0cbd 78a9 7dbd a669 373d 4c80 b73c
000003f0: 502e 0abd e879 ecbd 6cba 593d 9eef 293e
0.13439001 -0.013358608 -0.10099618 0.030336663 -0.09348853 -0.13432202 0.10821703 0.092277214
-0.14003105 0.035146445 -0.03879773 0.02290371 -0.11692108 0.0029741079 0.075744584 -0.04780323
0.06310262 -0.12926146 -0.06254137 -0.105125576 -0.035254337 0.096732706 -0.12643014 -0.11325961
-0.08657545 0.13877334 -0.01071465 0.06975387 -0.034236155 0.11979829 0.02306053 -0.086288124
-0.024883702 0.008345693 -0.07374323 0.1165991 -0.033580452 0.105149895 -0.10151398 0.09773627
-0.12786566 -0.004276812 -0.12768921 -0.009615034 -0.12261756 0.054440096 -0.041181892 0.12832592
0.07022022 0.12139197 0.037252694 -0.14100857 0.0876838 -0.0230567 -0.056434028 0.03890443
-0.008271992 -0.015336469 -0.13202961 0.12978692 0.076422006 -0.083569184 0.05547826 0.091899514
0.028005034 -0.061137244 0.039740473 0.042935506 0.08362082 -0.026561603 0.10407907 -0.110750124
-0.046155237 0.07502964 0.13520898 -0.12672128 -0.0620227 0.02226846 -0.11003484 0.109071776
0.06833349 -0.09915824 0.06792548 -0.09748554 -0.071058914 -0.11419303 -0.0067132562 0.01438947
-0.00042268634 0.029338673 -0.04663252 0.08186728 0.05174586 -0.03546541 -0.04589308 -0.13468403
0.1253558 0.0101661235 0.058138758 -0.05502133 0.06092227 0.091334105 0.096540496 -0.09834479
-0.06433752 -0.08689928 -0.046763547 -0.035091355 0.12617715 -0.056918733 0.12535255 -0.01979182
0.008014724 0.016870193 0.051570233 0.08588247 -0.027308976 0.04056011 0.022498496 -0.1207541
-0.026000038 -0.063690975 0.09851415 0.13190228 -0.119945146 0.00899566 0.04384443 0.024150264
0.13614035 0.06446415 -0.1411897 0.12047249 -0.009957701 0.08409341 0.082657486 0.095519185
0.14768365 -0.095323 0.083708204 0.10541892 -0.015642524 0.04169744 0.053696215 -0.13367335
0.0279506 -0.05995292 -0.09506166 -0.10075758 0.020655707 -0.07783174 0.12164132 0.15449476
-0.12698957 0.0033792853 -0.090537146 -0.06656366 -0.11438212 0.13293926 0.03896523 -0.041250423
-0.1085476 0.044310097 0.0015985519 -0.021434877 0.005935179 -0.104543835 -0.120951004 0.07690798
-0.02557597 -0.007839816 0.094046995 -0.13260186 -0.024859793 0.03392519 -0.12549455 0.015870739
0.10771862 -0.037433244 0.09491197 0.1566008 0.050482407 -0.02889287 0.14072092 -0.032307953
-0.08309707 0.15296194 0.019845385 0.077526495 -0.09507032 0.0152855525 -0.12811027 0.14758155
0.061278876 0.09192742 -0.0009979726 0.10331327 -0.09311454 -0.124983974 -0.0033793896 -0.03508275
0.0031718314 -0.029552124 0.023518533 -0.023743533 0.0138576925 0.14131649 -0.050075755 -0.09101929
0.104343325 -0.0019420236 0.014595196 -0.12618506 -0.11242898 -0.065623656 0.023428291 0.064302996
0.018714964 0.105326265 0.089644924 -0.07363282 -0.00093476474 -0.10709441 -0.04972315 0.07210505
0.12853096 0.06675246 -0.10597426 -0.059307106 -0.0026500523 -0.088803634 0.076681316 -0.107609205
-0.06641676 0.1301048 0.04846023 0.12078385 -0.014001399 -0.044214338 -0.043517992 0.022471279
-0.046053693 -0.13730958 0.13768311 0.085860685 0.011853725 0.0042945594 -0.11710047 0.024217024
-0.034260705 -0.061929196 0.04477849 0.022400044 -0.033735573 -0.11546689 0.0531563 0.16595313

14.bias f4 [50]
00000000: 848a 80bd e1dd acbd a72b 22bd 6095 dc3b
00000010: 3771 15be 1079 15be 66bc 62bd 6f2e 2fbd
00000020: c6d0 97bd 143d f23d 42a1 ec3d d03d 5fbc
00000030: e337 1cbe 07da 2c3e cccc d1bc ee06 a83d
00000040: 0505 063e 1613 923d 23dc 06be e95d a73d
00000050: dc22 4dbd 108e 28bd 5183 77bd c673 28bd
00000060: 04b1 d23d d58b d8bc ed6e eb3d d6bf 3bbd
00000070: 5693 063d 0a8c 863d 6357 02be f620 78bd
00000080: 5f57 af3d 2fe8 91bd ccbf 0bbe eae1 b53d
00000090: e80c 563d 0050 803d 3b8d 3cbd 0e7a 24bd
000000a0: 1932 883d 5133 8e3d 8e61 283e fb49 efbd
000000b0: 00bd 44bc 6225 093e 017b 11be 96b8 f3bd
000000c0: 44fe aa3c d79f adbd
-0.0627642 -0.084407575 -0.03959241 0.006731674 -0.1459397 -0.14596963 -0.055355452 -0.042768892
-0.07412867 0.11828056 0.11554195 -0.013625577 -0.15255694 0.16880046 -0.02561035 0.08204447
0.13087852 0.071325466 -0.13169913 0.08172209 -0.050082073 -0.041151106 -0.060427967 -0.041126035
0.10287669 -0.026433865 0.11495767 -0.045837246 0.032855354 0.06569679 -0.12728648 -0.06057831
0.085615866 -0.07124364 -0.13647383 0.0888098 0.052258402 0.06265259 -0.046033125 -0.040155463
0.0665018 0.069433816 0.16443464 -0.116840325 -0.012007952 0.13393167 -0.14207079 -0.11900441
0.020873196 -0.08477753

14.weight f4 [50, 50]
00000000: 4e14 833d 76bb 883d 5a19 f43d 08b7 cfbc
00000010: 22e6 09bd d8a8 94bc 0035 d03a 88da 95bc
00000020: 9032 73bc c69a 973d a08c fa3c 8a09 e03d
00000030: d677 a7bd b338 99bd 44ff 18bd cb60 063e
00000040: b0cd 523c 290d 073e e063 633c 30a3 17bc
00000050: 08a2 483d dd91 85bd f6b5 00bd f6da 31bd
00000060: 6c08 c3bc c095 36bb b83f 80bc e5a5 0a3e
00000070: 2e94 0fbe c03c 3d3d 74b0 3c3d d075 973d
00000080: 90c2 e23c 524f 33bd 8045 75bb 08d0 033d
00000090: e26e fe3d 902f 763d c4f0 043d 9c0e b2bc
000000a0: 345e 2ebd b91b 09be 02ce 4ebd 313c a3bd
000000b0: 5d8a a2bd 7096 103d cc15 3bbd 2057 69bc
000000c0: 30fb 263d 5058 cbbd a22c dcbd b6dd 06be
000000d0: 2e1b 03be c592 b13d a2ad 803d 93a0 b7bc
000000e0: 3383 e8bd a0b4 37bc 56af f13d 7f53 b8bd
000000f0: e463 b1bc dfbf d03c 82fb 5b3d cc5c febc
00000100: f454 b13d 8ffb e3bd be8e 03be 659b e43d
00000110: 78f3 f53d 49ba fdbd a8f3 ca3c 2bea c63d
00000120: de8f a53d e8c1 babc c038 41bb b0a7 2b3d
00000130: c412 eebd a12d 033e 9303 babd 3bfa 57bc
00000140: 478b 063e a40b 553d e5fa 10bd 220f 523d
00000150: 73e8 d13d dc76 debd a244 d53d c15b 083e
00000160: 51b5 56bd 59f5 fd3c f9c7 983d 0723 e3bd
00000170: 3863 6bbd df82 023e d730 4a3d 8a71 d2bb
00000180: 409a ddbd 3c80 08be c2c3 063d f63e 09be
00000190: b1af 003e 4278 e53d ac3c 933a 1c7f 823d
000001a0: 27e3 dfbd d4f0 e7bd 5887 d03d 64b8 a1bd
000001b0: 2caf c8bb 0572 14bc be83 84bd c2bf adbd
000001c0: 6dc6 9b3d 8086 a63c 51a7 cebd 4d45 423d
000001d0: d663 a83d 1fc9 80bd af84 b3bd b080 e63c
000001e0: fb97 b5bc 9509 fd3d 2d44 cb3d 4102 02bc
000001f0: d0d3 c6bd fa33 8e3d 8cd6 9c3d 802d e6bb
00000200: e8ee 7a3b ac2d 9ebd 04d5 9f3d 5015 fa3c
00000210: b5c5 863d 3fb6 dcbd 822b acbd d434 c8bc
00000220: 508e 16bc b265 093e 29eb 393c 9201 373d
00000230: d81b b83d 9cea 05be 54de 503d 5669 df3d
00000240: 5906 113e caab bdbd 81bc 0b3e 48c0 d5bc
00000250: 6b8d f53c 2a7e c33d 32a1 ffbd ecb2 273d
00000260: 105b 0a3c a6b5 29bd 2430 5d3d b4aa 05bd
00000270: c0fd 0ebb dea3 8c3d 2ce6 2f3d 3127 8bbd
00000280: 20e5 6f3c 95bc 033e 1e06 0fbd 1e54 e03d
00000290: 8839 7d3d feef 98bd 364b 2fbd 5224 c0bd
000002a0: e820 d83d 00c6 0d3b 20fd 7fbd b8b8 45bd
000002b0: f0ce 56bc 3c50 693d 972a 9dbd 25d8 98bd
000002c0: f05b 553d a4e8 173d 8d41 f5bd 60e9 993c
000002d0: d304 033e 985c de3d 08e8 d4bd 20dd 42bc
000002e0: ac8b 0f3d 5401 ebbd 7030 593d 3a70 e3bd
000002f0: 9ccd 203d 5441 0abd 14d7 c9bd 078a 013e
00000300: 8c06 6f3d ffc9 bfbd 8009 4f3b 30c8 e5bc
00000310: f00a f4bc a650 a63d fbef 093e 18bf ea3c
00000320: 1859 933d a067 ac3b ea4e ea3d 68fc 813d
00000330: 954f e5bd 77d5 983c cec1 a83d 72cb b83d
00000340: 6c60 7d3c 932e 203d fe26 893d d24a eebd
00000350: 6b3e 2abd 204c e43c 8c58 c7bd 5d36 c43d
00000360: e4d6 053d 16d9 293c 476e bbbd 2602 9f3d
00000370: 742d a93d c130 1bbd 236b 4cbd f88d f6bd
00000380: e88a c43c f2db f43d f2b7 64bd 4cae 553b
00000390: d74f aabc bb4b c9bd 089e 27bd d913 eabd
000003a0: fdb1 a53d 282e fd3d 8129 1e3c 2814 733d
000003b0: 0e69 b3bd 54a3 733d 6c0a 9d3d 9b49 5bbd
000003c0: b0ae db3c 9a13 abbd 3087 4abc 0288 4cbd
000003d0: bc32 9bbd 5883 a43d 867d fb3d 440a 92bd
000003e0: fedd bdbd e058 8dbd 7c8a ddbd 16bc debd
000003f0: 0a97 213c 8e5b 4abc 701e 11bd 9957 9d3d
0.06400357 0.0667638 0.11918898 -0.02535583 -0.033666737 -0.018146917 0.0015884936 -0.01829268
-0.014843598 0.074025676 0.030584633 0.109393194 -0.08177154 -0.07481518 -0.037352815 0.13122861
0.0128664225 0.13188614 0.0138787925 -0.0092552155 0.04898265 -0.06521962 -0.03142353 -0.043421708
-0.023807727 -0.0027860254 -0.015655383 0.13539846 -0.1402137 0.046200514 0.046066716 0.07395518
0.027680665 -0.043776818 -0.0037425458 0.032180816 0.12423493 0.060103953 0.032456174 -0.021735482
-0.042570308 -0.13389482 -0.050489433 -0.07970465 -0.07936547 0.03529972 -0.045675084 -0.014241964
0.040766895 -0.09928954 -0.107507005 -0.13170514 -0.12803337 0.08670572 0.06283118 -0.022415435
-0.11353149 -0.011212498 0.11801021 -0.090003006 -0.021654077 0.025482116 0.053706653 -0.031050108
0.08658782 -0.11131965 -0.1284742 0.11162452 0.120093286 -0.12389047 0.024774387 0.09712633
0.08084081 -0.02279754 -0.0029483289 0.041907966 -0.11624673 0.12810375 -0.09082713 -0.013182218
0.13139068 0.052013054 -0.03539552 0.051283963 0.10249414 -0.108625144 0.10413481 0.13316251
-0.05241901 0.03100078 0.07460017 -0.11090665 -0.05746767 0.12745236 0.049362984 -0.0064222263
-0.108204365 -0.13330168 0.032901533 -0.13402924 0.12567021 0.11204578 0.0011233292 0.063719004
-0.10931998 -0.11325231 0.10182065 -0.07896498 -0.0061243977 -0.0090603875 -0.0647044 -0.084838405
0.07606206 0.020327806 -0.10090507 0.04742937 0.08222167 -0.06288361 -0.08765542 0.028137535
-0.022167196 0.12355343 0.09925113 -0.007935108 -0.09708369 0.069435075 0.07658109 -0.007024467
0.0038289372 -0.07723555 0.078043014 0.03052774 0.065806784 -0.10776948 -0.08406736 -0.024439253
-0.009189203 0.134177 0.01134757 0.044679232 0.08989686 -0.13077778 0.05099328 0.10908763
0.14162578 -0.09261282 0.13646127 -0.026092663 0.02997466 0.09545548 -0.124819174 0.040942118
0.008444563 -0.041433 0.05400099 -0.0326335 -0.0021818727 0.06867193 0.04294412 -0.067945845
0.01464203 0.12864907 -0.034917943 0.10953544 0.061822444 -0.0746765 -0.042796336 -0.093819275
0.10553151 0.002163291 -0.06249726 -0.048271865 -0.013110861 0.056961283 -0.07674139 -0.07463101
0.05208963 0.037087098 -0.119753934 0.01878804 0.12794809 0.108575046 -0.10395819 -0.011893541
0.03504531 -0.11474863 0.05302471 -0.1110539 0.039258584 -0.033753708 -0.09855476 0.1265031
0.058355853 -0.093646996 0.0031591356 -0.028049558 -0.029790372 0.08120851 0.13470452 0.028655574
0.07194728 0.0052613765 0.11440833 0.06346971 -0.1119682 0.018656475 0.0824009 0.09023179
0.015464883 0.039106917 0.0669689 -0.116353646 -0.041563433 0.02786833 -0.09733686 0.095806815
0.03267564 0.010366699 -0.09151893 0.07764082 0.082606226 -0.037888292 -0.04990686 -0.12038797
0.023992017 0.11956014 -0.055839486 0.003260511 -0.020790024 -0.098288976 -0.040922195 -0.11429567
0.08090589 0.12362319 0.00965345 0.059345394 -0.08760272 0.059481934 0.076680034 -0.053536993
0.026816696 -0.08353348 -0.012361333 -0.049934395 -0.07578036 0.08032864 0.12279801 -0.07130864
-0.09270857 -0.06901717 -0.108174294 -0.10875718 0.009862671 -0.01235093 -0.035429418 0.076827236

16.bias f4 [50]
00000000: 7a9d bbbd b458 1d3e 09cf e0bd 6b18 0bbe
00000010: 92a9 b9bd 9cab 053e cea9 9ebd 4985 b3bd
00000020: 8c9b 3b3d a113 8e3d ef40 c9bd e4d6 9fbd
00000030: d458 9f3c f579 c13c ea0f f9bd 28f3 a6bd
00000040: 9642 13bd fbc5 28bc e38e c53c a611 2fbd
00000050: 358a f93d 4325 b7bd 77ad cdbd 1918 dd3d
00000060: f107 ed3d 98c5 e13d 8916 29be 440b 613d
00000070: 55c4 afbd b3e4 803d 8cdf e4bd 6ad8 94bd
00000080: 989e cd3c 9f80 663d 0285 a73d 126b f73d
00000090: 76fa 2ebd 383b bdbd 9026 20bd 5b6a 2f3d
000000a0: 026f 4abd 9648 d6bd 39ab 043e 86b0 6cbc
000000b0: b86f d6bd 385a b73b 6fcf 01be d2da d93d
000000c0: 9fb1 603d fffc 813d
-0.09160896 0.15365869 -0.10976989 -0.13583533 -0.09065546 0.13053745 -0.077472314 -0.087656565
0.045802638 0.06937338 -0.09826838 -0.07804659 0.019451536 0.023617724 -0.121612385 -0.08151847
-0.035952173 -0.0103011085 0.024115985 -0.04274144 0.12184564 -0.08942654 -0.100428514 0.10795612
0.1157378 0.11024016 -0.16512503 0.054942384 -0.08582369 0.06293621 -0.11175451 -0.0726784
0.025100037 0.056275006 0.08179666 0.12080969 -0.042719327 -0.09239811 -0.039099276 0.042826038
-0.04942227 -0.104630634 0.12955941 -0.014446383 -0.104705274 0.0055954717 -0.12676786 0.1063744
0.054856893 0.06347083

16.weight f4 [50, 50]
00000000: 4d18 053e 723e 9c3d f658 c73d 2456 44bd
00000010: 56bb c33d 10c1 4c3d 3cd2 cc3d 6ee0 34bd
00000020: deb1 b6bd e000 5a3c 003d fe3b 1a75 963d
00000030: c8d2 0cbd 0a37 a53d 8c6e 2a3d e9a1 81bd
00000040: 940c 80bd 6007 d93d 9ade 7ebd e01a dfbb
00000050: ce44 f23d 80ec d0bd 60ec c13c 2ca9 0cbe
00000060: 542d 31bd 22ad ef3d fb1f 083e f4f6 95bc
00000070: 8356 0a3e 9000 3f3c 2674 28bd e7ee 0b3e
00000080: 455c a1bd 8024 953c 1493 ccbd daf1 14bd
00000090: 7307 033e babd 97bd 0095 abbb 1486 6a3d
000000a0: 1a4a a4bd a4f4 0dbd a842 673d 8010 b8bb
000000b0: 96b7 b73d 8ce2 d33d ec4c d3bc c251 9bbd
000000c0: 8cf1 f9bd acbb 90bd 7bbd 0a3e fafe c33c
000000d0: bb7d 143d be69 eb3d d419 b1b9 8570 71bd
000000e0: eaf9 b3bd 0ff0 dabd 808e a0bc 4cce c2bc
000000f0: 24c2 cbbd 9cac 9bbd c5c3 f0bd 49ae ddbd
00000100: 0071 403c 6528 773c 07d3 6dbd 87e4 c7bd
00000110: fd10 0e3e a224 683d d6df de3d bb19 083d
00000120: d9c1 4e3d 7be4 eebd 37d8 173e 2de8 a2bd
00000130: d215 d23c da1d 2bbd c178 fabc 998d 703c
00000140: bc8f a73d cb46 80bd c082 c73a e94b ca3d
00000150: 4c4d 8ebc d620 fdbd 071c 033d a608 cd3d
00000160: c787 843d def6 37bd 2945 5b3d eef0 88bd
00000170: dac1 a3bd 1959 d23c f6b0 ddbd 810c e33d
00000180: 4b16 f4bc 6cfd 1a3d 9f40 483c 502f 51bd
00000190: 8872 733d 31ba 7c3d e55b 77bd 804e 8a3c
000001a0: 52e4 8bbd 1325 8c3d 61c4 e6bd b9d4 a23d
000001b0: 23ab 0c3d 92da a03d e663 0a3e 04b1 0cbd
000001c0: 65a2 c53d 346f 82bc 4cb0 8d3d e23d 4bbc
000001d0: 7949 11be 3072 d43c d5d0 eb3d 90ea d23d
000001e0: e82c eebc e7e4 01be 8d2b 863d c70f e03c
000001f0: c34b cc3d 024e a0bc f2c7 0cbd e445 a33d
00000200: 6efe fc3d 4aec 8c3d 18d4 563d 0cc7 863d
00000210: a8da 0e3d 5b33 e3bd 2610 df3d dffa 083e
00000220: 85b3 0ebe 5097 943d 9fc7 4b3d 80d6 b6bb
00000230: b75e 443d fb04 3b3d 986c 55bd 1a45 ccbd
00000240: 98e8 153d 8dfe 973d 22e3 d93d 985d 76bd
00000250: d688 013e 928d ca3d c40e 353d 9e2c aebd
00000260: 27df 013e f406 90bd 1057 e1bd d8c7 01be
00000270: c31e 0abe 48c1 d63c 165a e33d ab17 0f3e
00000280: 60b9 a53b 36a7 16bd c24c ba3d 863b fe3d
00000290: 3df5 0c3e 9aaf ea3d 2b82 10be 44b3 04bd
000002a0: ad56 073e a64c 5abd b87f a63d 3920 90bd
000002b0: 80d3 7a3b a23e fd3d cfbd a8bd 75fd 0ebe
000002c0: 324f 77bd dc74 503d 205d 0fbd 5656 db3d
000002d0: fec0 73bd 93ea 03be 727b a23d 149c ac3d
000002e0: 7176 f9bd 4841 d1bd 3a60 fbbd 1a51 7fbd
000002f0: 9ac0 26bd 9010 97bd 04da 8ebc ecae 0cbe
00000300: 9a7e eabd 7c7e f8bd e092 57bc 903c b53c
00000310: ac49 3cbd eced b23d d851 f4bd 9879 adbd
00000320: 88b8 db3d dc88 53bd 50e9 213c 3e78 e03d
00000330: 2ceb 223d e479 d7bd 4a68 b7bd ad15 d5bd
00000340: 00ee cdb9 d871 813c 2e2c 5fbd 56bc b8bd
00000350: 0899 86bd 9c56 993d b85c c73d 80bf e8bc
00000360: 6fb2 043e 1078 05be bc11 b3bc bc82 3c3d
00000370: 8896 d63c 4229 b63d 3cf5 1ebd 58e7 d73c
00000380: d836 59bd 42f6 85bd f845 37bd fc5a 39bd
00000390: 5afe 56bd 608d af3d 2440 9bbc 70ae 013c
000003a0: 3993 9ebd 0f3e 0c3e a09b ae3c ee34 f13d
000003b0: 3ea7 6dbd 9097 e33c 3232 7cbd 425a cabd
000003c0: fd33 e5bd f083 07be 8070 7b3c 56c5 993d
000003d0: 14d1 f6bd a82e c33c 9494 16bd 523c 923d
000003e0: a0cc e9bb b25e 833d 3619 73bd 9bd2 893d
000003f0: 375f 9fbd 642c 0c3d bc28 e43d 9734 193d
0.12997551 0.07629098 0.09733765 -0.047933713 0.09557216 0.049988806 0.100010365 -0.044159345
-0.08920644 0.013305873 0.0077587366 0.07346554 -0.034380704 0.080671385 0.041609332 -0.0632971
-0.06252399 0.1059711 -0.06222401 -0.0068086237 0.1182953 -0.10201359 0.023672283 -0.13736409
-0.04325612 0.11702944 0.1329345 -0.018306233 0.13509564 0.011657849 -0.041126393 0.13665353
-0.07878927 0.018205881 -0.099889904 -0.03636346 0.1279581 -0.07409234 -0.005236268 0.057256773
-0.08021946 -0.034657136 0.056460053 -0.0056172013 0.08970563 0.10345945 -0.025793515 -0.075839534
-0.122042745 -0.070670456 0.13548844 0.023925293 0.03625272 0.11494778 -0.00033779314 -0.058945198
-0.08787902 -0.10690319 -0.0195992 -0.02378001 -0.09949139 -0.07601282 -0.1175609 -0.10824258
0.011745691 0.015085314 -0.05806258 -0.09760385 0.13873668 0.05667556 0.10882537 0.033227663
0.050477836 -0.11664673 0.14828573 -0.0795444 0.02564517 -0.041776516 -0.030575158 0.014682197
0.08181712 -0.06263503 0.0015221462 0.0987776 -0.017370842 -0.123597786 0.03200915 0.10011415
0.0647121 -0.044913165 0.053532753 -0.06686579 -0.079959586 0.02567725 -0.10824768 0.11086369
-0.029795786 0.03783934 0.012222438 -0.05107051 0.059435397 0.061701003 -0.06039037 0.016883135
-0.06830658 0.06843009 -0.11267925 0.0795073 0.034342896 0.07854189 0.1351467 -0.034348503
0.09650115 -0.015922166 0.069183916 -0.012404891 -0.14188184 0.025933355 0.11514441 0.102986455
-0.029074147 -0.12684976 0.065512754 0.027351273 0.09975388 -0.019568447 -0.03437037 0.07972315
0.12353216 0.06881006 0.052448362 0.06580934 0.034876496 -0.1109378 0.10891752 0.1337695
-0.13935669 0.07255423 0.04975092 -0.0055797696 0.04794189 0.045659047 -0.052105516 -0.099741176
0.03659877 0.074215986 0.10639025 -0.06014785 0.12649855 0.09890284 0.044203535 -0.08504604
0.12682782 -0.07032576 -0.11002934 -0.1267389 -0.13488297 0.02621521 0.11101167 0.13973872
0.005057499 -0.03678056 0.09096672 0.12413697 0.13765426 0.114592746 -0.14112155 -0.032397524
0.13216658 -0.053295754 0.08129829 -0.07037396 0.0038273036 0.12365462 -0.08239328 -0.13963874
-0.06037826 0.050892696 -0.03500092 0.10709827 -0.059510224 -0.12882452 0.079337016 0.08428207
-0.12180794 -0.102175295 -0.12274213 -0.062333204 -0.040711023 -0.07376206 -0.017437942 -0.13738602
-0.114499286 -0.121335 -0.013157576 0.022123605 -0.045968696 0.08736786 -0.11929673 -0.08470458
0.10728556 -0.05164419 0.009882286 0.109604344 0.03977506 -0.10521296 -0.089554384 -0.10404525
-0.0003927797 0.015801355 -0.054485492 -0.09020297 -0.06572157 0.074872226 0.097344816 -0.028411627
0.12958692 -0.13034081 -0.021859042 0.046023116 0.026194826 0.08894588 -0.038808092 0.02635543
-0.05303082 -0.065411106 -0.04474446 -0.045252785 -0.052488662 0.08571887 -0.018951483 0.007915124
-0.07742924 0.13695548 0.021314442 0.11777674 -0.058020823 0.027782232 -0.061571307 -0.098804966
-0.111915566 -0.13233924 0.015346646 0.07508342 -0.12051597 0.023825958 -0.03676279 0.071404114
-0.007134989 0.06414546 -0.059350215 0.06729623 -0.07781833 0.03422202 0.11140582 0.03740367

18.bias f4 [10]
00000000: cfb9 fb3d 49a4 b7bd 2065 a63b 46a2 db3d
00000010: 36b6 2a3e ca5d d03d 5007 393d 143a 08be
00000020: 9b08 f33c b5e4 1c3e
0.122912996 -0.08966882 0.005077973 0.107243106 0.1667107 0.10174139 0.04517299 -0.13303405
0.02966719 0.1532162

18.weight f4 [10, 50]
00000000: 3982 083e 083d d9bd 00c5 0dbd 01a7 063e
00000010: 7652 a0bd d033 4b3d 337c d2bd 2429 87bd
00000020: 703f b73c 3931 013e 2f01 06be 2031 c83b
00000030: 350e b1bb bcc3 613c 55a6 b3bd d0c7 03be
00000040: aedc 0cbe ca90 ac3c 2e77 29bd d0f8 bb3d
00000050: e616 0abd 7761 e0bd d415 fdbd f3b8 10bc
00000060: 29e1 bc3d 66bd c5bd 23fc c8bc b17a a2bd
00000070: 6ed0 b3bd dea6 0f3e 63f7 f9bd 11c4 b2bd
00000080: 5a03 003c ab7d 3abd 4c7b dfbd 163d ad3d
00000090: f1dd 913d fd80 ef3d a807 77bd e0a2 4fbd
000000a0: 3ede eebd 9e72 ec3d 9098 a03c 9cad 033e
000000b0: 4475 113d e711 1e3e c642 c5bd c21e 21bd
000000c0: 4b47 e7bc 8443 b7bd 0061 933b a5e7 1cbe
000000d0: 5911 74bd 2cf7 693d e077 a63c 924f 1b3d
000000e0: fa27 b63d 0558 073e 71a3 b8bd 95f2 823d
000000f0: 08c3 4abd 409c 00bc 06a2 753d e65b b5ba
00000100: 2a67 d0bd 0e4b 01bd 3a28 b23d 1110 d53d
00000110: 7b15 db3d e86c debd e055 bdbd 6a08 b23c
00000120: 86ec 0a3e 169c 023e 55eb 6cbd 7038 833c
00000130: 98b0 0ebe ae28 c83d 3095 933c 1756 c33b
00000140: 7bfe c23d e96f ce3b df29 91bd db28 b13c
00000150: 8d59 13be 93e0 603d 148e debd 4343 10be
00000160: e26c f63d 6fc1 fcbd 4889 8b3c c808 aabc
00000170: 59c9 a03d e91e 0abe 8c94 89bd ed92 a8bc
00000180: 861a 90bd 8446 c93d 9c94 09be a111 9a3d
00000190: 0861 9e3c 22f6 a4bb bc88 d1bd fcb4 8dbc
000001a0: 84c8 bcbc 3523 88bd a049 723d e8db 6f3c
000001b0: 70f5 e53b 42ac 2cbd 7a17 d33d 50bc d4bc
000001c0: e594 26bb be89 cf3d b1d0 51be f383 023e
000001d0: 6d84 0f3e 1107 7fbc 3a54 c9bd 7ef5 bfbd
000001e0: adf0 d43d 86f5 92bd c860 8dbc 2ada 08be
000001f0: d767 96bd 5e9e d7bd 38f9 523d 109d 043e
00000200: 3e41 f83c 8808 04be 800d 643c f4a3 8ebb
00000210: b181 213d ef87 f2bc f6a6 febc 1640 ac3d
00000220: f40a bbbd 446b d13d 3043 5b3d 8905 c0bd
00000230: 00e0 df3a 8f1c 95bd 0759 0abd 53f2 c43c
00000240: f4cf 073d 70b4 9c3d 03fa 093e fcc6 eb3d
00000250: 5107 a7bd 888b e83d 4083 04bc 960c cfba
00000260: ca64 c1bd 8c3e 66bd 5fe1 83bd d2d7 40bd
00000270: 9728 c0bd cf3f b5bd a88c e3bd b2d5 aabd
00000280: 9266 ed3d 13e6 0fbe 0e0e 543c 5eee 6b3c
00000290: 6105 f93c 864a cabd d218 6ebd cb82 80bd
000002a0: 3479 eabd 64ab 09be 6e21 03be bf7b 06be
000002b0: d732 a4bd 717a da3d f2ec 1ebe f403 a03d
000002c0: e59c 323e 502c 21bc 536f 01be 4c9c 90bd
000002d0: 41aa c13d 0c4d c53d 271b c93d b996 7bbd
000002e0: 7ad0 5b3d 2b2e 003e 794a fcbd 1137 00be
000002f0: d89d 9b3c 893e c4bd 302e 113c b0fe a63c
00000300: b2fa edbd 90f5 07be b8f8 08be f9ce de3d
00000310: c4c1 0d3d e72d d33c 20df f3bd 2a8f babd
00000320: 0069 d53b 2318 afbb ed17 11be 884c f53c
00000330: 88dd 483d 049c 903d fe48 fb3d af9d 073e
00000340: 71a6 bfbd e8b3 e83d 087c b9bc 80a0 4a3d
00000350: f495 97bd a47b c73c 36d1 83bc d14e 073e
00000360: 40f3 45bc 5687 0a3c e333 683d 48a2 843d
00000370: 8312 0bbd 2107 c2bd 730a 04bd e0ea 013e
00000380: f103 d0bd d0f4 e9ba e0b5 94bd a117 433e
00000390: 1ce9 ee3c 7ed4 afbd 77ba c3bd a7a3 d2bd
000003a0: bba1 e13c 64cc 90bd 66c3 d83d 4df1 7c3d
000003b0: 469a b1bd 07a5 f03d 4804 aa3d 320c 843d
000003c0: 5d45 0b3e 7a74 c83d 831d e4bd 1eb4 633b
000003d0: 20a3 b3bb f8ef fdbc 1c18 1ebd 0064 f03c
000003e0: 87d3 00bc e1f5 04be c219 14bd a365 1d3d
000003f0: 8606 90bd 1500 02be 65fd 89bd bf30 093d
0.13330926 -0.10607344 -0.034611702 0.13149644 -0.07828228 0.04960996 -0.10277595 -0.06599644
0.022369117 0.12616433 -0.13086389 0.006109372 -0.005403305 0.013779577 -0.0877196 -0.12869191
-0.13756058 0.021065135 -0.041373424 0.091783166 -0.033713244 -0.1095609 -0.12357679 -0.008833158
0.092226334 -0.096552655 -0.02453429 -0.07933558 -0.08779989 0.14028499 -0.122053884 -0.08728803
0.007813299 -0.045530003 -0.10912189 0.08458917 0.0712241 0.116945244 -0.060310036 -0.05069244
-0.11663483 0.11545299 0.019603997 0.12859195 0.035512224 0.15436517 -0.09631877 -0.039335974
-0.028232237 -0.089484245 0.0044976473 -0.1532274 -0.059586857 0.057120487 0.020320833 0.03791768
0.08894344 0.1321717 -0.09015549 0.06393925 -0.049502403 -0.007849753 0.05996897 -0.0013836592
-0.10175927 -0.03156572 0.08699079 0.10403455 0.106974564 -0.10860616 -0.09244895 0.021732528
0.13566789 0.12754855 -0.057841618 0.016018122 -0.13934553 0.09773384 0.018015474 0.0059611904
0.095211945 0.006299962 -0.070880644 0.021625927 -0.1438963 0.05490167 -0.10866943 -0.14088158
0.120324865 -0.12341582 0.017033234 -0.02075614 0.07850904 -0.13488354 -0.06717786 -0.020577872
-0.07036309 0.09827903 -0.13435596 0.07522894 0.019333377 -0.005034224 -0.10231158 -0.017298214
-0.023044832 -0.0664734 0.059152246 0.014639832 0.007017784 -0.042156465 0.10307212 -0.0259687
-0.0025418338 0.10133694 -0.20489766 0.12745647 0.1401536 -0.01556565 -0.09830518 -0.09372996
0.10397468 -0.07175736 -0.017258063 -0.13364473 -0.07344025 -0.10528253 0.051507205 0.1295054
0.030304547 -0.1289388 0.013919234 -0.004353041 0.039430324 -0.029605834 -0.031085473 0.08410661
-0.091329485 0.102255374 0.053530872 -0.09376056 0.0017080307 -0.07280838 -0.03377631 0.02404133
0.033157304 0.07651603 0.13474278 0.11512563 -0.08155692 0.113547385 -0.008087933 -0.0015796598
-0.09443052 -0.056211993 -0.064394705 -0.047080822 -0.09382742 -0.08850061 -0.111108124 -0.083415404
0.11591829 -0.1405261 0.012942804 0.014400093 0.030398073 -0.098774955 -0.05812914 -0.06274947
-0.11448899 -0.13444287 -0.12805721 -0.13133143 -0.080175094 0.10667885 -0.15520075 0.07813254
0.17442663 -0.009837225 -0.12640123 -0.07061061 0.094563015 0.09633836 0.09819632 -0.061423037
0.053665616 0.12517612 -0.12318892 -0.12521006 0.018996164 -0.0958224 0.00886111 0.020385116
-0.11620082 -0.13277268 -0.13376129 0.10879321 0.034608617 0.025778724 -0.11907792 -0.09109338
0.006512761 -0.0053434535 -0.14169283 0.02994372 0.049039394 0.070610076 0.122697815 0.13243745
-0.09357918 0.113624394 -0.02264215 0.04946947 -0.07401648 0.024350949 -0.01609097 0.1321366
-0.012081921 0.008455118 0.056690108 0.06476265 -0.0339532 -0.09474016 -0.032236528 0.12687254
-0.10157002 -0.0017849449 -0.072612524 0.19051982 0.02916389 -0.085854515 -0.0955705 -0.102851205
0.02754294 -0.070702344 0.10584144 0.06175356 -0.086720034 0.117502265 0.08301598 0.064476386
0.13600679 0.09787841 -0.111384414 0.003474481 -0.0054820925 -0.030998215 -0.03859721 0.029344559
-0.007862932 -0.1298442 -0.036157377 0.038427006 -0.07032494 -0.12695344 -0.06737784 0.033493754

2.bias f4 [50]
00000000: 597d c3bc 904c baba e055 8fbb 7b07 063e
00000010: 28c8 fdbd df7d 283e a153 1cbd a19e e6bd
00000020: f66d bbbd a81d e3bd f04d 903c 3263 0b3e
00000030: ae71 3c3d d265 173e 9edc ed3c 252e 07be
00000040: d083 e63d 65f6 07be a8b2 cebd 3280 e43d
00000050: 54b8 febc 9a3d bb3c 2137 00bc 8425 243e
00000060: 7ec4 ba3d c289 f33d 2e6b 2ebd e048 da3d
00000070: eb3a ddbd 73a9 7b3d 2a06 debd 97ea 873d
00000080: bc0a 013e 7add 15bd 4d18 963d fef0 843d
00000090: ad3d 78bd 5e8a 19bd 4ac4 f2bd 8967 e8bc
000000a0: 00b8 7a39 dd15 2e3e 7b8e a63d 07c7 fd3c
000000b0: 820c a33d 76a7 673d eef9 013e 77f9 df3d
000000c0: 8263 163e 9057 82bd
-0.023863481 -0.0014213491 -0.004374251 0.13088791 -0.123916924 0.16454266 -0.038165692 -0.11260725
-0.09151833 -0.11089641 0.017615288 0.13612059 0.04600685 0.14784935 0.029035863 -0.13201196
0.1125561 -0.13277586 -0.1009267 0.11157264 -0.031093754 0.022856522 -0.007825644 0.16029936
0.09119509 0.118915096 -0.042582683 0.10658431 -0.10802253 0.061440896 -0.108410195 0.06636541
0.12601751 -0.03658817 0.07328854 0.06491278 -0.060605694 -0.037485473 -0.118538454 -0.028369682
0.00023910403 0.17000528 0.08132645 0.030978693 0.0796137 0.056556188 0.12692997 0.109362535
0.14686397 -0.063643575
