rnn_bidirectional.onnx (onnx, 863 bytes, 5 tensors)

W f4 [2, 4, 2]
0	0x3f94dfce	1.16308
1	0x400d94d9	2.21221
2	0x3ef7b54a	0.483805
3	0x3f462520	0.774004
4	0x3e996052	0.299563
5	0x3f858f71	1.04344
6	0x3e1cb296	0.153025
7	0x3f978b05	1.18393
8	0xbf959b91	-1.16881
9	0x3ff2238e	1.89171
10	0x3fc76ed6	1.55807
11	0xbf9e0bf6	-1.23474
12	0xbf0bc30d	-0.545945
13	0xbfe2b11c	-1.77103
14	0xc016c2a4	-2.35563
15	0xbee71bce	-0.451384

R f4 [2, 4, 4]
0	0xbe879a28	-0.264848
1	0xbfa6cc4f	-1.30311
2	0x3d91d5de	0.0712087
3	0x3f2458cd	0.64198
4	0xc030fbfc	-2.76538
5	0xbf26ee52	-0.652074
6	0xbf48c63f	-0.784275
7	0xbfe23d1d	-1.76749
8	0xbee6be9d	-0.450673
9	0xbf6afd65	-0.917929
10	0xbf7776a3	-0.966654
11	0x3f269e80	0.650856
12	0x3e923209	0.285538
13	0xbf68ebcc	-0.909848
14	0xbff3c99b	-1.90459
15	0xbe104ee8	-0.140926
16	0xbfaf8716	-1.37131
17	0x3f47d849	0.780644
18	0x3ee1cbef	0.441009
19	0x3f944bb2	1.15856
20	0x3ea06898	0.313298
21	0x3ffbdc48	1.96766
22	0xbf8f5936	-1.11991
23	0xbb907e52	-0.00440959
24	0x3ed0b3d5	0.407622
25	0x4026c3a0	2.60569
26	0xbf574adc	-0.840986
27	0x3f15edaf	0.585658
28	0x3f52c344	0.823292
29	0xbf3262aa	-0.696818
30	0x3f9358e2	1.15115
31	0x3e19e01e	0.150269

B f4 [2, 8]
0	0xbe24e4c9	-0.161029
1	0xc025c116	-2.58991
2	0x3eadefe9	0.339721
3	0xbea21ea3	-0.31664
4	0x3d48ebcc	0.049053
5	0xbff2f007	-1.89795
6	0xbea77c67	-0.327121
7	0xbe237586	-0.159628
8	0xbe3b7282	-0.183054
9	0xbf7a3ac1	-0.977459
10	0xbf8aa2b1	-1.08309
11	0xbc87e3c4	-0.0165881
12	0x3fff2aae	1.99349
13	0x3fad74e6	1.35513
14	0xbf32aeb0	-0.697978
15	0xbf3567fd	-0.708618

sequence_lens f4 [3]
0	0x40400000	3.0
1	0x40400000	3.0
2	0x40400000	3.0

initial_h f4 [2, 3, 4]
0	0xbebdfd8b	-0.371075
1	0x3e814c01	0.252533
2	0xbfb60275	-1.42195
3	0x3ec93b3a	0.39303
4	0xbeed1d04	-0.463112
5	0xbf831ee2	-1.02438
6	0xbf09d484	-0.538399
7	0xc00dc3df	-2.21508
8	0xbfb6075f	-1.4221
9	0xbe18f323	-0.149365
10	0x3fa11d15	1.2587
11	0x3fb1042e	1.38294
12	0xbdac5cb5	-0.0841612
13	0x3fba7dfe	1.45697
14	0x3d8b2372	0.0679387
15	0x40076406	2.11548
16	0xbfc15864	-1.51051
17	0x3fc136a4	1.50948
18	0x3e534dad	0.206351
19	0xbf7b3ffb	-0.981445
20	0xbe62cade	-0.221477
21	0xbe6c03ff	-0.230484
22	0x3ee818a4	0.453313
23	0x3f4ba451	0.795476
